gwak/output/ResNet_HL_FM_multiSignalAndBkg/mlp_model_JIT.pt (torch, 16791 bytes, 7 tensors)

weight f4 [32, 16]
000000 00 54 f5 ba 5e 54 09 3e 16 b3 52 be 80 66 3c be
       -0.001871705 0.1341109 -0.20576128 -0.18398476
000010 f4 32 c5 bd ec 4b 89 3d 40 4f a2 bb ce fa 4a 3e
       -0.09628859 0.06703934 -0.004953295 0.19822237
000020 70 bf b5 bc 4c 7b 87 3d ac bb 9a bd 70 48 49 bd
       -0.022186011 0.06615314 -0.07555327 -0.049141347
000030 b8 91 74 be 52 8b 29 be e8 0e d3 bd 00 bb 17 3c
       -0.23883712 -0.16557053 -0.103055775 0.009260893
000040 28 4f b7 3d 55 72 24 3e 6f c2 22 be bb f8 c8 bd
       0.08950645 0.16059239 -0.15894483 -0.098130666
000050 43 00 a4 3d 0f a8 49 3e 76 c3 26 bd b9 92 4a 3e
       0.080078624 0.19693016 -0.04071375 0.19782533
000060 98 53 50 bd fe 37 18 3d a8 f8 5c 3e 69 99 62 be
       -0.05086097 0.037162773 0.2157923 -0.22128834
000070 1f 9e 2b be 9c 77 57 bd 02 5f dd bd ac 41 52 3e
       -0.16759537 -0.052604303 -0.10809137 0.20532864
000080 2f 72 08 be f9 37 bf bd e7 17 69 be 83 9e 9a be
       -0.13324808 -0.09336848 -0.22763024 -0.3019906
000090 08 a2 0f bb c6 d1 87 3e 8e ef ee 3b 44 0d 97 3d
       -0.0021916647 0.26527232 0.0072917407 0.07375577
0000a0 86 d8 cf bd fc 92 76 be 9e a5 f3 bc 3c e4 b3 be
       -0.101487204 -0.24079508 -0.029742058 -0.35135067
0000b0 77 7c 49 be d4 6a a1 be ea 46 91 3e d2 c1 2e 3e
       -0.19676386 -0.31526816 0.28374416 0.17066124
0000c0 45 ae ad ba 50 1d 21 be be 12 9f 3e 13 cf 3f 3e
       -0.0013250789 -0.15733838 0.31068987 0.18731336
0000d0 2e e2 bc 3d 96 ce cd bd 18 5a 4b 3e 5c cb 52 be
       0.09222828 -0.10049169 0.19858587 -0.20585388
0000e0 9d bb 9d 3d 30 47 a4 be 09 96 0c bd 1f a3 64 bd
       0.077018 -0.32085562 -0.034322772 -0.055819627
0000f0 86 94 22 bc 35 51 93 3e 73 35 a6 be b5 d8 66 3e
       -0.009923106 0.28772894 -0.32462654 0.22543605
000100 a0 13 8d bd e5 e0 e4 3d 90 a9 2a be 7e 4c 0c bc
       -0.06888509 0.11175708 -0.16666245 -0.008563159
000110 a9 25 98 3e 3f f8 c9 3e fd ea b1 be cc a6 18 be
       0.29716232 0.3944721 -0.34749594 -0.14907378
000120 19 9c 73 bd 06 68 8d 3e 29 5c a2 3d 93 aa 3d 3e
       -0.05947504 0.27618426 0.079277344 0.185221
000130 83 c5 07 3e cc a8 e5 be 0b 4c 71 3e 56 ed 99 be
       0.13258938 -0.44855344 0.23564164 -0.30063885
000140 ba dd c1 be 1d 30 ff 3d 1e 17 8f 3e fa 34 a7 be
       -0.37864476 0.12460349 0.27947325 -0.32657605
000150 32 f7 1d 3e 8d 6c 86 bd 0e 62 0f be 71 65 58 be
       0.15426329 -0.06563673 -0.14002249 -0.21132447
000160 22 6d 96 3e d8 f0 e1 bd 21 bf 4b 3e 6f e3 99 3e
       0.29380137 -0.110322654 0.19897129 0.3005633
000170 ac 6c 1e 3d 97 1d 70 3e f5 0c 8d be f3 ad d8 bc
       0.038677856 0.23448788 -0.27548948 -0.026450133
000180 e5 81 cd 3d f8 ee e2 bd b4 05 c5 bb 27 43 5e be
       0.10034541 -0.11080736 -0.0060126428 -0.21705304
000190 77 3c 23 3e 3f 5c 32 bb 93 2b 93 bd a1 b1 17 be
       0.15941034 -0.0027215627 -0.071860455 -0.14813854
0001a0 16 d4 40 be d7 00 65 bc e4 bc 2d bd 7c 2f 0f 3d
       -0.18830904 -0.013977251 -0.04241647 0.034957394
0001b0 5a f0 29 be 3c be 61 3e 6a 8c 85 be 9b 31 a8 3e
       -0.16595593 0.22045225 -0.2608369 0.32850346
0001c0 b4 84 c9 be db 34 dc 3e 9a 8a 65 3e 7a 17 85 be
       -0.39359057 0.43009076 0.22416154 -0.25994474
0001d0 3c 65 80 be b3 f2 db bd c8 56 52 3c 26 65 f9 3c
       -0.25077236 -0.107396506 0.012838073 0.03044374
0001e0 2b a7 15 be 25 e6 66 3e 57 e4 c8 be f2 61 8d 3e
       -0.14614551 0.2254873 -0.3923671 0.2761379
0001f0 f4 c5 df be 4b 9b 8d be 75 18 8b 3d c5 c9 37 be
       -0.43705714 -0.27657542 0.06791774 -0.17948063
000200 42 93 cf 3d ce 19 98 be c5 bd 5d 3d c7 1b e7 3d
       0.10135509 -0.29707187 0.054136056 0.11284595
000210 d8 24 d3 be 23 8c 1c be 60 32 d4 3e 22 fc 01 3d
       -0.41239047 -0.15287833 0.41444683 0.031734593
000220 b9 b2 52 be 32 8b 1a bd e5 53 26 3e 97 57 da 3d
       -0.2057599 -0.037730403 0.1624294 0.10661238
000230 14 89 da 3e ec e8 8d 3e 0b fa 5f 3d d8 c0 05 bd
       0.42682707 0.27716768 0.05468182 -0.032654613
000240 04 33 a3 be 68 b9 6b bd 1a 05 e0 3d c9 d3 8b bc
       -0.3187486 -0.057549864 0.10938473 -0.01706876
000250 77 49 a2 bc f9 75 de bd b4 62 94 be 0a ac 5c be
       -0.019810421 -0.10862345 -0.28981555 -0.21550003
000260 52 ef d1 3d 7f b2 38 3e c6 aa 6c 3d a0 d5 6e be
       0.10250725 0.18036841 0.05778005 -0.23323679
000270 ae 27 af bb 53 46 88 be 70 f2 a0 3d 74 e2 bb bd
       -0.0053453064 -0.26616153 0.07858741 -0.09174052
000280 40 d1 1a bd 3b 0a 89 be 97 9f 40 bd f8 bd bb be
       -0.037797213 -0.26765618 -0.047027197 -0.36668372
000290 11 d9 45 3d f0 cb 22 be a7 cd 88 be 1e 84 a0 bd
       0.048302714 -0.15898108 -0.267194 -0.07837699
0002a0 92 cc a8 be 88 f8 05 be 81 35 ef 3e 7c d2 b8 3d
       -0.32968575 -0.13083088 0.46720508 0.09024522
0002b0 b7 40 d1 3e 9a f3 94 3e 55 3b ef be 51 24 9a 3e
       0.40869686 0.29092103 -0.46724954 0.30105832
0002c0 06 dd ab 3d 74 c7 cc bc db 99 97 3e 08 05 49 be
       0.08391766 -0.02499745 0.2960957 -0.19630826
0002d0 94 5d 48 be 52 08 50 be 62 ea bd 3e 2a 56 f3 3d
       -0.19566947 -0.20315674 0.37092882 0.11881669
0002e0 ea fb 04 be c9 26 1f 3d eb bc 8e be 5b da 13 be
       -0.12986723 0.038855348 -0.27878508 -0.14438765
0002f0 8d 6d b0 be e3 85 f0 3d 20 07 ef 3d bc 62 34 3e
       -0.3445858 0.11744287 0.11671281 0.17615789
000300 88 f0 d9 be 04 e9 78 3e 26 3b 96 be 25 96 09 be
       -0.42566323 0.24307638 -0.29342002 -0.13436182
000310 9d 37 91 bd c2 5f 18 3e e0 06 86 be 1a 8e 92 3c
       -0.070906855 0.14880279 -0.2617712 0.017890025
000320 d2 0d 24 be 6f ce 9a 3e 01 c5 f6 be 6c 53 43 be
       -0.16020897 0.3023562 -0.48197177 -0.19074792
000330 25 5e 88 be bf 09 62 bd 8c fe 0f 3e 0d c2 ab 3d
       -0.26634327 -0.055185076 0.14061946 0.083866216
000340 0f af 9c 3e dc 49 bc bd ab 50 db 3d 0f 39 ee bc
       0.3060231 -0.09193775 0.107087456 -0.029079942
000350 45 55 c8 bd 2b 3c 48 be 2c 3b 32 3e ad 06 8e 3d
       -0.09781889 -0.19554202 0.17405385 0.06934867
000360 d0 3b b3 be 90 c1 94 be c5 74 a7 3e 99 7b b6 be
       -0.3500657 -0.29053926 0.32706276 -0.35641173
000370 8d 54 2f 3d 9e 26 bf 3e d3 ac ce bd c8 1f 86 3d
       0.042805243 0.3733415 -0.10091557 0.065490305
000380 26 da 5d be 2c a2 fd 3d 08 58 36 be a8 56 91 bd
       -0.21665248 0.123844475 -0.17807019 -0.070966065
000390 cc c8 ab bd 38 a4 17 bd 80 36 33 3b 96 26 53 3e
       -0.08387908 -0.037021846 0.0027345717 0.20620188
0003a0 80 ab ff 3c 20 4c 65 3e 30 99 1c 3e c6 d8 21 be
       0.031209707 0.2239232 0.15292811 -0.15805349
0003b0 54 a2 e5 3d 24 f7 34 be 9c ff d8 bd 40 97 96 3d
       0.11212602 -0.17672402 -0.105956286 0.073530674
0003c0 e8 51 96 bd 48 57 01 3e ea 2d 20 bd 24 01 97 bd
       -0.07339841 0.12630951 -0.039106287 -0.073732644
0003d0 8f ae 8b 3e 34 d2 61 be ac 9a 40 3d 04 43 9b be
       0.27281615 -0.22052842 0.047022507 -0.30324566
0003e0 c5 f9 4f 3e e7 61 ba 3c ff 6c 8d bd ac da 47 3e
       0.20310123 0.022751762 -0.06905555 0.1951701
0003f0 a6 cc f4 3c a2 1f 2c 3d fa b9 d5 bd 24 d3 81 3c
       0.02988274 0.042022355 -0.10435863 0.01584775

bias f4 [32]
000000 88 0e 8e bd 02 ca d4 bd 1a ea 28 3e 5e 8f a9 3d
       -0.06936365 -0.103900924 0.16495553 0.08279298
000010 0d fb b8 3c 06 f5 6c bd a0 62 06 3e 50 c1 12 3e
       0.022580648 -0.05785086 0.1312356 0.14331555
000020 4b 70 31 3e 3b 7c 06 be a0 b4 88 3e 55 64 ce bd
       0.17327993 -0.13133328 0.26700306 -0.100777306
000030 81 97 97 bd 6f 11 33 be 4c 44 6b 3e d7 07 2b be
       -0.07401944 -0.17487119 0.22975272 -0.1670221
000040 00 f0 32 ba a2 fd 84 be 27 8c ce 3e f6 77 40 3e
       -0.0006825924 -0.25974756 0.40341303 0.18795761
000050 7f e9 4f be ed a2 f5 bd 73 77 33 bd 58 52 09 3e
       -0.20303915 -0.11993966 -0.043815088 0.13410318
000060 a2 ae ee bc 4e 90 27 be 24 47 cc bd b1 ad ed 3d
       -0.029136006 -0.16363642 -0.099745065 0.11605395
000070 f4 c1 05 be 73 3a 1b 3d c8 d1 6a bd b0 18 f8 bd
       -0.13062268 0.03789754 -0.05732897 -0.12114084

weight f4 [16, 32]
000000 97 f4 c6 3c 3a d8 14 3e a7 53 82 be 14 e1 f8 3d
       0.024286551 0.14535609 -0.25454447 0.12152305
000010 cf 71 35 be aa 99 91 3e 66 e8 c1 bd 10 1c aa be
       -0.17719196 0.2843755 -0.094681546 -0.33224535
000020 45 e7 c6 3c 2d 5d 93 bd c1 0c d6 3d 5e ec f8 bd
       0.0242802 -0.07195506 0.10451651 -0.121544585
000030 50 86 33 be 71 b3 6d be d7 0d e6 3d 55 33 ee 3d
       -0.17531705 -0.23212983 0.112331085 0.116308846
000040 39 3e 30 be 4a 8b 80 3d d7 58 0b bd 6f f8 39 3e
       -0.17211236 0.06276567 -0.03402027 0.18161176
000050 30 f4 cd bd d8 95 cc bc 3b c7 ed bd 71 45 f2 bd
       -0.10056341 -0.024973795 -0.11610266 -0.11829651
000060 b8 c7 8a 3e a3 f6 b5 3d a9 07 0d 3e ba b6 5a 3e
       0.27105498 0.08884933 0.13772453 0.21358767
000070 d5 a6 5b bd 08 0f 0c be 87 7e 57 bc 83 d1 15 3e
       -0.0536259 -0.13677609 -0.013152725 0.14630704
000080 c3 03 73 bd 25 5b 1e be a9 40 97 3e f5 ed 0f 3e
       -0.05932976 -0.15464456 0.2954152 0.14055617
000090 c0 fe 35 3e d8 9a 2d be e2 05 de bd c8 e8 9c 3e
       0.1777296 -0.169536 -0.10840966 0.30646348
0000a0 83 00 7b 3e bb 97 a8 bc 8d 0c cb 3d a4 e8 85 3e
       0.24511914 -0.020580163 0.09914503 0.26154053
0000b0 95 a8 d7 3e 0e f9 b1 3e e2 c3 d8 bc b7 04 29 be
       0.42120805 0.34760326 -0.026460592 -0.16505705
0000c0 c1 92 23 be b5 15 7f 3d 78 8a 31 3e 50 2a a3 3d
       -0.15973951 0.06227656 0.17337978 0.07967055
0000d0 46 5c 0f be 3f 78 d7 3e 78 1e b9 3e c0 5a c7 3e
       -0.14000043 0.42083928 0.36156058 0.38936424
0000e0 80 32 27 be 0c 9b 88 bd 81 27 e5 bd f0 d4 1f 3e
       -0.16327858 -0.06670198 -0.111891754 0.15608573
0000f0 8f 8f 9b bd a5 6a 87 bd 3e ad bd 3d f0 79 a7 bd
       -0.07595741 -0.06612138 0.09261559 -0.081775546
000100 e3 4f b2 bd a7 63 ca bc 75 c4 8c 3e a3 a8 80 bb
       -0.087066434 -0.024705721 0.27493635 -0.003926353
000110 45 46 ef 3e 32 14 f7 3b 44 d4 65 3e 50 2d 04 3f
       0.467333 0.0075402493 0.22444254 0.5163164
000120 83 d7 e2 3e 76 1c 12 3e 01 5b a3 3e f8 73 9a 3e
       0.44305047 0.1426867 0.31905368 0.30166602
000130 b0 a1 90 3e 25 b7 e8 3e ff 5f 2b 3d b3 f1 82 bd
       0.28248358 0.45452228 0.041839596 -0.06393757
000140 83 23 4e bd b5 bc f8 bd 3a 30 b3 3e c8 99 d7 3c
       -0.050326835 -0.12145368 0.3499773 0.026318446
000150 1f ef 31 be 8a c8 a7 3e 85 b5 bb 3e 11 20 b7 3e
       -0.17376374 0.32770187 0.36661926 0.35766652
000160 7e ea 51 3e aa 7e 86 3c 0f 2d 9b 3d dd da bc 3d
       0.20499608 0.01641782 0.075769536 0.09221432
000170 e1 04 90 bd 54 f2 18 be 59 5e 08 be 92 e8 9c 3d
       -0.070321806 -0.14936191 -0.13317241 0.07661547
000180 31 5e d6 bd 8c af 0f 3d 45 ec 14 be e1 b1 1f 3d
       -0.10467184 0.035079524 -0.14543255 0.038987998
000190 e1 fb a8 be ec 58 80 3e a1 78 c9 bd 2e 12 03 be
       -0.33004668 0.25067842 -0.09837461 -0.12799904
0001a0 6c 27 d4 be 75 ed 88 3b d2 70 00 3e f8 7f 90 be
       -0.41436327 0.0041786977 0.12543038 -0.28222632
0001b0 e7 5d 15 be 84 b0 ae be cf 03 18 be 5a 9e 98 bb
       -0.14586602 -0.34119046 -0.14845203 -0.004657549
0001c0 45 18 ea 3c f6 c1 94 3e 1b 7f f5 bd c3 f6 2f 3e
       0.028576026 0.2905423 -0.11987134 0.17183976
0001d0 02 88 35 bd 12 6b 9d be 34 8c 44 bc e6 de a2 be
       -0.04431916 -0.3074575 -0.011996318 -0.31810683
0001e0 6a 48 f1 3c 74 3b 2a 3e f2 47 0b bd 95 8c 32 3e
       0.029453475 0.16624242 -0.03400416 0.1743644
0001f0 0b fc 5e bd b3 a8 02 3e 02 1b 2f be 9f b6 d0 bc
       -0.054439586 0.12759666 -0.17100146 -0.025477706
000200 fa 5c fe bc a0 a9 6a 3d 5f a2 92 3d b5 a5 83 3e
       -0.031050194 0.057290673 0.07159876 0.25712362
000210 4f 80 a4 bd 60 b8 45 bd 69 87 d1 3d a4 b6 22 3e
       -0.080322854 -0.048271537 0.102309056 0.15889984
000220 cf a8 d6 3e ff 8e 86 be d5 75 2a 3d 40 f1 29 3e
       0.41925666 -0.26280972 0.04161628 0.16595936
000230 29 42 d1 3c cd 86 a7 3e b9 89 e5 bc 8d 2a 33 be
       0.025544243 0.32720032 -0.028019773 -0.174967
000240 29 63 b3 3d bb f0 00 bd 45 d9 aa 3d 8f 6c 8b be
       0.08759148 -0.03147958 0.08342222 -0.2723126
000250 a9 01 e9 3d 4b 86 ce 3e 50 af f5 3d 51 16 0c be
       0.1137727 0.40336832 0.11996329 -0.13680388
000260 64 c8 89 3e 8e 37 06 be 50 7e 4e 3d cf 15 46 3d
       0.26910698 -0.1310713 0.05041343 0.048360642
000270 84 72 a9 bd b6 aa 9c 3d dc e8 21 be 5d ea 24 3d
       -0.08273795 0.07649748 -0.15811485 0.04026257
000280 c7 83 e5 bd 23 98 9c bc 4c 3f 80 bd de 49 91 3e
       -0.11206775 -0.019115513 -0.06262073 0.2837667
000290 e8 31 36 be f3 d8 8c 3e 5a 4b b9 3d 2c 2c 56 be
       -0.17792475 0.2750927 0.09047575 -0.20915288
0002a0 c9 20 8d be e4 03 6d bd 7d bb 9f 3e 99 43 fd bd
       -0.27564076 -0.05786504 0.3119773 -0.12366409
0002b0 c8 bd 6e bd 60 ce ba bd df 16 f6 3d 71 1a 9e 3e
       -0.05828646 -0.09121394 0.12016081 0.30879548
0002c0 4e cf 12 3e 24 cb 70 3d 1e 8e 2f 3d 4d 59 71 3d
       0.14336893 0.05878748 0.042860143 0.058923054
0002d0 9a ea ea bd c6 77 d7 bd 45 5f 27 3e be 2a 43 be
       -0.11470528 -0.10520892 0.16344936 -0.19059274
0002e0 b7 57 88 3e 7b b4 bb bd 69 e7 34 bd 5b 19 92 3e
       0.2662942 -0.09165283 -0.044166002 0.2853497
0002f0 c9 c3 23 bd 97 99 ac 3a aa 13 fd bd 4f 17 1a 3e
       -0.039981637 0.0013168332 -0.12357266 0.15047954
000300 e5 33 bb bc 54 65 04 be ee 66 ec bc 36 c3 15 be
       -0.022851894 -0.12929279 -0.028857674 -0.14625248
000310 68 6b 4c be 8d eb cd bb 90 38 f3 3d 36 bd 58 be
       -0.19962847 -0.0062841834 0.11876023 -0.21165928
000320 91 28 d1 bd 45 f8 e9 3d 95 87 ad 3d 8a e6 37 be
       -0.102128156 0.11424307 0.08473126 -0.17959037
000330 e5 fe 33 be 64 fb 23 be d2 8f 11 be 0a db 7a bc
       -0.17577703 -0.16013867 -0.1421502 -0.015311012
000340 8e 34 08 3e f6 b5 2e 3e ae 03 87 bd 30 3b 0a 3d
       0.13301298 0.170616 -0.06592499 0.03374785
000350 ba 0e 82 bd dd 6d 5c bd 08 e3 69 bd ed db 53 be
       -0.06350465 -0.05381571 -0.05710128 -0.20689364
000360 ed 46 5f 3c 2d 00 d9 3d a3 68 19 be cb ef 14 3e
       0.01362775 0.10595737 -0.14981322 0.14544599
000370 8f 3c 82 3d 23 c0 e0 bd c0 f8 1b bd 7a 0c 1d 3e
       0.06359207 -0.10974147 -0.038079023 0.1533679
000380 62 e2 0a be ff f6 42 bd c8 66 3c 3e 64 fe ea bd
       -0.1356292 -0.047598835 0.18398583 -0.114743024
000390 8a 1f 84 3e 1c 89 cc 3c 0e ca a5 3d 00 98 f4 3d
       0.25805312 0.024967723 0.080951795 0.11943054
0003a0 58 0e c6 3e 66 45 35 be d5 f8 6d 3e 2d dd 96 bc
       0.38682818 -0.17702255 0.23239453 -0.018416012
0003b0 16 2a 34 bd 88 3b 8d 3e d4 59 97 3c bc de 74 bd
       -0.04398545 0.2758448 0.01847545 -0.05978273
0003c0 61 7b c8 bd f6 cc 52 be b8 ad d1 bc 49 9f 92 be
       -0.09789158 -0.20585999 -0.02559553 -0.2863715
0003d0 91 b1 63 bb ac cf 81 3e 3e 31 11 3e ef 9d 58 3e
       -0.003474329 0.25353754 0.1417894 0.21153997
0003e0 32 b4 60 3e 47 85 40 3d 49 88 84 bd b9 8b 07 be
       0.21943739 0.047002103 -0.06471307 -0.13236894
0003f0 65 a2 e7 bd d6 f8 fa bd 9f 39 e9 bc 7a 10 00 bd
       -0.11310271 -0.12254493 -0.028469859 -0.031265713

bias f4 [16]
000000 ac 2a 1f 3e 2b 2e 62 3e d7 56 d0 3e a8 7d 5b be
       0.15543622 0.22087924 0.40691254 -0.21434653
000010 3e bb 97 bd a8 36 47 3e 8e 9e 91 3c 8b fb 5b 3e
       -0.074087605 0.19454443 0.0177758 0.21482675
000020 4d 8b 0e be b1 cf fe bd 0c fa 3e bd c1 05 68 be
       -0.13920327 -0.12441958 -0.046625182 -0.22658445
000030 d1 6d 77 3e fe aa 53 3d 02 75 50 3e e5 eb ea bd
       0.24162985 0.051676743 0.20357135 -0.114707746

weight f4 [8, 16]
000000 e9 2d ac 3e 47 cd c2 be 03 1f c8 bc ce 27 2e bc
       0.33628777 -0.3804724 -0.02442885 -0.010629607
000010 1c 8b f1 be 64 d8 15 3e 26 57 a5 3e 1f df 78 be
       -0.47176445 0.14633328 0.3229305 -0.24303864
000020 b5 bd b1 3e 59 5d 69 be 02 91 a9 3e e3 b7 e0 3d
       0.34715047 -0.22789516 0.33118445 0.109725736
000030 32 a1 54 be a5 85 e2 3e 77 6e 45 3d f5 dd 6a 3e
       -0.20764616 0.44242588 0.04820105 0.22936232
000040 30 74 36 3e aa e0 a0 be 77 87 8d be 5e 33 bb 3e
       0.1781776 -0.31421405 -0.27642414 0.36562628
000050 17 ac 9e be 66 5c b3 3e 72 54 06 bc 2b e5 8d be
       -0.3099067 0.35031432 -0.008198844 -0.27713904
000060 54 b1 6e 3e 94 e6 8e be 14 91 69 3e 39 df db 3d
       0.23309833 -0.27910292 0.22809249 0.10735936
000070 9e bd 70 be 1e 1e 37 3e 22 b4 64 3e 9d b1 cf 3e
       -0.23509833 0.17882583 0.2233434 0.40565196
000080 80 81 2d be f4 28 b4 3d 8c 60 66 be 45 7f 73 be
       -0.16943932 0.08796874 -0.22497767 -0.23779018
000090 58 82 9c 3d 80 c9 70 3b 16 14 07 be 09 25 81 be
       0.076420486 0.0036741197 -0.13191256 -0.25223568
0000a0 b4 36 c6 bd 58 d1 58 3d 38 f4 6c be 3c d3 89 be
       -0.096784025 0.05293402 -0.23140037 -0.26918972
0000b0 1c be 09 3b 89 03 4c be cc 46 60 be 3c 44 c5 bd
       0.0021017855 -0.19923224 -0.21902007 -0.09632155
0000c0 68 dd 24 bd e8 a0 68 be 34 f0 2a be 70 48 86 3c
       -0.040250212 -0.22717631 -0.16693193 0.016391963
0000d0 98 66 71 be 80 ed 0f bd c6 4c 25 be 00 78 31 be
       -0.23574293 -0.035138607 -0.16142568 -0.17330933
0000e0 5c 3b c9 3d 62 0a 45 be 6c 01 42 be f8 fd 11 3e
       0.09825775 -0.19242242 -0.18945855 0.14257038
0000f0 18 74 3f 3d 7a 24 69 3e f4 da 88 bd c0 4d f7 bd
       0.046741575 0.22767821 -0.06682387 -0.120753765
000100 0f fa 2a 3e be 4a 6e 3e 9c cb df 3e 79 a3 49 be
       0.16696952 0.232707 0.4371003 -0.19691266
000110 4c b2 3a 3e e1 aa a3 3e 1a 1c 46 bd 65 6e bd 3d
       0.18232077 0.31966308 -0.048366643 0.09249572
000120 e1 25 0d 3e 3d 7b 17 be 31 13 84 3e ba 16 fb bd
       0.13783981 -0.14793105 0.25795892 -0.12260194
000130 1c 68 c1 3e 87 4d 7f be 60 48 a5 3e f4 ca 64 be
       0.37774742 -0.24931918 0.3228178 -0.22343045
000140 1d 22 88 be 34 ab f2 bd 1a a1 db 3d a2 8c 96 be
       -0.26588526 -0.11849061 0.10724087 -0.2940417
000150 f0 61 e4 bd 5c fb 25 3e 1e c2 8d bd 1e 58 b4 3c
       -0.111514926 0.16209167 -0.069217905 0.022014674
000160 52 1e 93 be 61 81 ef bd 76 98 2e be 55 c8 25 3e
       -0.2873407 -0.11694599 -0.17050347 0.16189702
000170 af bd 0c bc 0d 27 7a be b6 d4 bf 39 54 d3 0d bd
       -0.008590146 -0.24428959 0.0003658884 -0.034625366
000180 88 5d d2 bd 14 32 12 be c0 e6 a9 bd 36 c9 49 3e
       -0.10271746 -0.14276916 -0.08295965 0.19705662
000190 a2 83 37 be 22 5c 36 be 38 f6 9d bd c0 82 8e 3b
       -0.17921308 -0.17808583 -0.07712978 0.0043490827
0001a0 5c 5f 8b 3d 80 d3 f5 3b c8 80 76 bd c4 39 1b be
       0.06805298 0.0075020194 -0.06018141 -0.15158755
0001b0 30 bd 37 bd 78 1b ce bd 6c d4 4e 3e 5e 31 79 be
       -0.044858158 -0.10063833 0.2019822 -0.24335238
0001c0 80 92 43 be 4b 67 75 be e1 69 9d bd e4 95 2f 3e
       -0.19098854 -0.23965184 -0.076862104 0.17147022
0001d0 62 5b 27 3e 48 d2 7e be 0a 55 ff bc 04 44 da 3d
       0.16343454 -0.24884903 -0.03116848 0.10657504
0001e0 ca d7 be 3d b9 c7 05 3e 33 d3 dd bc 2b aa 40 be
       0.09318502 0.1306447 -0.027078247 -0.18814914
0001f0 30 b7 ee 3d 7f f7 d4 bd 9d 56 fa 3d 8f 76 ab bd
       0.11656034 -0.10398769 0.122235514 -0.08372223

bias f4 [8]
000000 7a 36 3c bd b2 b3 19 3e c5 c8 4f 3e 06 fa 68 be
       -0.04595039 0.15009955 0.20291431 -0.22751626
000010 32 97 58 3d 31 ef 23 be 60 40 23 be 4c e2 5f 3e
       0.052878566 -0.16009213 -0.15942526 0.21863669

weight f4 [1, 8]
000000 09 60 9a be a1 bf f5 be b9 31 01 be 33 fa 47 be
       -0.30151394 -0.47997764 -0.12616624 -0.19529037
000010 ac 0e ce 3e 2d f7 8d be 72 c8 a8 be 87 eb aa be
       0.4024557 -0.27727643 -0.32965428 -0.33382818
