gwak/output/linear_metric/SimCLR_multiSignal_all/mlp_model_JIT.pt (torch, 9161 bytes, 3 tensors)

weight f4 [32, 8]
000000 2d 5d 94 be fc 6c a1 3d 4d 3f 0f bf a1 c5 bb be
       -0.28977337 0.07882115 -0.55955964 -0.36674216
000010 76 45 e8 bd 66 af 29 3e 48 6a d8 3e 24 9d 1e 3f
       -0.113413736 0.16570815 0.42268586 0.6195853
000020 92 bb 95 be df c9 a2 be 73 84 73 3e 56 b5 2d 3e
       -0.29244667 -0.3179464 0.23780994 0.16963705
000030 55 30 d1 be 5a d4 b3 be 5f 44 d1 be 4f 26 90 3e
       -0.40857187 -0.3512295 -0.40872476 0.28154227
000040 ed 34 b4 3e fb 3c a7 3e 6e 3c 62 bd f3 67 50 be
       0.3519663 0.32663712 -0.05523341 -0.20352153
000050 94 a8 4d 3e 51 57 0a 3f 5c ae a1 be 1e be 8d 3d
       0.20083839 0.54039484 -0.31578338 0.069210276
000060 3c 5d e3 be 50 1e c3 be d2 11 ae 3e fa fe 13 3e
       -0.4440707 -0.38109064 0.3399797 0.14452735
000070 dc c5 af 3d 55 2c 15 3e 08 e9 9e be 10 0f 40 3f
       0.085826606 0.14567693 -0.31037164 0.75022984
000080 a6 d5 06 bf 01 be dd be f1 b5 1b bf 4c 82 25 be
       -0.5266975 -0.43309024 -0.60824496 -0.16162986
000090 25 91 ad be a1 f4 04 3f 21 03 13 3f 1d f3 f9 3e
       -0.338998 0.51935774 0.5742665 0.48818293
0000a0 7c 56 82 be d8 72 bf be b0 13 b1 be e5 87 da be
       -0.25456607 -0.37392306 -0.34585333 -0.42681804
0000b0 13 09 cd bd 02 ff 82 3d 5b 77 23 3f 38 80 27 3f
       -0.100114964 0.06396295 0.63853997 0.6543002
0000c0 0b c1 68 be c9 c8 af 3e 5f e6 12 3f cc a4 5b 3e
       -0.2272989 0.34332874 0.5738277 0.21449584
0000d0 3f ff 9b 3e 54 3c 98 be 33 36 9f bb c8 68 15 bf
       0.30468175 -0.29733527 -0.004858756 -0.5836301
0000e0 8c a7 9a 3e c9 69 1b be 10 c0 d3 3a 5e c4 55 be
       0.30205953 -0.15177073 0.0016155262 -0.2087569
0000f0 d0 2d 77 3e 82 ef ce 3e 12 de e2 be 24 a5 20 be
       0.2413857 0.40417105 -0.4431005 -0.15687996
000100 da 63 dd 3d ed 4c 10 be 3a 2e 57 3c 89 0b d8 3d
       0.10810061 -0.14091845 0.01313358 0.10549075
000110 48 2d 28 3e 1d 8c 9e 3e 55 26 c6 be cf 98 13 bd
       0.16423523 0.30966273 -0.3870112 -0.0360344
000120 8a 0d 3f 3e 06 34 3d 3e 5b 04 58 3e 6f 08 cb 3e
       0.18657508 0.18476877 0.21095411 0.39654872
000130 29 70 f7 bc b9 eb 59 be 36 56 07 3e f3 dd fa bd
       -0.03020485 -0.21281327 0.1321648 -0.12249365
000140 83 47 59 be 5e 3e 2f 3f 9b 86 13 3f 90 cb 07 bf
       -0.21218686 0.6845454 0.57627267 -0.53044987
000150 1e 70 35 3e 2b c3 b1 be d1 24 bf be 5e df fc be
       0.1771855 -0.34719214 -0.37332776 -0.49389166
000160 4a b6 d1 3e 5e 5c 5a bd aa 76 46 3e e0 4e ea 3d
       0.40959388 -0.053310744 0.19381204 0.114408255
000170 14 13 bf 3e 94 54 c1 3e 91 ff 0e bf 3d 09 0c bf
       0.37319243 0.3775984 -0.55858713 -0.54701596
000180 f9 3f ea 3e c1 c7 72 3e b3 bf 94 bc dd 2d 2f be
       0.45751932 0.23709013 -0.018157816 -0.17107339
000190 6c ba de 3e 64 b0 05 3f 59 91 e1 be 92 66 c1 be
       0.43501604 0.52222276 -0.44056204 -0.37773567
0001a0 a8 bc 1b bf 4c 93 8b be 06 17 2a bf fd 69 98 bd
       -0.6083474 -0.27260816 -0.6644138 -0.07442091
0001b0 f1 6a 3b be a4 87 11 3e 27 88 a4 3e 8d 1f 07 3f
       -0.18302514 0.14211899 0.32135126 0.5278252
0001c0 21 65 80 be a4 0f 92 3e a6 30 4b 3e 9a db 83 be
       -0.25077155 0.28527558 0.19842777 -0.2575348
0001d0 74 7c 00 be a6 68 81 3d 71 5a bf 3d e6 6f fd 3d
       -0.12547475 0.06318788 0.09343422 0.123748586
0001e0 65 93 b2 bd f1 fd 32 be 98 ed 4d 3d 57 90 ca 3e
       -0.087195195 -0.17479683 0.050275415 0.39563248
0001f0 b5 b6 10 bf ae a9 e2 be f5 36 a0 be b4 7d 4e 3d
       -0.5652879 -0.4427008 -0.3129193 0.05041285
000200 48 cb 03 bf 18 6d 35 bf 90 53 d6 bd 18 1e 07 3f
       -0.5148206 -0.7086959 -0.10465157 0.52780294
000210 62 06 8e bd bb 53 fe 3d 4e 5e a1 3d f8 77 d4 3e
       -0.06934811 0.12418314 0.07879315 0.4149778
000220 2a e8 84 3e b6 05 f0 3d 59 8c 9a 3e 23 cf 47 3e
       0.25958377 0.11719839 0.30185202 0.1951261
000230 77 c9 de 3e ab d4 fd 3e 82 0c 66 3c 60 98 8b be
       0.4351308 0.49576315 0.014041068 -0.2726469
000240 25 cf 0c bf 03 e5 a3 be cf 0b 19 3f c9 b6 9f bd
       -0.5500358 -0.3201066 0.59783643 -0.077985354
000250 65 4d a3 3d ca 6d 8a be 0e a9 18 bf 24 7f 28 bf
       0.07973746 -0.27036887 -0.59632957 -0.65819
000260 38 41 f8 3d 03 f3 0e 3f d5 45 01 3f a4 a4 0b bf
       0.121218145 0.55839556 0.5049718 -0.54548097
000270 02 9b ca 3e 05 71 12 bf eb 25 cc be 52 4c ed be
       0.39571387 -0.57203704 -0.3987268 -0.4634729
000280 b5 42 9f be 99 68 a1 be 35 f8 33 bf 52 f3 03 be
       -0.3110558 -0.31525114 -0.7030061 -0.12885788
000290 96 18 60 be 3d 3f 1b bd fa 57 8d 3e b9 63 d7 3e
       -0.21884379 -0.037902106 0.27606183 0.4206827
0002a0 24 7a 16 bf ea 4f a1 be d3 7a 17 3f 8a 2c cc 3d
       -0.5878012 -0.31506282 0.5917179 0.09969433
0002b0 5a 19 19 3f 03 af b4 3d 73 74 1e bf c1 ea db 3e
       0.5980431 0.08822443 -0.6189644 0.4295254
0002c0 34 42 0d bc a0 27 0f be 9e 8b 7c 3e f1 06 93 be
       -0.008621741 -0.1397996 0.24662635 -0.28716233
0002d0 7e ad d5 3c 20 3a a2 bd 59 ad 8a 3e 90 83 fb 3d
       0.026083704 -0.07921243 0.2708538 0.12280953
0002e0 06 d1 17 be 75 08 01 3b a9 16 e1 be b6 e6 42 be
       -0.1482583 0.0019688879 -0.439626 -0.19033322
0002f0 bc e2 72 be 36 63 a9 3e f4 b0 45 3f 34 5a 1e 3f
       -0.23719305 0.33083504 0.77223134 0.6185639
000300 d3 cd 00 bf 07 d6 78 be ec 68 21 bf 7e 10 d9 bc
       -0.5031406 -0.24300395 -0.63050723 -0.026497122
000310 50 04 a7 be 76 f5 68 3e 69 e8 60 3e f8 57 94 3e
       -0.32620478 0.22749886 0.21963657 0.28973365
000320 c5 15 c1 bd 5a 95 78 3e 01 00 f6 be a8 45 76 be
       -0.0942798 0.24275723 -0.48046878 -0.24050009
000330 60 fd 8b be c6 f4 30 3e 4e bc 8d 3d ee 8a e2 3e
       -0.27341747 0.17280874 0.06920682 0.4424662
000340 a5 8d a3 3e 34 5b e1 3e fd 2c b7 3e 34 67 8b be
       0.31944004 0.44014895 0.3577651 -0.27227175
000350 52 b2 87 3e f4 13 dd be c3 5a ad be 17 41 95 be
       0.26503235 -0.43179286 -0.33858308 -0.29151222
000360 2a b3 06 bf 0d 0e f9 be 46 50 c7 3e eb 48 d4 b7
       -0.5261713 -0.48643532 0.3892843 -2.5306324e-05
000370 82 10 65 bd 5c 91 94 3e 1b 10 a3 3d 39 ee 98 3e
       -0.055923946 0.2901715 0.07962056 0.2986925
000380 87 ae 73 be 7c 75 76 3e af d1 41 be 95 cf 2d be
       -0.23797046 0.24068254 -0.18927644 -0.16973718
000390 39 60 3e be 53 18 f3 bd f6 7d a9 3d 90 17 6e 3e
       -0.18591394 -0.11869874 0.08275978 0.23251176
0003a0 99 97 1a be 31 ea 4a 3f 57 b6 1a 3f 2b 6c 97 bd
       -0.15096892 0.792636 0.6043448 -0.07393678
0003b0 da bd 8f 3e b4 9e 1b bf 68 8c 03 bf c1 83 ad be
       0.28074533 -0.60789037 -0.5138612 -0.33889583
0003c0 53 ea cf 3e 01 3b 27 3f 4d 7c e4 be 00 65 a4 be
       0.40608463 0.6532441 -0.44626084 -0.32108307
0003d0 dc 02 97 3e 28 8d 03 bf 02 56 90 3e 92 72 16 bf
       0.2949437 -0.5138726 0.2819062 -0.5876857
0003e0 5e ec c2 be 6e fe 00 bf 39 03 89 bd bb 0b f3 3e
       -0.3807096 -0.5038823 -0.06690068 0.47469887
0003f0 7b 8e 8a 3e 33 c6 55 be 4b 50 98 be a4 36 94 3e
       0.2706183 -0.20876388 -0.2974876 0.28947937

bias f4 [32]
000000 86 b1 19 bf fc 64 c2 3e 88 8e 10 3e 2a 74 e4 bd
       -0.60036504 0.3796767 0.14116871 -0.11154969
000010 e6 8a 14 bf ae 33 53 3d 51 64 af 3e 48 12 2b 3f
       -0.5802444 0.051562957 0.34256223 0.6682477
000020 3d ea b6 3d 2d c9 60 be 43 fa 1a 3d e3 aa 03 3f
       0.08931396 -0.21951742 0.037836324 0.5143263
000030 2b 46 2e 3f 85 6a a0 be 0f 40 56 be db c2 73 3d
       0.6807582 -0.31331268 -0.20922874 0.059512
000040 86 ab 5c be 5f 59 e3 3e 0b 3a 89 3c c5 72 23 be
       -0.21549806 0.44404122 0.01675131 -0.1596175
000050 95 b9 b2 bd 46 8d f9 be d7 2e 73 bd 42 79 39 be
       -0.08726803 -0.48740596 -0.05937084 -0.18112662
000060 c7 1b bc be 26 09 d7 be a1 f6 b6 bd 70 54 d2 b9
       -0.36739942 -0.41999167 -0.089337595 -0.00040117232
000070 c6 40 91 bc c8 e1 15 3f ac e5 bf 3d ec ae 58 be
       -0.017731082 0.5854764 0.09369978 -0.21160477

weight f4 [1, 32]
000000 b9 6b 92 3e 47 c9 5b 3e fd d9 81 be b0 80 02 3f
       0.2859781 0.214635 -0.25361624 0.5097761
000010 b1 56 af 3e e3 e3 e4 3e 4a 1d 98 3e 03 17 ad be
       0.34245828 0.44705114 0.29709846 -0.3380662
000020 9b 67 a0 bd b7 53 5c bd ba c4 b7 3e 0a 6c be be
       -0.07832261 -0.053790774 0.35892278 -0.37191802
000030 7b e5 bb be 4b 2d 9e 3e 21 92 6c bd ae d3 9c 3e
       -0.36698517 0.3089393 -0.057756547 0.3063025
000040 36 66 02 3f 7e 5f e5 be 89 99 8d 3e d2 e1 b7 3e
       0.5093721 -0.44799417 0.276562 0.35914475
000050 bf a5 c7 3e 83 4c 7a 3e 16 66 04 be 5e a0 b2 3e
       0.38993642 0.2444325 -0.12929568 0.34887975
000060 b7 f1 c0 3e 89 f6 55 3e 78 00 f5 3e 56 d1 d3 3e
       0.37684414 0.20894827 0.4785192 0.41370648
000070 5a 8d 0e 3d c5 fc 98 3e 93 bb d1 3e 63 51 d3 3e
       0.034802772 0.29880348 0.4096342 0.4127303
