gwak/output/linear_metric/SimCLR_multiSignal_all/mlp_model_JIT.pt (torch, 9033 bytes, 3 tensors)

weight f4 [32, 8]
00000000: 086f 27be 57c1 5e3d 8e8e f9be 5f7e 02be
00000010: 077e 0fbe 344b 263e 4e89 8c3e 22ee f13e
00000020: 3414 b3bd acd9 4f3e 3c78 08be 6667 cd3c
00000030: aad1 fabe 4441 acbe b09c 1bbe e941 ae3d
00000040: be6f 563c 625b 2e3d f3cf 85be b359 a7bd
00000050: a5c7 963d 89ec 7a3e 9bba 9f3d e333 cb3e
00000060: 15ab ebbd c6a4 cabd 8fdf f73e b2e4 febe
00000070: 93e4 9fbe 68b6 8bbe 3266 7abe c29b 5b3e
00000080: 6797 89be 91ac 6cbe d0a5 99be c8fe 97be
00000090: ffc6 3fbe f4d7 9d3e 4ce6 8f3e c4ed 5a3e
000000a0: 3758 71bd f1db 87be 2bea 08be f2fb dabe
000000b0: 28c0 bdbd c9e2 77bc 4129 053f 2962 f63e
000000c0: 7150 94be 7203 3ebe 5c60 c03e 7ba5 f23e
000000d0: 4474 b93e 49bd 953c 9803 fe3d bfc3 2cbe
000000e0: 7950 5ebd 586a d7be 2a01 69be c916 53bd
000000f0: 7863 833d ddf7 853d 9463 eebd 5f15 8c3e
00000100: afcf b33e d9e4 a83d 0846 b6bc 0be3 9a3c
00000110: 8e0c 493e 1739 cb3e 4e4d 95be 2a25 95be
00000120: d831 9f3e 6fb6 013f 3380 c13e b2cd 5b3e
00000130: c1ff 823e 1e72 21be fe7c b5bd 1f54 b7be
00000140: 65fa c4be d6d9 863e ade6 5e3e b690 97be
00000150: 12b9 483c e2ef 63bc b815 75bb 596f dcbd
00000160: b560 30bc e72c babe 3e3a 883e 3742 ba3e
00000170: ab5d 3a3e 45bc f83a 65c8 c9be 10fb 8ebd
00000180: 12b9 a83d a522 24bc b1a2 73be 079a 39be
00000190: 2029 a03e ef2e 483e ffda 36be 3441 b93c
000001a0: 6400 b1be d83b 90bd 40dc b5be d76f 93be
000001b0: 4790 b43b c372 7c3d 8d61 303d 3cce 7f3e
000001c0: 759b 42bd 1656 153f b7c1 963e 6801 cabe
000001d0: 92c6 e53d 6c9c 043e 2d04 7ebd 7f2f 93bd
000001e0: 1175 283e d057 d13d e04f f3bd 7338 013e
000001f0: 68f1 91be 36dd 5ebe f69c f0bd 7f2c 76be
00000200: 4f25 dfbd be7f 8cbe e167 b4bd ff67 793d
00000210: 2049 5ebe 1cbc dabb 06fd 883e 728d 52bd
00000220: ac9c 07be cfbe 5cbe 9d47 433e 9a4a b53e
00000230: cf6f 8a3e 678d 193e dfd5 d53e e9a6 dc3d
00000240: 2fa6 a2be 5c11 25be 8081 813e a8d3 14bd
00000250: cb49 69bd a529 f3bd 4659 c7be 8ee8 c2be
00000260: c241 08be 7ed9 063e 2137 0e3e 0239 92be
00000270: 4db1 203e 8fc9 6fbe de42 91bc 5723 afbd
00000280: dbe7 4f3d 1f29 303d 3983 b9be 04b8 cbbe
00000290: 6070 91bd 98ad 833d 21d1 46be c2f6 8c3c
000002a0: 9636 f5be 02a9 66be d486 cb3e 61b4 4e3d
000002b0: 3923 cb3e 7155 d53d d369 c8be f261 e13e
000002c0: 051b f3bd 7138 85be 8d2a ce3e 0b8c bfbe
000002d0: 13f1 483e 7255 863d 6049 093e 5f10 11bd
000002e0: e7cc 9c3c a208 2bbc 3096 95be c0bd 24bc
000002f0: 8991 93be 8978 893e bd14 123f a3c0 e13e
00000300: 1ee7 efbd 4900 073e d534 95be 8008 9dbe
00000310: 57f4 63be eae6 3c3e 75c3 81be 7b0f febd
00000320: 3c95 b3bd 07c9 0a3e 6f2b d0be b6de 39be
00000330: cd47 90be b630 313e b05a c23d c881 ee3e
00000340: d452 f53d 965b 153d 4e1d 31bc 24b6 7dbd
00000350: 1df7 143d 128d 94bd c725 b73b 3e10 5a3d
00000360: 2f26 36be 743d b2bd 4f08 843e a97d c0be
00000370: 1a7d 68bd abe6 c83e 79a1 e33d 56c6 f9bd
00000380: b976 e8be 448b 5abc 2cb8 bbbe 0ee1 803c
00000390: 311a 14be 1158 fbbc 0e57 0a3e 1ae4 e93e
000003a0: 3486 1a3c cfc0 313f 6585 8a3e c8ae 1ebe
000003b0: fa2c b03e 7b7f a3be 0701 96be 93bc 12be
000003c0: f84a 3d3d d6a5 473e c346 0cbe bd57 883d
000003d0: 40e9 de3d ed4d d1be e375 a23e 670b 6abe
000003e0: 3438 423e 834a ce3d 90f9 63be 7194 b1bd
000003f0: b905 863e 6f0d 95bc d5c8 75be 5ec5 a2be
-0.16350949 0.054383602 -0.48741573 -0.12743519 -0.1401292 0.16239625 0.27448505 0.47251993
-0.08744088 0.20297879 -0.13327116 0.025073718 -0.48988086 -0.33643544 -0.1519649 0.08508665
0.013088165 0.04256762 -0.26135215 -0.08171406 0.07362298 0.24504294 0.07799264 0.39688024
-0.11507241 -0.09894709 0.4841275 -0.49783856 -0.31229076 -0.27287602 -0.24453047 0.21446136
-0.26873323 -0.23112704 -0.30009317 -0.2968657 -0.18728255 0.30828822 0.2810539 0.21379763
-0.05892202 -0.2653499 -0.13370578 -0.42770344 -0.092651665 -0.015129753 0.52016073 0.48121765
-0.28967622 -0.18556002 0.37573516 0.47391877 0.36221516 0.018278735 0.12403029 -0.16871546
-0.054275963 -0.4207332 -0.2275435 -0.0515354 0.064154565 0.06541417 -0.11640087 0.27360055
0.35119388 0.08246774 -0.02225019 0.01890709 0.19633695 0.39691994 -0.2916054 -0.29129916
0.31092715 0.50668997 0.3779312 0.21465185 0.2558575 -0.15766189 -0.08861731 -0.35806367
-0.38472286 0.2633807 0.21767683 -0.29602593 0.012251155 -0.013912173 -0.0037396979 -0.107634254
-0.010765244 -0.36362383 0.26606935 0.36378643 0.18199794 0.0018977007 -0.394107 -0.0698148
0.08238424 -0.0100180255 -0.2379253 -0.18125163 0.31281376 0.19549154 -0.17856978 0.0226141
-0.3457061 -0.07042664 -0.355196 -0.28796265 0.0055103633 0.061632883 0.04306178 0.24981016
-0.047511537 0.5833448 0.29444668 -0.39454198 0.11219515 0.12950295 -0.0620157 -0.071867935
0.16450907 0.10221827 -0.11880469 0.1261919 -0.2850449 -0.21764073 -0.11748688 -0.24040411
-0.10895788 -0.2744121 -0.08808876 0.060890194 -0.21707582 -0.0066752564 0.26755542 -0.051404424
-0.1324336 -0.21557163 0.19070287 0.3540848 0.27038428 0.14995347 0.41764733 0.10774023
-0.31767413 -0.16119903 0.25294113 -0.036334664 -0.05695514 -0.118731774 -0.38935298 -0.3806805
-0.13306335 0.13168904 0.13888218 -0.28559119 0.15692635 -0.23416732 -0.01773208 -0.085516624
0.050758224 0.043007966 -0.36232927 -0.3978883 -0.07101512 0.06429595 -0.19415714 0.017207507
-0.47893208 -0.22525409 0.39751303 0.05046499 0.3967531 0.10416687 -0.39143237 0.4402004
-0.11870388 -0.26019624 0.4026684 -0.37411532 0.19623213 0.06559266 0.13406897 -0.035416003
0.019140674 -0.01043907 -0.29216146 -0.010055006 -0.28821972 0.26849774 0.57062894 0.44092283
-0.11714004 0.13183703 -0.2914187 -0.30670547 -0.22261177 0.18447462 -0.25344434 -0.124052964
-0.087686986 0.13553248 -0.40658137 -0.18151364 -0.2817978 0.17303738 0.094899535 0.4658339
0.11978689 0.036464296 -0.010810209 -0.06194128 0.036368478 -0.072534695 0.00558922 0.053238146
-0.17788003 -0.087031275 0.2578759 -0.3759587 -0.05675993 0.39238486 0.11114783 -0.12196033
-0.45403078 -0.013338868 -0.3666395 0.015732314 -0.14463116 -0.030681642 0.13509771 0.4568184
0.009431411 0.6943483 0.27054897 -0.15496361 0.34409314 -0.31933197 -0.2929766 -0.14329748
0.046214074 0.19496855 -0.13698868 0.0665736 0.10884333 -0.40879765 0.31730565 -0.22855912
0.18966752 0.10072806 -0.2226317 -0.08670891 0.2617624 -0.018194882 -0.24002393 -0.31791204

bias f4 [32]
00000000: 3a6a 1cbf 11a5 573e e337 a1be 01f9 28be
00000010: 3c19 95be e76d fa3d e545 ec3d c20e 933d
00000020: f089 973e 0e51 393c 5410 21be 776d 07be
00000030: 12db 573e ca4c 3abd b2c2 04bb 7678 22be
00000040: 46a1 b2be c343 8fbd 0e72 10be 3506 c0be
00000050: 71a1 f63e f358 e2be ac4a 573d 6999 25be
00000060: 5268 3f3e c51f debe 5f74 96be 64a2 f53e
00000070: 617c c6bd 87fb fa3e 0f77 42be 09ff b23e
-0.6109959 0.21059062 -0.3148795 -0.16501237 -0.29120815 0.122279935 0.11536769 0.07180549
0.29597425 0.011310829 -0.15728885 -0.13225351 0.21079662 -0.045483388 -0.002025765 -0.15866265
-0.34888667 -0.069953464 -0.14106008 -0.37504736 0.48170045 -0.44208488 0.052561447 -0.16171803
0.18692139 -0.43383613 -0.2938566 0.47975457 -0.09691692 0.49020025 -0.1899073 0.349602

weight f4 [1, 32]
00000000: e96d 69be b5d0 a1bd 9dce 45be b37d 7a3e
00000010: c909 e9bd dfc9 81be fb3d 44be 0ae8 13be
00000020: c0e7 6b3e dfc5 8cbe e92c 1abc 4702 55be
00000030: f189 c4bc 89e3 cabd 1e88 83be bffe 7e3d
00000040: d1c1 ad3c 237f 80be 678f 50bd acf3 3bbb
00000050: 98d1 393e 583d 26be 6e74 98be 2812 67be
00000060: 55a3 5c3e 75a8 79be efe8 773d 8e24 603e
00000070: 9e4c 79be 8f2c 14be c201 6c3c 5735 0b3e
-0.22795834 -0.07901136 -0.19317098 0.24462013 -0.113788195 -0.25349328 -0.19164269 -0.14443985
0.23037624 -0.27494714 -0.0094101215 -0.2080165 -0.023991557 -0.0990668 -0.25689787 0.062254664
0.021210583 -0.25096998 -0.05091801 -0.0028679175 0.1814636 -0.16234338 -0.2977633 -0.2256552
0.21546681 -0.24380668 0.060524877 0.21888945 -0.24345633 -0.14470123 0.014404716 0.13594566
