gwak/output/S4_SimCLR_multiSignalAndBkg_NF_onlyBkg_HL/model_JIT.pt (torch, 740055 bytes, 73 tensors)

weight f4 [64, 8]
0.21354702 0.18170741 0.014236067 -0.085037254 -0.28114125 -0.31086752 -0.31840107 -0.049846318
0.20477273 0.2280951 -0.039590683 0.001186771 -0.004781602 0.12285524 -0.103115 0.017341236
-0.17192015 -0.17969318 -0.3377516 0.07452275 0.024828414 -0.17467529 -0.120081514 0.19228198
-0.05983851 -0.0073041846 0.36670983 0.1838654 0.014039367 -0.17910261 0.3377133 0.0786273
0.2588946 0.093722805 0.20889962 -0.15237401 0.32326722 0.0034141054 0.30840012 0.2615574
0.11956317 0.25348788 -0.24280173 0.33493456 0.078567274 -0.043502357 -0.15190639 -0.034624733
0.14013438 -0.340738 -0.3554689 0.014585447 -0.43344632 -0.22718649 0.0897764 -0.19144712
0.14187859 -0.32604966 -0.009230834 0.02308935 0.23077443 -0.012823432 0.049565114 0.29190847
-0.11752774 0.25226703 0.11162053 -0.121731184 -0.12716673 -0.2861199 -0.042884964 0.009176043
0.2400723 -0.14737968 0.009858613 -0.27986547 0.10058573 -0.17430216 -0.103813335 -0.13658975
-0.20062587 0.07749904 -0.26964763 0.1624859 0.30332515 -0.16359825 -0.32314646 -0.042464677
-0.15793559 -0.44254234 0.13717645 0.08518129 0.034030743 0.30651277 -0.2863652 0.06258103
-0.08421631 -0.1489742 0.2771685 0.29843375 0.17617325 -0.2101842 -0.21239036 -0.25647652
-0.16480064 -0.24864118 -0.1336497 0.14804682 0.07146194 0.23596102 -0.34055117 -0.14561488
-0.20857565 0.33237258 0.0138849 0.23088284 0.32400465 0.16761683 -0.18860495 0.3000295
-0.282254 -0.44316703 -0.008412047 0.3325121 -0.3293801 -0.06116768 0.3366367 -0.20456323
0.032295402 0.16302998 -0.1171192 0.044655513 -0.27345097 0.056909457 0.12988499 0.11632058
0.37178016 -0.45507717 -0.2665393 0.41027197 -0.12559596 -0.11239957 0.28435436 -0.13341963
-0.32305652 -0.17635766 0.273194 0.1349161 -0.07917889 -0.32678196 -0.35340694 0.035301864
-0.054203298 0.21085495 0.15596905 -0.21831717 -0.00038365074 -0.3990559 -0.10011398 -0.31034952
-0.10822375 -0.20546113 0.00370742 0.37619486 0.14040738 -0.2879009 -0.25539136 0.111488864
0.3206081 -0.17807974 -0.32826898 0.31650618 -0.3155822 -0.03143586 -0.054801606 -0.07953245
-0.27044088 0.04226027 -0.050404005 -0.25911263 -0.19783777 0.3131195 -0.32504994 -0.29084262
0.12391045 -0.19032069 0.20977557 0.17978416 -0.26662678 0.22929735 0.04604484 -0.1537334
-0.12302441 0.08846286 0.08502929 -0.15115234 -0.22121936 -0.076611295 0.22240175 -0.24450667
-0.06694942 0.14644757 0.31306958 -0.18978785 0.13363293 0.28132904 -0.2173615 0.33916104
0.020717166 -0.05689641 0.28470567 -0.05562136 0.35375032 -0.17106469 -0.08242912 -0.31695554
0.14383605 -0.31523338 -0.33852315 -0.07132067 -0.4099978 -0.34334898 -0.011630075 -0.01642547
0.16083877 -0.2304915 -0.3484002 0.029845826 -0.13302961 0.30385584 0.041076485 0.1993291
0.070201695 0.45934397 0.2499606 -0.063895 -0.16890083 0.12958705 0.31505966 -0.27854776
0.2480765 0.3599757 -0.38411212 0.21269572 0.15498695 0.29041564 0.22031337 0.21111053
-0.23325343 -0.15193617 0.3196716 -0.33990732 -0.10813157 -0.10511411 -0.24236195 0.2283622
00000000: 12ac 5a3e 8211 3a3e 653e 693c 0328 aebd
00000010: bff1 8fbe 072a 9fbe 7705 a3be a72b 4cbd
00000020: f1af 513e c391 693e d729 22bd 6d8d 9b3a
00000030: fcae 9cbb 879b fb3d f52d d3bd 350f 8e3c
00000040: d60b 30be 7d01 38be c7ed acbe 629f 983d
00000050: f564 cb3c 14de 32be 4ced f5bd 91e5 443e
00000060: 3a19 75bd f157 efbb 64c1 bb3e 3647 3c3e
00000070: 6005 663c ad66 37be c2e8 ac3e 5a07 a13d
00000080: d58d 843e bef1 bf3d c8e9 553e ef07 1cbe
00000090: 4883 a53e 2fbf 5f3b 9fe6 9d3e daea 853e
000000a0: 89dd f43d 2ac9 813e 04a1 78be 8b7c ab3e
000000b0: e1e7 a03d 872f 32bd 598d 1bbe aad2 0dbd
000000c0: 637f 0f3e 3675 aebe 0500 b6be ccf7 6e3c
000000d0: adec ddbe 93a3 68be b0dc b73d b70a 44be
000000e0: 9f48 113e fbef a6be ed3c 17bc e025 bd3c
000000f0: 2250 6c3e 5f19 52bc ca04 4b3d 0775 953e
00000100: 62b2 f0bd 2529 813e 4e99 e43d 334e f9bd
00000110: ff37 02be 4f7e 92be 25a8 2fbd 1d57 163c
00000120: 83d5 753e b3ea 16be 0586 213c 874a 8fbe
00000130: e4ff cd3d 447c 32be 169c d4bd 2fde 0bbe
00000140: de70 4dbe d1b7 9e3d 410f 8abe b462 263e
00000150: 6f4d 9b3e 4d86 27be 7473 a5be 71ef 2dbd
00000160: deb9 21be e994 e2be fc77 0c3e 8773 ae3d
00000170: d263 0b3d 3eef 9c3e 769e 92be 7c2a 803d
00000180: 9a79 acbd b18c 18be 08e9 8d3e 4fcc 983e
00000190: c366 343e 873a 57be dc7c 59be e450 83be
000001a0: 80c1 28be cb9b 7ebe 78db 08be 9699 173e
000001b0: a35a 923d c49f 713e b95c aebe 111c 15be
000001c0: db94 55be bd2c aa3e 7e7d 633c 8d6c 6c3e
000001d0: f0e3 a53e bfa3 2b3e a821 41be 779d 993e
000001e0: 9983 90be cae6 e2be afd2 09bc 073f aa3e
000001f0: 82a4 a8be f68a 7abd a55b ac3e 0679 51be
00000200: 2f48 043d 55f1 263e 31dc efbd b3e8 363d
00000210: c401 8cbe e419 693d 9200 053e 7c39 ee3d
00000220: f859 be3e e0ff e8be d777 88be 2b0f d23e
00000230: 3a9c 00be bf31 e6bd e596 913e 289f 08be
00000240: aa67 a5be 1a97 34be 15e0 8b3e 7227 0a3e
00000250: 8b28 a2bd f74f a7be c1f1 b4be b098 103d
00000260: 4704 5ebd 5cea 573e 5ab6 1f3e 898e 5fbe
00000270: bb24 c9b9 0e51 ccbe 8f08 cdbd 22e6 9ebe
00000280: 6aa4 ddbd 6764 52be 30f8 723b 9d9c c03e
00000290: f4c6 0f3e bf67 93be a8c2 82be 4654 e43d
000002a0: bf26 a43e 895a 36be df12 a8be 190d a23e
000002b0: fd93 a1be e3c2 00bd a677 60bd e9e1 a2bd
000002c0: 3a77 8abe 1b19 2d3d 6e74 4ebd 69aa 84be
000002d0: fc95 4abe 3351 a03e f26c a6be 53e9 94be
000002e0: c3c4 fd3d 6de3 42be 68cf 563e 5719 383e
000002f0: 4e83 88be edcc 6a3e 8499 3c3d 4a6c 1dbe
00000300: 39f4 fbbd 042c b53d d623 ae3d aec7 1abe
00000310: 5487 62be 62e6 9cbd 49bd 633e f55f 7abe
00000320: c71c 89bd 5af6 153e a84a a03e bf57 42be
00000330: 12d7 083e 5c0a 903e 0394 5ebe 84a6 ad3e
00000340: 0cb7 a93c 360c 69bd f1c4 913e 39d3 63bd
00000350: c31e b53e 952b 2fbe 99d0 a8bd ff47 a2be
00000360: c249 133e 4566 a1be e852 adbe 9210 92bd
00000370: 3beb d1be 70cb afbe 128c 3ebc b58e 86bc
00000380: ebb2 243e f705 6cbe 8361 b2be 3c7f f43c
00000390: ea38 08be fe92 9b3e d13f 283d ed1c 4c3e
000003a0: e8c5 8f3d 222f eb3e acf5 7f3e 62db 82bd
000003b0: 57f4 2cbe 78b2 043e 804f a13e d09d 8ebe
000003c0: c407 7e3e bc4e b83e 58aa c4be e8cc 593e
000003d0: e6b4 1e3e 5cb1 943e d499 613e 5c2d 583e
000003e0: fdd9 6ebe 2895 1bbe ffab a33e 5508 aebe
000003f0: 1674 ddbd 1146 d7bd bb2d 78be c8d7 693e

bias f4 [64]
-0.06281121 -0.14787102 -0.011703403 0.17079969 0.054525074 -0.33855757 0.29076248 -0.0042522843
0.09472972 0.3375034 -0.096849725 0.19355479 -0.07582831 -0.20869517 0.24322104 -0.12560944
0.19993499 -0.06876069 -0.03396775 0.066047125 0.21203928 -0.11765165 0.40176833 -0.22088023
0.09738553 0.10232883 -0.2050463 -0.11524085 -0.26641768 0.08315707 0.011636889 -0.22138931
-0.028331611 -0.16834122 -0.009924943 0.028150618 0.010041325 -0.110856675 0.30269268 0.14891338
0.32955456 -0.3037066 0.09231075 0.33871305 0.023019467 -0.14727245 -0.20988573 0.054743037
0.12643933 -0.16691966 0.3886144 -0.3392579 0.27963036 0.02343012 -0.03076775 -0.13124771
-0.08077984 -0.30045003 0.028188135 0.18185936 -0.29911152 -0.14016838 0.24915475 0.09752158
00000000: 2aa3 80bd 806b 17be a1bf 3fbc 1de6 2e3e
00000010: af55 5f3d 6b57 adbe d2de 943e bf56 8bbb
00000020: a801 c23d 3fcd ac3e 2659 c6bd 3a33 463e
00000030: df4b 9bbd 30b4 55be f00e 793e c39f 00be
00000040: c2bb 4c3e 68d2 8cbd c421 0bbd b743 873d
00000050: d320 593e 59f3 f0bd 94b4 cd3e 6d2e 62be
00000060: 1172 c73d c791 d13d a8f7 51be 6503 ecbd
00000070: e667 88be 414e aa3d a6a8 3e3c e1b3 62be
00000080: b217 e8bc a461 2cbe 3a9c 22bc 209c e63c
00000090: 5f84 243c d308 e3bd 89fa 9a3e c07c 183e
000000a0: 60bb a83e 6e7f 9bbe 6b0d bd3d cc6b ad3e
000000b0: 5293 bc3c 97ce 16be 49ec 56be 3c3a 603d
000000c0: 5079 013e fdec 2abe 77f8 c63e 36b3 adbe
000000d0: b62b 8f3e 86f0 bf3c a60c fcbc cd65 06be
000000e0: e76f a5bd 96d4 99be ceea e63c 5739 3a3e
000000f0: 2525 99be 4d88 0fbe 6c22 7f3e 65b9 c73d

mask f4 [64, 8]
1.0 0.0 0.0 0.0 0.0 0.0 0.0 0.0
1.0 1.0 0.0 0.0 0.0 0.0 0.0 0.0
1.0 1.0 1.0 0.0 0.0 0.0 0.0 0.0
1.0 1.0 1.0 1.0 0.0 0.0 0.0 0.0
1.0 1.0 1.0 1.0 1.0 0.0 0.0 0.0
1.0 1.0 1.0 1.0 1.0 1.0 0.0 0.0
1.0 1.0 1.0 1.0 1.0 1.0 1.0 0.0
1.0 0.0 0.0 0.0 0.0 0.0 0.0 0.0
1.0 1.0 0.0 0.0 0.0 0.0 0.0 0.0
1.0 1.0 1.0 0.0 0.0 0.0 0.0 0.0
1.0 1.0 1.0 1.0 0.0 0.0 0.0 0.0
1.0 1.0 1.0 1.0 1.0 0.0 0.0 0.0
1.0 1.0 1.0 1.0 1.0 1.0 0.0 0.0
1.0 1.0 1.0 1.0 1.0 1.0 1.0 0.0
1.0 0.0 0.0 0.0 0.0 0.0 0.0 0.0
1.0 1.0 0.0 0.0 0.0 0.0 0.0 0.0
1.0 1.0 1.0 0.0 0.0 0.0 0.0 0.0
1.0 1.0 1.0 1.0 0.0 0.0 0.0 0.0
1.0 1.0 1.0 1.0 1.0 0.0 0.0 0.0
1.0 1.0 1.0 1.0 1.0 1.0 0.0 0.0
1.0 1.0 1.0 1.0 1.0 1.0 1.0 0.0
1.0 0.0 0.0 0.0 0.0 0.0 0.0 0.0
1.0 1.0 0.0 0.0 0.0 0.0 0.0 0.0
1.0 1.0 1.0 0.0 0.0 0.0 0.0 0.0
1.0 1.0 1.0 1.0 0.0 0.0 0.0 0.0
1.0 1.0 1.0 1.0 1.0 0.0 0.0 0.0
1.0 1.0 1.0 1.0 1.0 1.0 0.0 0.0
1.0 1.0 1.0 1.0 1.0 1.0 1.0 0.0
1.0 0.0 0.0 0.0 0.0 0.0 0.0 0.0
1.0 1.0 0.0 0.0 0.0 0.0 0.0 0.0
1.0 1.0 1.0 0.0 0.0 0.0 0.0 0.0
1.0 1.0 1.0 1.0 0.0 0.0 0.0 0.0
00000000: 0000 803f 0000 0000 0000 0000 0000 0000
00000010: 0000 0000 0000 0000 0000 0000 0000 0000
00000020: 0000 803f 0000 803f 0000 0000 0000 0000
00000030: 0000 0000 0000 0000 0000 0000 0000 0000
00000040: 0000 803f 0000 803f 0000 803f 0000 0000
00000050: 0000 0000 0000 0000 0000 0000 0000 0000
00000060: 0000 803f 0000 803f 0000 803f 0000 803f
00000070: 0000 0000 0000 0000 0000 0000 0000 0000
00000080: 0000 803f 0000 803f 0000 803f 0000 803f
00000090: 0000 803f 0000 0000 0000 0000 0000 0000
000000a0: 0000 803f 0000 803f 0000 803f 0000 803f
000000b0: 0000 803f 0000 803f 0000 0000 0000 0000
000000c0: 0000 803f 0000 803f 0000 803f 0000 803f
000000d0: 0000 803f 0000 803f 0000 803f 0000 0000
000000e0: 0000 803f 0000 0000 0000 0000 0000 0000
000000f0: 0000 0000 0000 0000 0000 0000 0000 0000
00000100: 0000 803f 0000 803f 0000 0000 0000 0000
00000110: 0000 0000 0000 0000 0000 0000 0000 0000
00000120: 0000 803f 0000 803f 0000 803f 0000 0000
00000130: 0000 0000 0000 0000 0000 0000 0000 0000
00000140: 0000 803f 0000 803f 0000 803f 0000 803f
00000150: 0000 0000 0000 0000 0000 0000 0000 0000
00000160: 0000 803f 0000 803f 0000 803f 0000 803f
00000170: 0000 803f 0000 0000 0000 0000 0000 0000
00000180: 0000 803f 0000 803f 0000 803f 0000 803f
00000190: 0000 803f 0000 803f 0000 0000 0000 0000
000001a0: 0000 803f 0000 803f 0000 803f 0000 803f
000001b0: 0000 803f 0000 803f 0000 803f 0000 0000
000001c0: 0000 803f 0000 0000 0000 0000 0000 0000
000001d0: 0000 0000 0000 0000 0000 0000 0000 0000
000001e0: 0000 803f 0000 803f 0000 0000 0000 0000
000001f0: 0000 0000 0000 0000 0000 0000 0000 0000
00000200: 0000 803f 0000 803f 0000 803f 0000 0000
00000210: 0000 0000 0000 0000 0000 0000 0000 0000
00000220: 0000 803f 0000 803f 0000 803f 0000 803f
00000230: 0000 0000 0000 0000 0000 0000 0000 0000
00000240: 0000 803f 0000 803f 0000 803f 0000 803f
00000250: 0000 803f 0000 0000 0000 0000 0000 0000
00000260: 0000 803f 0000 803f 0000 803f 0000 803f
00000270: 0000 803f 0000 803f 0000 0000 0000 0000
00000280: 0000 803f 0000 803f 0000 803f 0000 803f
00000290: 0000 803f 0000 803f 0000 803f 0000 0000
000002a0: 0000 803f 0000 0000 0000 0000 0000 0000
000002b0: 0000 0000 0000 0000 0000 0000 0000 0000
000002c0: 0000 803f 0000 803f 0000 0000 0000 0000
000002d0: 0000 0000 0000 0000 0000 0000 0000 0000
000002e0: 0000 803f 0000 803f 0000 803f 0000 0000
000002f0: 0000 0000 0000 0000 0000 0000 0000 0000
00000300: 0000 803f 0000 803f 0000 803f 0000 803f
00000310: 0000 0000 0000 0000 0000 0000 0000 0000
00000320: 0000 803f 0000 803f 0000 803f 0000 803f
00000330: 0000 803f 0000 0000 0000 0000 0000 0000
00000340: 0000 803f 0000 803f 0000 803f 0000 803f
00000350: 0000 803f 0000 803f 0000 0000 0000 0000
00000360: 0000 803f 0000 803f 0000 803f 0000 803f
00000370: 0000 803f 0000 803f 0000 803f 0000 0000
00000380: 0000 803f 0000 0000 0000 0000 0000 0000
00000390: 0000 0000 0000 0000 0000 0000 0000 0000
000003a0: 0000 803f 0000 803f 0000 0000 0000 0000
000003b0: 0000 0000 0000 0000 0000 0000 0000 0000
000003c0: 0000 803f 0000 803f 0000 803f 0000 0000
000003d0: 0000 0000 0000 0000 0000 0000 0000 0000
000003e0: 0000 803f 0000 803f 0000 803f 0000 803f
000003f0: 0000 0000 0000 0000 0000 0000 0000 0000

weight f4 [64, 64]
0.04506719 0.047202155 0.100447804 0.10254501 -0.05127582 -0.056675434 0.008852273 -0.03883934
0.117869586 -0.032857478 -0.07160866 0.017788365 -0.03058651 -0.09820098 0.017310947 -0.053737774
-0.11640115 -0.013038889 0.014079541 -0.033034027 0.118802026 0.08876084 -0.011955917 0.10611029
0.08077359 0.10436863 0.11754882 -0.09498431 -0.060047388 -0.016470894 -0.10735364 -0.12123291
-0.0723203 0.09448552 -0.057576194 0.0525672 -0.014509261 0.086700276 -0.11740266 0.09846449
-0.0121962875 0.107324794 0.012758866 -0.02552031 -0.11063759 0.053729936 0.07325366 -0.12150879
0.111200646 0.015497506 -0.08864769 -0.062962994 -0.04996437 0.09312843 -0.05682373 0.098048314
0.09249087 0.09920487 -0.11419791 -0.09776057 -0.008429006 0.0008754432 -0.082215846 -0.016244441
0.031179309 0.008228689 0.081042856 -0.009640709 0.11732617 -0.07253355 -0.02113448 -0.087364
0.08370389 0.100553125 0.12205717 0.09511167 -0.00011947751 -0.07257414 0.006774053 -0.004482776
0.09542701 -0.049516052 0.05283068 -0.07724081 -0.11661431 -0.03127049 -0.0601815 -0.05020359
0.09927255 -0.042639136 -0.055506065 0.037876874 0.04809721 0.007167861 0.09046394 -0.055633217
-0.09154123 0.086232334 0.05336851 0.08815725 0.1017773 -0.11815368 -0.022606164 -0.026436418
0.055527657 0.053894565 0.0109258 -0.064230874 0.11295268 0.04860781 -0.029810429 0.070472226
0.074298546 0.04761836 -0.06459172 0.11112127 0.004320398 -0.037102938 0.07019539 -0.06393403
-0.10353698 0.006347537 -0.072580904 -0.036539927 0.08356063 -0.035527125 0.06907599 -0.051452383
0.041447625 0.07697837 -0.081017375 0.060855478 0.021328181 0.07596697 0.0037635714 0.010869235
-0.039826035 -0.07042344 0.04821317 -0.11434148 -0.052709207 0.0842067 -0.040085763 -0.0698867
0.020825237 -0.121640205 0.016037032 0.12211816 0.029604912 0.053427592 -0.11561717 -0.047215715
0.10131048 0.008569092 -0.04013008 -0.008552954 0.12075177 0.09690748 0.074613065 0.06817134
0.095179915 -0.12393363 -0.080987945 -0.054944903 -0.038246453 0.003509 0.059287697 -0.07268046
0.074855596 0.06566034 0.07235713 0.11421578 0.056822255 0.10826066 -0.054453254 0.032997385
0.09995787 0.04122454 -0.04956633 0.112154275 0.08301057 -0.04608749 -0.1098689 0.11611198
0.030197635 -0.05217403 -0.11554657 -0.0027385652 -0.11750464 0.03970696 -0.015288234 0.114455804
0.10024001 0.047121916 -0.04202693 -0.039970685 -0.05220233 0.09175913 -0.059435174 -0.0425628
0.07986672 -0.049355578 -0.029990375 -0.026044771 0.039202526 0.047910452 0.016262686 -0.07577889
0.16019076 0.03256592 0.07801013 -0.034970477 -0.050945207 -0.070748195 0.08911063 -0.11832729
0.15559082 -0.097701564 0.107993945 0.12430772 -0.060146764 -0.07879571 0.17174417 -0.023538603
-0.015687183 -0.005762875 -0.013195932 0.14943361 -0.042343568 -0.058764245 0.08603178 -0.047953784
-0.028123751 -0.08601305 0.0931064 0.17304073 0.04708806 0.016626438 -0.10305673 -0.009255409
-0.06330174 -0.098091304 0.09713434 0.09814656 0.16358078 0.004114285 -0.010148317 0.082270235
0.017510768 0.02439937 0.1357647 0.104155384 -0.10257733 -0.08866878 -0.04097414 -0.050709732
00000000: 6098 383d 0c57 413d 94b7 cd3d 1e03 d23d
00000010: 9806 52bd 8024 68bd 2009 113c 0016 1fbd
00000020: 9c65 f13d 9095 06bd 90a7 92bd e8b8 913c
00000030: 9090 fabc 981d c9bd b0cf 8d3c 241c 5cbd
00000040: ba63 eebd 10a1 55bc e0ad 663c b04e 07bd
00000050: 7a4e f33d 3ec8 b53d c0e2 43bc 5a50 d93d
00000060: a06c a53d 38bf d53d 70bd f03d 2287 c2bd
00000070: 40f4 75bd f8ed 86bc 3adc dbbd f648 f8bd
00000080: aa1c 94bd a081 c13d 04d5 6bbd b450 573d
00000090: 40b8 6dbc ea8f b13d ce70 f0bd c0a7 c93d
000000a0: f0d2 47bc 1acd db3d 900a 513c f80f d1bc
000000b0: f695 e2bd ec13 5c3d 0406 963d 9ad9 f8bd
000000c0: 2abd e33d 40e9 7d3c ec8c b5bd bef2 80bd
000000d0: 70a7 4cbd 1eba be3d 00c0 68bd 8ecd c83d
000000e0: da6b bd3d ec2b cb3d 98e0 e9bd b236 c8bd
000000f0: d019 0abc 007e 653a c860 a8bd 1013 85bc
00000100: c06b ff3c a0d1 063c ccf9 a53d 10f4 1dbc
00000110: b448 f03d 788c 94bd 3822 adbc e6eb b2bd
00000120: f26c ab3d ccee cd3d 1cf9 f93d e8c9 c23d
00000130: 0090 fab8 c0a1 94bd e0f8 dd3b 40e4 92bb
00000140: 3c6f c33d 58d1 4abd fc64 583d 6e30 9ebd
00000150: 7cd3 eebd 7c15 00bd e080 76bd 48a2 4dbd
00000160: 684f cb3d 60a6 2ebd 545a 63bd c824 1b3d
00000170: 9401 453d 60e0 ea3b 2845 b93d a8df 63bd
00000180: f879 bbbd 949a b03d f098 5a3d ca8b b43d
00000190: 9e70 d03d 8efa f1bd 9030 b9bc 3091 d8bc
000001a0: f870 633d 8cc0 5c3d 2002 333c 7a8b 83bd
000001b0: bc53 e73d fc18 473d 0035 f4bc be53 903d
000001c0: d629 983d 780b 433d aa48 84bd 8c93 e33d
000001d0: 2092 8d3b 40f9 17bd 9ac2 8f3d d8ef 82bd
000001e0: 320b d4bd 00ff cf3b 4ca5 94bd e4aa 15bd
000001f0: d621 ab3d e484 11bd b677 8d3d bcbf 52bd
00000200: fcc4 293d d6a6 9d3d 70ec a5bd 9843 793d
00000210: 70b8 ae3c 9294 9b3d 40a6 763b e014 323c
00000220: a020 23bd 2a3a 90bd 2c7b 453d de2b eabd
00000230: 9ce5 57bd 9074 ac3d f830 24bd c220 8fbd
00000240: b099 aa3c 801e f9bd 1860 833c 1619 fa3d
00000250: 0086 f23c e4d6 5a3d b2c8 ecbd 4465 41bd
00000260: de7b cf3d 6065 0c3c 705f 24bd b021 0cbc
00000270: b44c f73d 6e77 c63d bcce 983d 6a9d 8b3d
00000280: b0ed c23d ead0 fdbd 02dd a5bd e80d 61bd
00000290: 50a8 1cbd 40f7 653b a8d7 723d 7ed9 94bd
000002a0: e44d 993d ee78 863d fa2f 943d f6e9 e93d
000002b0: 74be 683d c4b7 dd3d 600a 5fbd 4428 073d
000002c0: b6b6 cc3d 10db 283d 1006 4bbd 24b1 e53d
000002d0: 7201 aa3d 3cc6 3cbd f202 e1bd 1ecc ed3d
000002e0: 0861 f73c 70b4 55bd aea3 ecbd 8079 33bb
000002f0: 46a6 f0bd c4a3 223d 807b 7abc ce67 ea3d
00000300: a24a cd3d e902 413d 6e24 2cbd 4db8 23bd
00000310: 1cd2 55bd 36ec bb3d 4c72 73bd 5556 2ebd
00000320: 2a91 a33d 1329 4abd 60ae f5bc d85b d5bc
00000330: d492 203d c03d 443d 5339 853c f631 9bbd
00000340: 0c09 243e d863 053d c6c3 9f3d 343d 0fbd
00000350: ecab 50bd 6ee4 90bd a27f b63d 9455 f2bd
00000360: 3353 1f3e c217 c8bd ee2b dd3d 0c95 fe3d
00000370: 745c 76bd a55f a1bd b4dd 2f3e 07d4 c0bc
00000380: 6882 80bc 80d6 bcbb c033 58bc 2005 193e
00000390: 7370 2dbd c7b2 70bd 6e31 b03d 306b 44bd
000003a0: c863 e6bc 9c27 b0bd 91ae be3d 9731 313e
000003b0: 69df 403d 2b34 883c 680f d3bd 00a4 17bc
000003c0: 58a4 81bd 18e4 c8bd 5eee c63d 1001 c93d
000003d0: b881 273e 20d1 863b 2045 26bc 4c7d a83d
000003e0: be72 8f3c 30e1 c73c e705 0b3e 6b4f d53d
000003f0: 1014 d2bd fa97 b5bd 80d4 27bd 02b5 4fbd

bias f4 [64]
-0.060804114 -0.05286078 -0.12090437 0.014393088 -0.038848083 -0.070338115 -0.03483182 0.12738408
0.09947155 0.029869623 -0.04526562 -0.06649924 -0.11240801 -0.034887977 0.10513475 0.15414265
0.042540614 0.15331951 0.093323685 -0.048471764 -0.07220353 0.14858358 0.079133265 0.053339787
0.076910585 -0.11462474 0.045196176 0.024638915 0.117132455 -0.03575693 -0.049329534 -0.12279208
-0.08437207 -0.07619555 0.057388384 -0.005459681 -0.01822111 0.16649163 0.07467793 0.050935894
-0.09546436 0.12190336 -0.026052585 0.071920685 -0.048232168 -0.043275326 0.017725008 0.11498204
-0.08127116 0.07525592 -0.04128317 0.0541342 -0.049366884 -0.078222916 0.0023873448 -0.046834867
-0.09398851 0.104820296 0.15298831 -0.10049867 -0.054449715 -0.11150669 0.042755466 -0.06078805
00000000: bc0d 79bd 8c84 58bd b69c f7bd fdd0 6b3c
00000010: 2b1f 1fbd 6e0d 90bd cfab 0ebd f970 023e
00000020: bdb7 cb3d 24b1 f43c 7168 39bd c130 88bd
00000030: 2c36 e6bd b2e6 0ebd e350 d73d 92d7 1d3e
00000040: 113f 2e3d caff 1c3e 7d20 bf3d 548a 46bd
00000050: 72df 93bd 4b26 183e 9f10 a23d d27a 5a3d
00000060: 4c83 9d3d 60c0 eabd a01f 393d 8dd7 c93c
00000070: 24e3 ef3d dc75 12bd c40d 4abd 6a7a fbbd
00000080: 44cb acbd 6a0c 9cbd 1510 6b3d 20e7 b2bb
00000090: 7044 95bc c87c 2a3e bef0 983d 28a2 503d
000000a0: d282 c3bd 78a8 f93d 3b6c d5bc 274b 933d
000000b0: 188f 45bd 7841 31bd 0934 913c b47b eb3d
000000c0: 7e71 a6bd c71f 9a3d 8b18 29bd d3bb 5d3d
000000d0: ee34 4abd 5633 a0bd 0075 1c3b ebd5 3fbd
000000e0: 0c7d c0bd 06ac d63d f8a8 1c3e 3fd2 cdbd
000000f0: aa06 5fbd 9f5d e4bd 5b20 2f3d e4fc 78bd

mask f4 [64, 64]
1.0 0.0 0.0 0.0 0.0 0.0 0.0 1.0
0.0 0.0 0.0 0.0 0.0 0.0 1.0 0.0
0.0 0.0 0.0 0.0 0.0 1.0 0.0 0.0
0.0 0.0 0.0 0.0 1.0 0.0 0.0 0.0
0.0 0.0 0.0 1.0 0.0 0.0 0.0 0.0
0.0 0.0 1.0 0.0 0.0 0.0 0.0 0.0
0.0 1.0 0.0 0.0 0.0 0.0 0.0 0.0
1.0 0.0 0.0 0.0 0.0 0.0 0.0 1.0
1.0 1.0 0.0 0.0 0.0 0.0 0.0 1.0
1.0 0.0 0.0 0.0 0.0 0.0 1.0 1.0
0.0 0.0 0.0 0.0 0.0 1.0 1.0 0.0
0.0 0.0 0.0 0.0 1.0 1.0 0.0 0.0
0.0 0.0 0.0 1.0 1.0 0.0 0.0 0.0
0.0 0.0 1.0 1.0 0.0 0.0 0.0 0.0
0.0 1.0 1.0 0.0 0.0 0.0 0.0 0.0
1.0 1.0 0.0 0.0 0.0 0.0 0.0 1.0
1.0 1.0 1.0 0.0 0.0 0.0 0.0 1.0
1.0 1.0 0.0 0.0 0.0 0.0 1.0 1.0
1.0 0.0 0.0 0.0 0.0 1.0 1.0 1.0
0.0 0.0 0.0 0.0 1.0 1.0 1.0 0.0
0.0 0.0 0.0 1.0 1.0 1.0 0.0 0.0
0.0 0.0 1.0 1.0 1.0 0.0 0.0 0.0
0.0 1.0 1.0 1.0 0.0 0.0 0.0 0.0
1.0 1.0 1.0 0.0 0.0 0.0 0.0 1.0
1.0 1.0 1.0 1.0 0.0 0.0 0.0 1.0
1.0 1.0 1.0 0.0 0.0 0.0 1.0 1.0
1.0 1.0 0.0 0.0 0.0 1.0 1.0 1.0
1.0 0.0 0.0 0.0 1.0 1.0 1.0 1.0
0.0 0.0 0.0 1.0 1.0 1.0 1.0 0.0
0.0 0.0 1.0 1.0 1.0 1.0 0.0 0.0
0.0 1.0 1.0 1.0 1.0 0.0 0.0 0.0
1.0 1.0 1.0 1.0 0.0 0.0 0.0 1.0
00000000: 0000 803f 0000 0000 0000 0000 0000 0000
00000010: 0000 0000 0000 0000 0000 0000 0000 803f
00000020: 0000 0000 0000 0000 0000 0000 0000 0000
00000030: 0000 0000 0000 0000 0000 803f 0000 0000
00000040: 0000 0000 0000 0000 0000 0000 0000 0000
00000050: 0000 0000 0000 803f 0000 0000 0000 0000
00000060: 0000 0000 0000 0000 0000 0000 0000 0000
00000070: 0000 803f 0000 0000 0000 0000 0000 0000
00000080: 0000 0000 0000 0000 0000 0000 0000 803f
00000090: 0000 0000 0000 0000 0000 0000 0000 0000
000000a0: 0000 0000 0000 0000 0000 803f 0000 0000
000000b0: 0000 0000 0000 0000 0000 0000 0000 0000
000000c0: 0000 0000 0000 803f 0000 0000 0000 0000
000000d0: 0000 0000 0000 0000 0000 0000 0000 0000
000000e0: 0000 803f 0000 0000 0000 0000 0000 0000
000000f0: 0000 0000 0000 0000 0000 0000 0000 803f
00000100: 0000 803f 0000 803f 0000 0000 0000 0000
00000110: 0000 0000 0000 0000 0000 0000 0000 803f
00000120: 0000 803f 0000 0000 0000 0000 0000 0000
00000130: 0000 0000 0000 0000 0000 803f 0000 803f
00000140: 0000 0000 0000 0000 0000 0000 0000 0000
00000150: 0000 0000 0000 803f 0000 803f 0000 0000
00000160: 0000 0000 0000 0000 0000 0000 0000 0000
00000170: 0000 803f 0000 803f 0000 0000 0000 0000
00000180: 0000 0000 0000 0000 0000 0000 0000 803f
00000190: 0000 803f 0000 0000 0000 0000 0000 0000
000001a0: 0000 0000 0000 0000 0000 803f 0000 803f
000001b0: 0000 0000 0000 0000 0000 0000 0000 0000
000001c0: 0000 0000 0000 803f 0000 803f 0000 0000
000001d0: 0000 0000 0000 0000 0000 0000 0000 0000
000001e0: 0000 803f 0000 803f 0000 0000 0000 0000
000001f0: 0000 0000 0000 0000 0000 0000 0000 803f
00000200: 0000 803f 0000 803f 0000 803f 0000 0000
00000210: 0000 0000 0000 0000 0000 0000 0000 803f
00000220: 0000 803f 0000 803f 0000 0000 0000 0000
00000230: 0000 0000 0000 0000 0000 803f 0000 803f
00000240: 0000 803f 0000 0000 0000 0000 0000 0000
00000250: 0000 0000 0000 803f 0000 803f 0000 803f
00000260: 0000 0000 0000 0000 0000 0000 0000 0000
00000270: 0000 803f 0000 803f 0000 803f 0000 0000
00000280: 0000 0000 0000 0000 0000 0000 0000 803f
00000290: 0000 803f 0000 803f 0000 0000 0000 0000
000002a0: 0000 0000 0000 0000 0000 803f 0000 803f
000002b0: 0000 803f 0000 0000 0000 0000 0000 0000
000002c0: 0000 0000 0000 803f 0000 803f 0000 803f
000002d0: 0000 0000 0000 0000 0000 0000 0000 0000
000002e0: 0000 803f 0000 803f 0000 803f 0000 0000
000002f0: 0000 0000 0000 0000 0000 0000 0000 803f
00000300: 0000 803f 0000 803f 0000 803f 0000 803f
00000310: 0000 0000 0000 0000 0000 0000 0000 803f
00000320: 0000 803f 0000 803f 0000 803f 0000 0000
00000330: 0000 0000 0000 0000 0000 803f 0000 803f
00000340: 0000 803f 0000 803f 0000 0000 0000 0000
00000350: 0000 0000 0000 803f 0000 803f 0000 803f
00000360: 0000 803f 0000 0000 0000 0000 0000 0000
00000370: 0000 803f 0000 803f 0000 803f 0000 803f
00000380: 0000 0000 0000 0000 0000 0000 0000 803f
00000390: 0000 803f 0000 803f 0000 803f 0000 0000
000003a0: 0000 0000 0000 0000 0000 803f 0000 803f
000003b0: 0000 803f 0000 803f 0000 0000 0000 0000
000003c0: 0000 0000 0000 803f 0000 803f 0000 803f
000003d0: 0000 803f 0000 0000 0000 0000 0000 0000
000003e0: 0000 803f 0000 803f 0000 803f 0000 803f
000003f0: 0000 0000 0000 0000 0000 0000 0000 803f

weight f4 [64, 64]
-0.00081466284 0.0008021498 0.0008424658 0.00095113844 0.00080356235 0.00065553957 -0.00042122556 -0.037503757
0.00084685924 -0.0005826513 0.00036346138 -0.0004014136 0.0003165362 0.00025747015 -0.034500506 -0.0002277447
0.00013033664 0.0006540542 -0.00019281234 -0.00076047756 0.0008496521 -0.029485056 -0.0001288687 -0.0008682989
0.0008389317 -0.00035264136 6.2509775e-05 -0.0007499428 -0.00909005 0.0003390435 -0.000116111405 0.0003250244
-0.0002817806 0.00034507216 0.0004710386 0.00023220755 5.8466794e-05 0.00057138567 -0.0003451884 0.00067841605
0.0006815372 0.0007965554 -0.005379312 -0.0009791531 0.00038822103 -0.00048249259 -0.0008182943 -0.0009175947
0.00074458675 -0.043153513 0.00064813346 8.112085e-05 -0.00038754346 -0.00052353623 0.00029777637 0.00043801405
0.0006997568 -0.00029311527 -0.00039276303 0.00040186525 0.00059199834 -5.762482e-05 0.0005905849 -0.00095350295
4.1821957e-05 -0.0001440698 0.0004312034 0.0007467157 0.0004156691 -0.00025409306 -0.00017225803 -0.05171084
-0.054262727 -0.0002466568 0.0003454664 0.00051397324 8.904136e-05 -7.46162e-05 -0.06350117 -0.0520999
0.0007072405 0.00061090675 0.00055470323 0.0008866725 0.00089067 -0.069851704 -0.043420166 0.00034756685
-0.00011302496 0.00018954302 0.000979478 0.00035609474 -0.0859382 0.00014889933 -0.00057534757 0.0006261778
0.0003826337 -0.00034886337 0.0005529528 -0.00042249134 -0.00026669443 0.0007922937 -0.00034322002 -0.00054202287
0.0006309152 0.0005390531 -0.004411152 -0.04716975 -0.00096989755 -0.0006661895 0.0007006312 -0.0004220144
-0.00010298777 -0.046378195 -0.006199555 0.00032308282 0.0007531722 0.00025599432 -0.0006763969 0.00078369013
-0.00065317657 -0.048611056 -2.1523358e-05 -0.00087587634 0.00011468065 -0.0009877245 0.00058916 0.0009082637
-0.00031409514 -0.00031457533 0.0002568512 -0.0005042125 0.0009369017 0.00014110054 4.254222e-06 0.047307905
0.047491472 0.03718735 -0.00090889353 -0.0009284713 -0.00018854547 -0.00061233033 0.0547964 0.046851426
0.050884824 -0.0005407491 0.00012162316 -0.00011008561 -0.00031498875 0.056690052 0.04195156 0.04030699
0.00058440963 -0.00022322453 -0.0007028828 -0.0009728513 0.062841184 -0.000173836 -2.032304e-05 0.00010914267
0.0006615553 0.0007075253 0.00067452353 -0.00021884502 -0.0006822683 0.049516227 0.0002836552 0.00024795224
-0.0003777007 -0.00040787793 0.0048872717 0.044168197 -0.0005010635 0.00033806672 0.0007592826 -0.00019819118
-0.00032159474 0.044176303 0.005016189 0.04294217 0.00054974953 -0.000908261 0.00052155426 0.00094546395
0.0004005276 0.0427221 0.04766315 0.00013413191 0.00050796155 -0.0005029805 0.00095051737 0.00067965535
0.00083312823 -0.00011090243 -0.0004400691 -0.042274795 -0.00048330988 0.0008308878 0.00026432564 -0.050798167
-0.049271565 -0.04821723 -0.003100963 -0.0006012384 -0.0007099499 0.0001052065 -0.04896484 -0.049450446
-0.048367765 -0.048312556 -0.00052965 0.0005798321 -0.0002382331 -0.048565183 -0.05207202 -0.050281446
-0.008120253 -0.00084415975 -0.00074985245 -0.0009646123 -0.036648814 -0.00064810127 0.00012049127 0.00011411536
-0.0006445147 -0.0002382902 0.00030305792 0.000768145 0.00062405877 -0.050529215 -0.047569763 0.00018414212
-0.00078155054 -0.00065382425 -0.0042725126 -0.05167032 -3.4502864e-05 0.0005667689 0.0002466394 -0.0008404177
-0.0009540507 -0.052353792 -0.0062705986 -0.03744599 -0.006324803 -0.0008829552 -6.231773e-05 -0.0008166731
0.00064786116 -0.04976265 -0.02935325 0.010564204 0.0003892385 -0.0005376961 -0.0008975044 0.00092159107
00000000: 198f 55ba 5d47 523a ecd8 5c3a d255 793a
00000010: 28a6 523a 84d8 2b3a f0d7 dcb9 8a9d 19bd
00000020: c3ff 5d3a 11bd 18ba f68e be39 d274 d2b9
00000030: c5f4 a539 0ffd 8639 6750 0dbd c1ce 6eb9
00000040: faaa 0839 d674 2b3a ab2d 4ab9 c95a 47ba
00000050: 30bb 5e3a a58a f1bc ee20 07b9 8e9e 63ba
00000060: c1eb 5b3a b9e2 b8b9 ae17 8338 cf97 44ba
00000070: 6fee 14bc a6c1 b139 d680 f3b8 0968 aa39
00000080: f4bb 93b9 cdea b439 bbf5 f639 bd7c 7339
00000090: 3e3a 7538 0bc9 153a 67fa b4b9 bbd7 313a
000000a0: 30a9 323a eecf 503a f144 b0bb ed56 80ba
000000b0: 258a cb39 0ff7 fcb9 cd82 56ba bd8a 70ba
000000c0: 5f30 433a bdc1 30bd 80e7 293a 6d1f aa38
000000d0: 342f cbb9 ec3d 09ba de1e 9c39 40a5 e539
000000e0: e26f 373a 44ad 99b9 c3eb cdb9 71b1 d239
000000f0: 5630 1b3a 2eb2 71b8 7bd1 1a3a 80f4 79ba
00000100: fc69 2f38 7111 17b9 2413 e239 3ebf 433a
00000110: 2aee d939 cb37 85b9 2aa0 34b9 bfce 53bd
00000120: 9842 5ebd b751 81b9 b71f b539 29bc 063a
00000130: b7bb ba38 447b 9cb8 e70c 82bd b466 55bd
00000140: 1b66 393a 4225 203a 8169 113a 966f 683a
00000150: da7b 693a 690e 8fbd 58d9 31bd a239 b639
00000160: d007 edb8 11c0 4639 d461 803a 3ab2 ba39
00000170: 5e00 b0bd dc21 1c39 ecd2 16ba 1526 243a
00000180: 3a9c c839 a6e7 b6b9 09f4 103a d481 ddb9
00000190: 1fd3 8bb9 eeb1 4f3a 36f2 b3b9 8a16 0eba
000001a0: 0164 253a 3e4f 0d3a 6d8b 90bb 1135 41bd
000001b0: b940 7eba 38a3 2eba 90aa 373a d041 ddb9
000001c0: 23fb d7b8 10f7 3dbd a325 cbbb 7163 a939
000001d0: 8870 453a fa36 8639 3a50 31ba 8e70 4d3a
000001e0: f039 2bba 631c 47bd 0f8d b4b7 119b 65ba
000001f0: b580 f038 8976 81ba dc71 1a3a 8c18 6e3a
00000200: 23ad a4b9 96ed a4b9 fca9 8639 212d 04ba
00000210: 699a 753a 63f4 1339 7dbf 8e36 efc5 413d
00000220: 6b86 423d c351 183d d042 6eba a764 73ba
00000230: 4ab4 45b9 cb84 20ba 3172 603d 48e7 3f3d
00000240: 9b6c 503d 0fc1 0dba f00f ff38 c3dd e6b8
00000250: 1325 a5b9 d433 683d 66d5 2b3d f118 253d
00000260: 1133 193a 6111 6ab9 ab41 38ba f206 7fba
00000270: e1b2 803d bf47 36b9 657b aab7 86e3 e438
00000280: 3a6c 2d3a 3879 393a 82d2 303a c379 65b9
00000290: 40da 32ba 87d1 4a3d 8eb7 9439 96ff 8139
000002a0: 2106 c6b9 73d8 d5b9 6825 a03b b6e9 343d
000002b0: cd59 03ba 8c3e b139 980a 473a 8ad1 4fb9
000002c0: b79b a8b9 36f2 343d d85e a43b 21e4 2f3d
000002d0: 111d 103a 5d18 6eba eab8 083a 03d9 773a
000002e0: e8fd d139 5efd 2e3d 6f3a 433d c3a5 0c39
000002f0: b928 053a 73da 03ba 242c 793a e62a 323a
00000300: 4a66 5a3a 4a94 e8b8 13b9 e6b9 5628 2dbd
00000310: c164 fdb9 f0cf 593a 3095 8a39 bd11 50bd
00000320: fbd0 49bd 6e7f 45bd 8739 4bbb 6d9c 1dba
00000330: ee1b 3aba 4fa2 dc38 5b8f 48bd 8d8c 4abd
00000340: 471d 46bd 63e3 45bd 36d8 0aba e0ff 173a
00000350: 36ce 79b9 49ec 46bd 7849 55bd ebf3 4dbd
00000360: cf0a 05bc 9a4a 5dba bf91 44ba 09de 7cba
00000370: 111d 16bd 57e5 29ba 42b0 fc38 3851 ef38
00000380: a6f4 28ba 8add 79b9 bfe3 9e39 575d 493a
00000390: e097 233a b9f7 4ebd 83d8 42bd 4616 4139
000003a0: f8e0 4cba 6765 2bba 6f00 8cbb 42a4 53bd
000003b0: 2bb7 10b8 3893 143a 614f 8139 7a4f 5cba
000003c0: 4219 7aba ee70 56bd 9879 cdbb f760 19bd
000003d0: 4b40 cfbb 1f76 67ba 94b0 82b8 0116 56ba
000003e0: 3ad5 293a ecd3 4bbd 3a76 f0bc 7c15 2d3c
000003f0: b512 cc39 2df4 0cba 8046 6bba ee96 713a

bias f4 [64]
-0.03308998 -0.062984675 0.053830285 -0.047436018 0.048547924 -0.04081593 0.036701236 -0.040913284
0.004858483 0.048930954 -0.026212731 -0.049693797 0.029269062 0.008498897 -0.023601416 -0.05383065
-0.008394068 -0.040819436 0.049185786 0.05632966 -0.046759803 -0.047961786 0.061352428 0.039387815
0.053341914 0.038544957 -0.05518941 0.048008602 0.024366217 -0.0067238254 0.03299672 -0.02105867
0.04137342 -0.036464714 -0.042400964 0.049851637 0.06893097 -0.01814275 -0.029320916 -0.017697321
0.023623459 -0.037348993 0.050809655 0.038952168 -0.0031350206 0.0021512634 -0.050925974 -0.044929333
-0.015873024 0.044032093 0.045006372 -0.00023781827 0.022792265 0.051146686 0.040407334 0.04640259
0.05342934 -0.036415927 -0.023201784 -0.042086434 0.039976805 0.023728132 0.04397793 0.045111332
00000000: 5c89 07bd 1cfe 80bd 257d 5c3d 454c 42bd
00000010: 30da 463d 9b2e 27bd 0954 163d b094 27bd
00000020: e933 9f3b d36b 483d 15bc d6bc b98b 4bbd
00000030: acc5 ef3c f53e 0b3c c257 c1bc 877d 5cbd
00000040: 4687 09bc 4832 27bd 0977 493d eeb9 663d
00000050: 3587 3fbd 9473 44bd af4c 7b3d 1e55 213d
00000060: 0d7d 5a3d 51e1 1d3d 4a0e 62bd aba4 443d
00000070: a99b c73c 8953 dcbb 9227 073d 3b83 acbc
00000080: 2d77 293d 065c 15bd a2ac 2dbd 3b31 4c3d
00000090: ae2b 8d3d 1ba0 94bc 6b32 f0bc f9f9 90bc
000000a0: fc85 c13c 42fb 18bd c91d 503d 4f8c 1f3d
000000b0: eb74 4dbb 36fc 0c3b c197 50bd d207 38bd
000000c0: 2508 82bc ff5a 343d 9a58 383d db5e 79b9
000000d0: d8b6 ba3c 307f 513d 2982 253d a410 3e3d
000000e0: b9d8 5a3d de28 15bd ab11 bebc d362 2cbd
000000f0: b8be 233d 8061 c23c 3422 343d a9c6 383d

mask f4 [64, 64]
1.0 0.0 0.0 0.0 0.0 0.0 0.0 1.0
0.0 0.0 0.0 0.0 0.0 0.0 1.0 0.0
0.0 0.0 0.0 0.0 0.0 1.0 0.0 0.0
0.0 0.0 0.0 0.0 1.0 0.0 0.0 0.0
0.0 0.0 0.0 1.0 0.0 0.0 0.0 0.0
0.0 0.0 1.0 0.0 0.0 0.0 0.0 0.0
0.0 1.0 0.0 0.0 0.0 0.0 0.0 0.0
1.0 0.0 0.0 0.0 0.0 0.0 0.0 1.0
1.0 1.0 0.0 0.0 0.0 0.0 0.0 1.0
1.0 0.0 0.0 0.0 0.0 0.0 1.0 1.0
0.0 0.0 0.0 0.0 0.0 1.0 1.0 0.0
0.0 0.0 0.0 0.0 1.0 1.0 0.0 0.0
0.0 0.0 0.0 1.0 1.0 0.0 0.0 0.0
0.0 0.0 1.0 1.0 0.0 0.0 0.0 0.0
0.0 1.0 1.0 0.0 0.0 0.0 0.0 0.0
1.0 1.0 0.0 0.0 0.0 0.0 0.0 1.0
1.0 1.0 1.0 0.0 0.0 0.0 0.0 1.0
1.0 1.0 0.0 0.0 0.0 0.0 1.0 1.0
1.0 0.0 0.0 0.0 0.0 1.0 1.0 1.0
0.0 0.0 0.0 0.0 1.0 1.0 1.0 0.0
0.0 0.0 0.0 1.0 1.0 1.0 0.0 0.0
0.0 0.0 1.0 1.0 1.0 0.0 0.0 0.0
0.0 1.0 1.0 1.0 0.0 0.0 0.0 0.0
1.0 1.0 1.0 0.0 0.0 0.0 0.0 1.0
1.0 1.0 1.0 1.0 0.0 0.0 0.0 1.0
1.0 1.0 1.0 0.0 0.0 0.0 1.0 1.0
1.0 1.0 0.0 0.0 0.0 1.0 1.0 1.0
1.0 0.0 0.0 0.0 1.0 1.0 1.0 1.0
0.0 0.0 0.0 1.0 1.0 1.0 1.0 0.0
0.0 0.0 1.0 1.0 1.0 1.0 0.0 0.0
0.0 1.0 1.0 1.0 1.0 0.0 0.0 0.0
1.0 1.0 1.0 1.0 0.0 0.0 0.0 1.0
00000000: 0000 803f 0000 0000 0000 0000 0000 0000
00000010: 0000 0000 0000 0000 0000 0000 0000 803f
00000020: 0000 0000 0000 0000 0000 0000 0000 0000
00000030: 0000 0000 0000 0000 0000 803f 0000 0000
00000040: 0000 0000 0000 0000 0000 0000 0000 0000
00000050: 0000 0000 0000 803f 0000 0000 0000 0000
00000060: 0000 0000 0000 0000 0000 0000 0000 0000
00000070: 0000 803f 0000 0000 0000 0000 0000 0000
00000080: 0000 0000 0000 0000 0000 0000 0000 803f
00000090: 0000 0000 0000 0000 0000 0000 0000 0000
000000a0: 0000 0000 0000 0000 0000 803f 0000 0000
000000b0: 0000 0000 0000 0000 0000 0000 0000 0000
000000c0: 0000 0000 0000 803f 0000 0000 0000 0000
000000d0: 0000 0000 0000 0000 0000 0000 0000 0000
000000e0: 0000 803f 0000 0000 0000 0000 0000 0000
000000f0: 0000 0000 0000 0000 0000 0000 0000 803f
00000100: 0000 803f 0000 803f 0000 0000 0000 0000
00000110: 0000 0000 0000 0000 0000 0000 0000 803f
00000120: 0000 803f 0000 0000 0000 0000 0000 0000
00000130: 0000 0000 0000 0000 0000 803f 0000 803f
00000140: 0000 0000 0000 0000 0000 0000 0000 0000
00000150: 0000 0000 0000 803f 0000 803f 0000 0000
00000160: 0000 0000 0000 0000 0000 0000 0000 0000
00000170: 0000 803f 0000 803f 0000 0000 0000 0000
00000180: 0000 0000 0000 0000 0000 0000 0000 803f
00000190: 0000 803f 0000 0000 0000 0000 0000 0000
000001a0: 0000 0000 0000 0000 0000 803f 0000 803f
000001b0: 0000 0000 0000 0000 0000 0000 0000 0000
000001c0: 0000 0000 0000 803f 0000 803f 0000 0000
000001d0: 0000 0000 0000 0000 0000 0000 0000 0000
000001e0: 0000 803f 0000 803f 0000 0000 0000 0000
000001f0: 0000 0000 0000 0000 0000 0000 0000 803f
00000200: 0000 803f 0000 803f 0000 803f 0000 0000
00000210: 0000 0000 0000 0000 0000 0000 0000 803f
00000220: 0000 803f 0000 803f 0000 0000 0000 0000
00000230: 0000 0000 0000 0000 0000 803f 0000 803f
00000240: 0000 803f 0000 0000 0000 0000 0000 0000
00000250: 0000 0000 0000 803f 0000 803f 0000 803f
00000260: 0000 0000 0000 0000 0000 0000 0000 0000
00000270: 0000 803f 0000 803f 0000 803f 0000 0000
00000280: 0000 0000 0000 0000 0000 0000 0000 803f
00000290: 0000 803f 0000 803f 0000 0000 0000 0000
000002a0: 0000 0000 0000 0000 0000 803f 0000 803f
000002b0: 0000 803f 0000 0000 0000 0000 0000 0000
000002c0: 0000 0000 0000 803f 0000 803f 0000 803f
000002d0: 0000 0000 0000 0000 0000 0000 0000 0000
000002e0: 0000 803f 0000 803f 0000 803f 0000 0000
000002f0: 0000 0000 0000 0000 0000 0000 0000 803f
00000300: 0000 803f 0000 803f 0000 803f 0000 803f
00000310: 0000 0000 0000 0000 0000 0000 0000 803f
00000320: 0000 803f 0000 803f 0000 803f 0000 0000
00000330: 0000 0000 0000 0000 0000 803f 0000 803f
00000340: 0000 803f 0000 803f 0000 0000 0000 0000
00000350: 0000 0000 0000 803f 0000 803f 0000 803f
00000360: 0000 803f 0000 0000 0000 0000 0000 0000
00000370: 0000 803f 0000 803f 0000 803f 0000 803f
00000380: 0000 0000 0000 0000 0000 0000 0000 803f
00000390: 0000 803f 0000 803f 0000 803f 0000 0000
000003a0: 0000 0000 0000 0000 0000 803f 0000 803f
000003b0: 0000 803f 0000 803f 0000 0000 0000 0000
000003c0: 0000 0000 0000 803f 0000 803f 0000 803f
000003d0: 0000 803f 0000 0000 0000 0000 0000 0000
000003e0: 0000 803f 0000 803f 0000 803f 0000 803f
000003f0: 0000 0000 0000 0000 0000 0000 0000 803f

weight f4 [64, 64]
0.006909251 0.033406064 -0.0054650605 0.08815387 0.04203616 -0.020420566 0.08516081 -0.110413805
-0.05288309 -0.12464087 -0.107477084 -0.0340396 -0.028754368 0.08401896 0.037659004 0.02197723
0.09202805 -0.12160891 0.079945385 -0.018904567 0.0498904 -0.071894094 0.031409875 -0.05311489
0.019961908 0.0743604 -0.073732376 0.00083483756 0.053524658 0.017460927 -0.0076975822 -0.058421686
-0.032376975 0.11662181 0.06941742 -0.115492985 0.11254352 -0.039921194 -0.062082246 -0.06109169
0.0005388558 0.09997605 0.029199809 -0.03362839 -0.12302035 0.1001271 0.022652969 0.029560551
0.09441975 0.1067847 -0.10339223 -0.022028923 0.1020906 0.018675104 0.091979474 -0.05258642
-0.04934989 -0.067478165 -0.068121 -0.0701583 -0.060274884 -0.118607715 0.10234633 0.112466484
-0.04307969 -0.015538514 0.10237208 -0.051357985 -0.0841234 -0.0805352 -0.0377405 0.06417014
0.04374498 0.00047829747 -0.036554366 0.069102526 0.03982401 0.11652216 0.063958995 -0.08802375
-0.047770157 -0.118535876 0.05489582 0.10008244 0.050767794 0.034999683 0.05863139 0.059370026
0.10303749 -0.09386794 -0.03158246 0.0014363974 -0.04788713 0.14377584 -0.112649664 0.0277379
-0.0117883235 0.06949079 -0.0007927269 0.101912305 -0.092811346 -0.087761834 -0.011204824 0.10491504
-0.100578055 0.09213942 0.06413234 0.09806727 -0.050779372 0.065804005 0.038857102 0.006919846
-0.10965681 -0.054738976 0.081057735 -0.07914606 0.09155859 0.041511312 0.06450851 -0.05262199
-0.076297455 -0.0992576 -0.026829705 -0.041292816 -0.033665136 0.038156345 -0.061797753 -0.047388148
-0.06962103 -0.063705 0.0034086108 -0.117653534 0.11774595 -0.07420641 0.10469121 0.11260949
0.077517584 0.045175195 -0.12490223 0.06678277 0.067220286 -0.051951617 -0.103267744 -0.10218914
-0.020623341 0.08984713 0.01830405 0.057275727 0.091397464 -0.06428775 -0.018829867 0.03145954
0.06292249 0.07533413 -0.11404379 0.0465277 0.0038918555 -0.035816178 -0.07993321 0.0063994974
0.064979374 -5.6624413e-06 -0.08810198 0.04335174 -0.116984084 0.008498818 0.008962378 0.07398507
0.087383285 0.12179279 -0.09560485 -0.04678686 0.05454938 -0.048494965 -0.08809456 -0.104153425
0.037865117 -0.051049575 -0.08639027 0.03803198 -0.093910754 0.06579967 -0.07819672 0.042277575
-0.022462681 0.122776344 0.016959831 -0.0697428 -0.07814327 -0.03494416 0.0007596463 -0.055605933
0.12352283 -0.051321685 -0.0137339905 0.1200165 -0.08180833 -0.07276341 -0.02117385 -0.018064141
0.14216562 0.078551665 -0.023564912 0.010423258 -0.06876643 -0.090646476 0.11525254 -0.0062704636
0.085943595 -0.0815006 0.0042829216 -0.07300249 -0.016087726 0.05439739 0.16888262 0.014750123
0.17744936 0.10228895 -0.041165635 0.120561466 -0.073498726 -0.10594018 -0.045152556 0.06392419
-0.008553103 0.07865879 -0.09216462 0.0020311782 0.060466323 0.040989384 0.08898271 0.06931473
0.074141875 -0.0028698891 0.028847583 -0.020119071 -0.07265486 0.17537265 -0.01877357 -0.056551814
-0.0717956 -0.08888546 0.07546272 0.03242469 0.015204191 0.043866113 -0.035522968 0.028592259
0.06254701 -0.03765668 0.14752786 -0.061327457 0.04989314 0.11500496 0.05063194 0.13829641
00000000: 0067 e23b ccd4 083d 4014 b3bb 048a b43d
00000010: 1c2e 2c3d 0849 a7bc ca68 ae3d a220 e2bd
00000020: f09b 58bd b643 ffbd f21c dcbd 1c6d 0bbd
00000030: 488e ebbc 2212 ac3d 5440 1a3d 9809 b43c
00000040: 3479 bc3d 180e f9bd 68ba a33d c0dd 9abc
00000050: e059 4c3d 363d 93bd a4a7 003d 008f 59bd
00000060: 2887 a33c 444a 983d 0001 97bd 00d9 5a3a
00000070: ac3c 5b3d 380a 8f3c 003c fcbb 944b 6fbd
00000080: b89d 04bd 6ad7 ee3d b82a 8e3d 9687 ecbd
00000090: 387d e63d 6884 23bd f449 7ebd 483b 7abd
000000a0: 0042 0d3a 3ec0 cc3d 7034 ef3c ecbd 09bd
000000b0: 18f2 fbbd 700f cd3d b892 b93c f828 f23c
000000c0: 245f c13d f0b1 da3d 4ebf d3bd 0076 b4bc
000000d0: e014 d13d 88fc 983c bc5f bc3d dc64 57bd
000000e0: 1c23 4abd fe31 8abd 0683 8bbd 28af 8fbd
000000f0: cce2 76bd 9ae8 f2bd f49a d13d d454 e63d
00000100: 5474 30bd 4095 7ebc 74a8 d13d c05c 52bd
00000110: e448 acbd a4ef a4bd c895 1abd a26b 833d
00000120: f02d 333d 00c4 fa39 08ba 15bd a085 8d3d
00000130: 801e 233d 2ca3 ee3d effc 823d cc45 b4bd
00000140: a4aa 43bd f0c2 f2bd 70da 603d 06f8 cc3d
00000150: e4f1 4f3d d45b 0f3d 7827 703d fc2d 733d
00000160: 5205 d33d d63d c0bd 9c5c 01bd 8045 bc3a
00000170: 4c25 44bd f939 133e deb4 e6bd 983a e33c
00000180: d023 41bc 3051 8e3d 00cf 4fba 66b7 d03d
00000190: e013 bebd 7abc b3bd 7094 37bc b2dd d63d
000001a0: defb cdbd 98b3 bc3d d157 833d 7ed7 c83d
000001b0: 08fe 4fbd 40c4 863d a028 1f3d e0bf e23b
000001c0: c093 e0bd fa35 60bd 9901 a63d 5417 a2bd
000001d0: 1283 bb3d c407 2a3d 0a1d 843d 288a 57bd
000001e0: d741 9cbd 9247 cbbd f8c9 dbbc a822 29bd
000001f0: 74e4 09bd d449 1c3d a41f 7dbd 131a 42bd
00000200: 7895 8ebd c477 82bd 0063 5f3b 56f4 f0bd
00000210: ca24 f13d 88f9 97bd 5868 d63d ce9f e63d
00000220: 8ac1 9e3d a009 393d becc ffbd 68c5 883d
00000230: caaa 893d 38cb 54bd 0a7e d3bd 8a48 d1bd
00000240: 48f2 a8bc c601 b83d 60f2 953c f499 6a3d
00000250: 982e bb3d 4ca9 83bd 1841 9abc b8db 003d
00000260: 82dd 803d c848 9a3d ca8f e9bd d493 3e3d
00000270: 800e 7f3b fcb3 12bd 06b4 a3bd e0b2 d13b
00000280: e813 853d 0000 beb6 d06e b4bd 9891 313d
00000290: 5a95 efbd a03e 0b3c f0d6 123c 7c85 973d
000002a0: 02f6 b23d 806e f93d 7acc c3bd 94a3 3fbd
000002b0: 2c6f 5f3d a8a2 46bd ec6a b4bd 644e d5bd
000002c0: 7418 1b3d 5c19 51bd 62ed b0bd 6cc7 1b3d
000002d0: 4854 c0bd fac1 863d 9a25 a0bd 402b 2d3d
000002e0: a803 b8bc 2a72 fb3d 58ef 8a3c 50d5 8ebd
000002f0: 9409 a0bd 9c21 0fbd 0023 473a 0cc3 63bd
00000300: 8af9 fc3d b036 52bd 8804 61bc 36cb f53d
00000310: 208b a7bd fc04 95bd c874 adbc 40fb 93bc
00000320: dd93 113e b2df a03d 340b c1bc 50c6 2a3c
00000330: 6ad5 8cbd dca4 b9bd 8609 ec3d 7678 cdbb
00000340: 3203 b03d c9e9 a6bd c057 8c3b 5482 95bd
00000350: 68ca 83bc cccf 5e3d 91ef 2c3e 80aa 713c
00000360: 49b5 353e de7c d13d 4c9d 28bd eee8 f63d
00000370: 8086 96bd 2af7 d8bd e3f1 38bd b0ea 823d
00000380: 5022 0cbc dc17 a13d cec0 bcbd 841d 053b
00000390: 89ab 773d 7ce4 273d 913c b63d e2f4 8d3d
000003a0: b2d7 973d c014 3cbb c451 ec3c c0d0 a4bc
000003b0: 12cc 94bd e394 333e 08cb 99bc e0a2 67bd
000003c0: 9209 93bd 9409 b6bd 338c 9a3d c0cf 043d
000003d0: 001b 793c f4ac 333d 8880 11bd 503a ea3c
000003e0: a618 803d e43d 1abd 8b11 173e 8032 7bbd
000003f0: c05c 4c3d b887 eb3d 7063 4f3d 939d 0d3e

bias f4 [64]
-0.066829786 -0.04425562 -0.09696375 -0.039322913 0.15331763 -0.10220811 0.12322625 0.07021852
0.10542466 0.17359404 0.15146859 -0.014627001 -0.10202631 0.04055742 0.07990292 0.18310654
0.019351633 0.1263679 0.17377087 0.07470372 0.077947326 0.019864723 0.14726876 0.05066184
0.09865454 0.107647665 0.124912225 0.13986975 0.07505194 0.14143996 0.030654531 -0.0992193
-0.03146729 0.16212204 -0.0057139182 0.13143419 -0.03815507 0.056789603 0.17542759 -0.097154856
-0.0002960942 -0.01525088 -0.03027086 0.16829342 -0.11394125 0.16169305 0.12808491 -0.03686416
0.11821916 -0.0350807 0.11575698 -0.03544219 -0.07382994 0.056169875 0.01431839 -0.08043631
0.115868784 0.15210538 -0.004148409 0.014260846 0.054299336 0.047027294 -0.040789492 -0.032272756
00000000: 0ede 88bd 6245 35bd ee94 c6bd 1011 21bd
00000010: 4cff 1c3e 7c52 d1bd 0b5e fc3d bace 8f3d
00000020: e2e8 d73d a3c2 313e 951a 1b3e 17a6 6fbc
00000030: 2cf3 d0bd 8a1f 263d 24a4 a33d 4880 3b3e
00000040: 5187 9e3c 9666 013e fef0 313e 44fe 983d
00000050: d9a2 9f3d 58bb a23c 9fcd 163e ca82 4f3d
00000060: 640b ca3d 6176 dc3d fbd1 ff3d 043a 0f3e
00000070: d5b4 993d a3d5 103e 361f fb3c 7d33 cbbd
00000080: d8e3 00bd 5203 263e d23b bbbb af96 063e
00000090: 7e48 1cbd 379c 683d 4aa3 333e 20f9 c6bd
000000a0: 173d 9bb9 d4de 79bc 98fa f7bc 1c55 2c3e
000000b0: 085a e9bd dd92 253e b128 033e e0fe 16bd
000000c0: e31c f23d c8b0 0fbd ff11 ed3d d42b 11bd
000000d0: 2734 97bd 6212 663d ae97 6a3c cbbb a4bd
000000e0: 9d4c ed3d 83c1 1b3e 60ef 87bb 53a6 693c
000000f0: fb68 5e3d b19f 403d e212 27bd 7030 04bd

mask f4 [64, 64]
1.0 0.0 0.0 0.0 0.0 0.0 0.0 1.0
0.0 0.0 0.0 0.0 0.0 0.0 1.0 0.0
0.0 0.0 0.0 0.0 0.0 1.0 0.0 0.0
0.0 0.0 0.0 0.0 1.0 0.0 0.0 0.0
0.0 0.0 0.0 1.0 0.0 0.0 0.0 0.0
0.0 0.0 1.0 0.0 0.0 0.0 0.0 0.0
0.0 1.0 0.0 0.0 0.0 0.0 0.0 0.0
1.0 0.0 0.0 0.0 0.0 0.0 0.0 1.0
1.0 1.0 0.0 0.0 0.0 0.0 0.0 1.0
1.0 0.0 0.0 0.0 0.0 0.0 1.0 1.0
0.0 0.0 0.0 0.0 0.0 1.0 1.0 0.0
0.0 0.0 0.0 0.0 1.0 1.0 0.0 0.0
0.0 0.0 0.0 1.0 1.0 0.0 0.0 0.0
0.0 0.0 1.0 1.0 0.0 0.0 0.0 0.0
0.0 1.0 1.0 0.0 0.0 0.0 0.0 0.0
1.0 1.0 0.0 0.0 0.0 0.0 0.0 1.0
1.0 1.0 1.0 0.0 0.0 0.0 0.0 1.0
1.0 1.0 0.0 0.0 0.0 0.0 1.0 1.0
1.0 0.0 0.0 0.0 0.0 1.0 1.0 1.0
0.0 0.0 0.0 0.0 1.0 1.0 1.0 0.0
0.0 0.0 0.0 1.0 1.0 1.0 0.0 0.0
0.0 0.0 1.0 1.0 1.0 0.0 0.0 0.0
0.0 1.0 1.0 1.0 0.0 0.0 0.0 0.0
1.0 1.0 1.0 0.0 0.0 0.0 0.0 1.0
1.0 1.0 1.0 1.0 0.0 0.0 0.0 1.0
1.0 1.0 1.0 0.0 0.0 0.0 1.0 1.0
1.0 1.0 0.0 0.0 0.0 1.0 1.0 1.0
1.0 0.0 0.0 0.0 1.0 1.0 1.0 1.0
0.0 0.0 0.0 1.0 1.0 1.0 1.0 0.0
0.0 0.0 1.0 1.0 1.0 1.0 0.0 0.0
0.0 1.0 1.0 1.0 1.0 0.0 0.0 0.0
1.0 1.0 1.0 1.0 0.0 0.0 0.0 1.0
00000000: 0000 803f 0000 0000 0000 0000 0000 0000
00000010: 0000 0000 0000 0000 0000 0000 0000 803f
00000020: 0000 0000 0000 0000 0000 0000 0000 0000
00000030: 0000 0000 0000 0000 0000 803f 0000 0000
00000040: 0000 0000 0000 0000 0000 0000 0000 0000
00000050: 0000 0000 0000 803f 0000 0000 0000 0000
00000060: 0000 0000 0000 0000 0000 0000 0000 0000
00000070: 0000 803f 0000 0000 0000 0000 0000 0000
00000080: 0000 0000 0000 0000 0000 0000 0000 803f
00000090: 0000 0000 0000 0000 0000 0000 0000 0000
000000a0: 0000 0000 0000 0000 0000 803f 0000 0000
000000b0: 0000 0000 0000 0000 0000 0000 0000 0000
000000c0: 0000 0000 0000 803f 0000 0000 0000 0000
000000d0: 0000 0000 0000 0000 0000 0000 0000 0000
000000e0: 0000 803f 0000 0000 0000 0000 0000 0000
000000f0: 0000 0000 0000 0000 0000 0000 0000 803f
00000100: 0000 803f 0000 803f 0000 0000 0000 0000
00000110: 0000 0000 0000 0000 0000 0000 0000 803f
00000120: 0000 803f 0000 0000 0000 0000 0000 0000
00000130: 0000 0000 0000 0000 0000 803f 0000 803f
00000140: 0000 0000 0000 0000 0000 0000 0000 0000
00000150: 0000 0000 0000 803f 0000 803f 0000 0000
00000160: 0000 0000 0000 0000 0000 0000 0000 0000
00000170: 0000 803f 0000 803f 0000 0000 0000 0000
00000180: 0000 0000 0000 0000 0000 0000 0000 803f
00000190: 0000 803f 0000 0000 0000 0000 0000 0000
000001a0: 0000 0000 0000 0000 0000 803f 0000 803f
000001b0: 0000 0000 0000 0000 0000 0000 0000 0000
000001c0: 0000 0000 0000 803f 0000 803f 0000 0000
000001d0: 0000 0000 0000 0000 0000 0000 0000 0000
000001e0: 0000 803f 0000 803f 0000 0000 0000 0000
000001f0: 0000 0000 0000 0000 0000 0000 0000 803f
00000200: 0000 803f 0000 803f 0000 803f 0000 0000
00000210: 0000 0000 0000 0000 0000 0000 0000 803f
00000220: 0000 803f 0000 803f 0000 0000 0000 0000
00000230: 0000 0000 0000 0000 0000 803f 0000 803f
00000240: 0000 803f 0000 0000 0000 0000 0000 0000
00000250: 0000 0000 0000 803f 0000 803f 0000 803f
00000260: 0000 0000 0000 0000 0000 0000 0000 0000
00000270: 0000 803f 0000 803f 0000 803f 0000 0000
00000280: 0000 0000 0000 0000 0000 0000 0000 803f
00000290: 0000 803f 0000 803f 0000 0000 0000 0000
000002a0: 0000 0000 0000 0000 0000 803f 0000 803f
000002b0: 0000 803f 0000 0000 0000 0000 0000 0000
000002c0: 0000 0000 0000 803f 0000 803f 0000 803f
000002d0: 0000 0000 0000 0000 0000 0000 0000 0000
000002e0: 0000 803f 0000 803f 0000 803f 0000 0000
000002f0: 0000 0000 0000 0000 0000 0000 0000 803f
00000300: 0000 803f 0000 803f 0000 803f 0000 803f
00000310: 0000 0000 0000 0000 0000 0000 0000 803f
00000320: 0000 803f 0000 803f 0000 803f 0000 0000
00000330: 0000 0000 0000 0000 0000 803f 0000 803f
00000340: 0000 803f 0000 803f 0000 0000 0000 0000
00000350: 0000 0000 0000 803f 0000 803f 0000 803f
00000360: 0000 803f 0000 0000 0000 0000 0000 0000
00000370: 0000 803f 0000 803f 0000 803f 0000 803f
00000380: 0000 0000 0000 0000 0000 0000 0000 803f
00000390: 0000 803f 0000 803f 0000 803f 0000 0000
000003a0: 0000 0000 0000 0000 0000 803f 0000 803f
000003b0: 0000 803f 0000 803f 0000 0000 0000 0000
000003c0: 0000 0000 0000 803f 0000 803f 0000 803f
000003d0: 0000 803f 0000 0000 0000 0000 0000 0000
000003e0: 0000 803f 0000 803f 0000 803f 0000 803f
000003f0: 0000 0000 0000 0000 0000 0000 0000 803f
