gwak/output/S4_SimCLR_multiSignalAndBkg_NF_onlyBkg_HL/model_JIT_cuda1.pt (torch, 747517 bytes, 73 tensors)

weight f4 [64, 8]
00000000: 4774 ebbc 9c36 423e b1fc 94be 1d38 85be
00000010: d670 0bbe ab2a c23d 578a e5bb 4087 8f3e
00000020: 9bc4 103c c54d ea3d 5dd3 dabd 1b54 8ebd
00000030: c2ef acbe 90c5 6fbe 9f3d 15be 4c94 563c
00000040: 7a1d 3c3e 08bc 7d3e 46fb 3dbe 86a7 1dbe
00000050: a77f 033e f750 963e e703 95bd 7a75 873e
00000060: 84d1 40bd 839d 053a 0a77 c63e 4b53 a6be
00000070: c5ea 63be ac4f b7bd 661f 0dbe 9e66 9c3e
00000080: fe14 69be 1638 f4bd 84c6 a2be e958 b7be
00000090: f727 8bbe 979a 9b3e 5e8c 213e 5f78 2f3e
000000a0: 2d48 2e3d 9133 23be bf05 fc3d 7abd a5be
000000b0: 0e0e 64be cff5 58be 876c 643e 5d45 543e
000000c0: efdf 41be 6b3d c3bc 7df1 fe3d 89ca b63e
000000d0: 79bf 713d a179 1e3d 43f9 3f3e 522b 55be
000000e0: 2770 f43d 6558 8cbe 8aec 7abe f205 3bbe
000000f0: 10d0 233e fd98 113e 5b74 56be b8bf da3d
00000100: ccaf 683e 465a c6bc cf2b 5d3c aac5 a73d
00000110: ae99 603e 4ed0 ad3e 6d7f 8bbe 1cad 04be
00000120: 45a9 2b3e 19e0 a83e 4bad b83e 40b9 9f3e
00000130: 171a 903d 4969 9dbe 2838 053d 4b7e 62be
00000140: 125c 9ebe 1626 a13e aeec b63e 9f85 b3be
00000150: ec86 873d c6f4 73bd 5c4f 6ebd c7b9 25be
00000160: f92a 003e 4c34 66be 1df8 0c3e 0584 4b3e
00000170: 3d03 7a3e cb5e 073e 4529 b3be 76da 6abe
00000180: f1b5 423e d697 8b3d 321d 4abe dfcd 49be
00000190: 9e68 d03e dee1 813e a3db 1dbe 3f3d b6bd
000001a0: ea52 b5be 9839 bbbb 467f b6be 3a44 91be
000001b0: 3577 c0bd bac9 7f3d 8eeb 3abe 5dd3 563e
000001c0: add1 78be 6440 a43e e51a 783e 88a6 98be
000001d0: 2536 b4bd 67b0 823c 8f49 533d 86bb ab3d
000001e0: e7ac 483e 3f67 1f3d 2aa6 30be 0e50 2b3e
000001f0: 81a4 adbe 2e95 56be 1842 b5bd 975a 30be
00000200: a016 0abe cce9 abbe beb2 77bd b5c6 9a3d
00000210: 16db 6bbe 02a3 94bc 3595 813e e4de 14bd
00000220: af61 17bd 8490 90bd 48eb 5a3d c504 973e
00000230: 4a78 ab3e 30ea 653e b9dc ab3e 4477 d1bc
00000240: db04 9abe 8547 fbbd 29e1 483e 41f4 b5bc
00000250: 72cf 65be 9db7 8abe 4668 a9be 24c8 98be
00000260: a309 63bd bbc2 3e3e 90d2 8d3e 39b1 adbe
00000270: 0cb9 9a3e 807b 69be d013 99bd f9cb 12be
00000280: bc45 adbd db19 8cbd 5e52 cabe c930 a1be
00000290: 304e ffbd ff98 323c 4e3c 46be 3361 083e
000002a0: 3aa9 b7be c476 c3bc 2231 9f3e 34ac 13be
000002b0: 0576 a33e 191d 033e e55c a3be 970f 653e
000002c0: 990d 91bd 7918 5dbe b1c0 903e e647 92be
000002d0: e664 1b3d 6199 97bd a844 813e 4a1f ca3d
000002e0: 4fac 223e 694e 213e f23b 2fbe 0447 98bd
000002f0: b72c 95be 252b 443e b3b9 8f3e 42b7 773e
00000300: 61f8 6bbe 2106 ed3b 77d9 79be 4d45 81be
00000310: 40f6 52be 2773 f73d 5dbe 57be edc1 fcbb
00000320: 8a8f d5bb 4a67 4e3e 40ca 97be 8d3d 7abe
00000330: e803 54be 2867 7d3e e623 02be 11b0 983e
00000340: 7717 063e 6399 9e3d c556 8abd 605a 97bd
00000350: 1ba4 37bd 0054 34be 4ace 22bb 43c6 383d
00000360: 9b80 86be e215 41be 8446 b83e 9577 8dbe
00000370: b808 293d 133f b03e a5d6 1f3e b401 243c
00000380: 0aa5 afbe 9058 333e c4ef 80be 288a cdbd
00000390: 95f0 f2bd 1474 56bd ff71 7d3b 5d4e 953e
000003a0: df40 923d 84d8 ae3e ac76 5d3e cae2 64be
000003b0: 3660 223e 78ec 7fbe eb70 19be b3f7 d43d
000003c0: 3d7b 123e ae69 7c3e e322 f1bc f25e 143a
000003d0: d362 3a3e f80f afbe 9cdf 823e 5fb0 95be
000003e0: acd5 0cbd acfa 86bd c593 8fbe 53b7 6f3d
000003f0: 33b0 953e 76a9 d3bd b2f0 56be 5de5 05be
-0.028741969 0.18966144 -0.29099038 -0.26019374 -0.13617262 0.094807945 -0.007005017 0.28032875
0.008835937 0.114406146 -0.106848456 -0.069496356 -0.3377667 -0.23415208 -0.14574288 0.01309688
0.1837062 0.2477876 -0.18552884 -0.15395936 0.12841664 0.29358646 -0.07276135 0.26456815
-0.04707481 0.00050970184 0.38762695 -0.32485422 -0.22257526 -0.08950743 -0.13781509 0.3054704
-0.22761914 -0.1192476 -0.3179208 -0.3581002 -0.27178928 0.3039138 0.15776202 0.17135762
0.0425493 -0.1593764 0.123057835 -0.32371122 -0.22270986 -0.21187519 0.22307025 0.20729585
-0.1893308 -0.023832997 0.12448404 0.35701397 0.059020493 0.038690213 0.1874743 -0.20817307
0.11935454 -0.2741119 -0.24504295 -0.18263987 0.15997338 0.14218517 -0.20942824 0.10681099
0.22723311 -0.024212968 0.013499214 0.08191998 0.21933624 0.33947986 -0.27245656 -0.12956661
0.1676379 0.32983473 0.36069712 0.31196022 0.07036226 -0.3074439 0.032524258 -0.2211849
-0.3092962 0.3147437 0.35727447 -0.35062882 0.06617531 -0.059559606 -0.05818115 -0.1618415
0.12516393 -0.22480887 0.13766523 0.1987458 0.24415298 0.13219754 -0.34992424 -0.22934899
0.19014718 0.0681607 -0.197377 -0.1970744 0.40704817 0.25367635 -0.15415816 -0.088984005
-0.3541482 -0.005713653 -0.35643977 -0.28372365 -0.09397737 0.06244824 -0.1825392 0.20979066
-0.24298735 0.32080376 0.2422901 -0.29814553 -0.0879939 0.015953256 0.051583823 0.08385377
0.19597207 0.038916823 -0.17250887 0.16729757 -0.3391457 -0.20955345 -0.08850497 -0.17222057
-0.13485193 -0.3357681 -0.060473196 0.075574316 -0.23032793 -0.018144134 0.25309148 -0.036345378
-0.036958393 -0.07058814 0.053447038 0.29495826 0.3349021 0.22452617 0.33566836 -0.025569566
-0.3008183 -0.12269501 0.19617142 -0.022211196 -0.22442415 -0.2709321 -0.33087367 -0.29840195
-0.055429112 0.18628971 0.2769971 -0.33924273 0.30219305 -0.22801018 -0.07474482 -0.14335622
-0.084605664 -0.06840869 -0.39515966 -0.31482533 -0.12466085 0.010900735 -0.19358942 0.13318329
-0.35871297 -0.023860343 0.31092173 -0.14421159 0.3192598 0.12804069 -0.3190681 0.22369228
-0.07082672 -0.21591367 0.28272012 -0.2857048 0.03793802 -0.074023016 0.25247693 0.09869249
0.15886043 0.15752567 -0.17112711 -0.0743542 -0.29135677 0.19157083 0.28071365 0.24191001
-0.23043968 0.0072333966 -0.24399363 -0.25248185 -0.2060175 0.120825104 -0.21068712 -0.0077135474
-0.0065173553 0.20156589 -0.29646492 -0.24437542 -0.20704615 0.24746382 -0.12709007 0.29821828
0.13094889 0.077441 -0.06754831 -0.073902845 -0.044834238 -0.17610168 -0.0024842196 0.045110952
-0.26269993 -0.18856004 0.359913 -0.27630296 0.04126808 0.34423122 0.15609224 0.010010172
-0.34305602 0.17514253 -0.25182927 -0.10036117 -0.11862294 -0.052356794 0.0038672683 0.2916135
0.071412794 0.34149563 0.21627301 -0.22352138 0.15857014 -0.2499255 -0.14984481 0.103988074
0.14304824 0.24649689 -0.02943558 0.00056599 0.18201761 -0.3419187 0.25561225 -0.29236123
-0.03438346 -0.065907806 -0.28042427 0.05852444 0.29235992 -0.103350565 -0.20990255 -0.13075776

bias f4 [64]
00000000: b305 aebd f5e0 3dbe 9893 283d d30c d93d
00000010: 075b 22be b1b4 c6bb 3b6f 823e 4cfe a8bd
00000020: bffa 5c3d e149 ffbd 981a b73d 3401 81be
00000030: d36a 6fbe 3346 15be 1192 be3e 7fbc 29be
00000040: 565b 3d3c d7b1 08be 71bc af3e bb36 a23e
00000050: e8a2 71be 5d33 6cbe bbbc 71be c954 933c
00000060: e82c c6bd dfd5 50be 3095 ffbd 1fe2 223d
00000070: 9c1c 07be 2a3c 1a3d 66ba f1bd 27dd f0bd
00000080: 6bd8 393d c4f7 8a3e 549b 65be db6c 23bd
00000090: 2aa1 a8bd 067f 9c3e 7590 c4be 469f b6be
000000a0: 3dc6 bf3e 3940 43be 6eb1 0e3c e209 e73b
000000b0: 0f65 f8bd c0b6 6ebd c621 8e3e 6c27 67bc
000000c0: 9bcd a0be 984f 1dbe 5df0 2fbe ed41 513e
000000d0: 5f21 43be 8f9a c23e 17aa c3bd 0c14 12bd
000000e0: 4a73 843e bfee 703e 725f 823e b5af 703e
000000f0: a0eb 92bd c26e 8cbe a712 043c 6219 6b3e
-0.08497181 -0.18542846 0.04115638 0.10598149 -0.15855037 -0.0060640206 0.25475487 -0.08251628
0.053950068 -0.12465263 0.08940619 -0.2519623 -0.23380594 -0.1457756 0.37220815 -0.16575812
0.011557421 -0.1334909 0.34323457 0.3168238 -0.235973 -0.23066469 -0.23607151 0.017984765
-0.09676534 -0.20394085 -0.12479627 0.039766427 -0.13194507 0.037655033 -0.11803131 -0.117609315
0.045372408 0.27142155 -0.22422534 -0.039898735 -0.082338646 0.3056566 -0.38391462 -0.3566839
0.3745593 -0.19067468 0.008709295 0.0070507387 -0.121286504 -0.058279753 0.27760142 -0.01410852
-0.31406865 -0.15362394 -0.17181535 0.20435305 -0.19055699 0.38008544 -0.095539264 -0.03566365
0.2586921 0.23528574 0.25463444 0.23504527 -0.07173848 -0.27428252 0.008061088 0.22958902

mask f4 [64, 8]
00000000: 0000 803f 0000 0000 0000 0000 0000 0000
00000010: 0000 0000 0000 0000 0000 0000 0000 0000
00000020: 0000 803f 0000 803f 0000 0000 0000 0000
00000030: 0000 0000 0000 0000 0000 0000 0000 0000
00000040: 0000 803f 0000 803f 0000 803f 0000 0000
00000050: 0000 0000 0000 0000 0000 0000 0000 0000
00000060: 0000 803f 0000 803f 0000 803f 0000 803f
00000070: 0000 0000 0000 0000 0000 0000 0000 0000
00000080: 0000 803f 0000 803f 0000 803f 0000 803f
00000090: 0000 803f 0000 0000 0000 0000 0000 0000
000000a0: 0000 803f 0000 803f 0000 803f 0000 803f
000000b0: 0000 803f 0000 803f 0000 0000 0000 0000
000000c0: 0000 803f 0000 803f 0000 803f 0000 803f
000000d0: 0000 803f 0000 803f 0000 803f 0000 0000
000000e0: 0000 803f 0000 0000 0000 0000 0000 0000
000000f0: 0000 0000 0000 0000 0000 0000 0000 0000
00000100: 0000 803f 0000 803f 0000 0000 0000 0000
00000110: 0000 0000 0000 0000 0000 0000 0000 0000
00000120: 0000 803f 0000 803f 0000 803f 0000 0000
00000130: 0000 0000 0000 0000 0000 0000 0000 0000
00000140: 0000 803f 0000 803f 0000 803f 0000 803f
00000150: 0000 0000 0000 0000 0000 0000 0000 0000
00000160: 0000 803f 0000 803f 0000 803f 0000 803f
00000170: 0000 803f 0000 0000 0000 0000 0000 0000
00000180: 0000 803f 0000 803f 0000 803f 0000 803f
00000190: 0000 803f 0000 803f 0000 0000 0000 0000
000001a0: 0000 803f 0000 803f 0000 803f 0000 803f
000001b0: 0000 803f 0000 803f 0000 803f 0000 0000
000001c0: 0000 803f 0000 0000 0000 0000 0000 0000
000001d0: 0000 0000 0000 0000 0000 0000 0000 0000
000001e0: 0000 803f 0000 803f 0000 0000 0000 0000
000001f0: 0000 0000 0000 0000 0000 0000 0000 0000
00000200: 0000 803f 0000 803f 0000 803f 0000 0000
00000210: 0000 0000 0000 0000 0000 0000 0000 0000
00000220: 0000 803f 0000 803f 0000 803f 0000 803f
00000230: 0000 0000 0000 0000 0000 0000 0000 0000
00000240: 0000 803f 0000 803f 0000 803f 0000 803f
00000250: 0000 803f 0000 0000 0000 0000 0000 0000
00000260: 0000 803f 0000 803f 0000 803f 0000 803f
00000270: 0000 803f 0000 803f 0000 0000 0000 0000
00000280: 0000 803f 0000 803f 0000 803f 0000 803f
00000290: 0000 803f 0000 803f 0000 803f 0000 0000
000002a0: 0000 803f 0000 0000 0000 0000 0000 0000
000002b0: 0000 0000 0000 0000 0000 0000 0000 0000
000002c0: 0000 803f 0000 803f 0000 0000 0000 0000
000002d0: 0000 0000 0000 0000 0000 0000 0000 0000
000002e0: 0000 803f 0000 803f 0000 803f 0000 0000
000002f0: 0000 0000 0000 0000 0000 0000 0000 0000
00000300: 0000 803f 0000 803f 0000 803f 0000 803f
00000310: 0000 0000 0000 0000 0000 0000 0000 0000
00000320: 0000 803f 0000 803f 0000 803f 0000 803f
00000330: 0000 803f 0000 0000 0000 0000 0000 0000
00000340: 0000 803f 0000 803f 0000 803f 0000 803f
00000350: 0000 803f 0000 803f 0000 0000 0000 0000
00000360: 0000 803f 0000 803f 0000 803f 0000 803f
00000370: 0000 803f 0000 803f 0000 803f 0000 0000
00000380: 0000 803f 0000 0000 0000 0000 0000 0000
00000390: 0000 0000 0000 0000 0000 0000 0000 0000
000003a0: 0000 803f 0000 803f 0000 0000 0000 0000
000003b0: 0000 0000 0000 0000 0000 0000 0000 0000
000003c0: 0000 803f 0000 803f 0000 803f 0000 0000
000003d0: 0000 0000 0000 0000 0000 0000 0000 0000
000003e0: 0000 803f 0000 803f 0000 803f 0000 803f
000003f0: 0000 0000 0000 0000 0000 0000 0000 0000
1.0 0.0 0.0 0.0 0.0 0.0 0.0 0.0
1.0 1.0 0.0 0.0 0.0 0.0 0.0 0.0
1.0 1.0 1.0 0.0 0.0 0.0 0.0 0.0
1.0 1.0 1.0 1.0 0.0 0.0 0.0 0.0
1.0 1.0 1.0 1.0 1.0 0.0 0.0 0.0
1.0 1.0 1.0 1.0 1.0 1.0 0.0 0.0
1.0 1.0 1.0 1.0 1.0 1.0 1.0 0.0
1.0 0.0 0.0 0.0 0.0 0.0 0.0 0.0
1.0 1.0 0.0 0.0 0.0 0.0 0.0 0.0
1.0 1.0 1.0 0.0 0.0 0.0 0.0 0.0
1.0 1.0 1.0 1.0 0.0 0.0 0.0 0.0
1.0 1.0 1.0 1.0 1.0 0.0 0.0 0.0
1.0 1.0 1.0 1.0 1.0 1.0 0.0 0.0
1.0 1.0 1.0 1.0 1.0 1.0 1.0 0.0
1.0 0.0 0.0 0.0 0.0 0.0 0.0 0.0
1.0 1.0 0.0 0.0 0.0 0.0 0.0 0.0
1.0 1.0 1.0 0.0 0.0 0.0 0.0 0.0
1.0 1.0 1.0 1.0 0.0 0.0 0.0 0.0
1.0 1.0 1.0 1.0 1.0 0.0 0.0 0.0
1.0 1.0 1.0 1.0 1.0 1.0 0.0 0.0
1.0 1.0 1.0 1.0 1.0 1.0 1.0 0.0
1.0 0.0 0.0 0.0 0.0 0.0 0.0 0.0
1.0 1.0 0.0 0.0 0.0 0.0 0.0 0.0
1.0 1.0 1.0 0.0 0.0 0.0 0.0 0.0
1.0 1.0 1.0 1.0 0.0 0.0 0.0 0.0
1.0 1.0 1.0 1.0 1.0 0.0 0.0 0.0
1.0 1.0 1.0 1.0 1.0 1.0 0.0 0.0
1.0 1.0 1.0 1.0 1.0 1.0 1.0 0.0
1.0 0.0 0.0 0.0 0.0 0.0 0.0 0.0
1.0 1.0 0.0 0.0 0.0 0.0 0.0 0.0
1.0 1.0 1.0 0.0 0.0 0.0 0.0 0.0
1.0 1.0 1.0 1.0 0.0 0.0 0.0 0.0

weight f4 [64, 64]
00000000: 5cd6 2bbd 1e68 edbd 24e2 513d 6c35 f93d
00000010: 00c2 11bd 5af9 d3bd 1035 e8bd 904e 003d
00000020: f012 1bbc d846 81bd a8fb ce3c c06f 423d
00000030: 069a cb3d fcc0 c63d 0d40 b73c 7ebb e1bd
00000040: d853 e7bd 4806 ef3d 1055 623d 402f 5f3d
00000050: 207f ddbd 8e0d 0f3e 1485 f23d da21 e73d
00000060: 30f5 d7bd 8830 41bd 4a11 b0bd 566c f23d
00000070: 4449 cfbc 84c1 69bd 281f 863d e8d8 6cbd
00000080: dc2b 7cbd 4024 33bc 50da 44bc 226b c7bd
00000090: 466b d53d b4da 61bd 309d 353d 24aa de3d
000000a0: e21a 813d 50fa 903c c4d1 d93d 08a7 893c
000000b0: 54e1 6cbd 062d f23d 605c f23c 38c6 f9bd
000000c0: 18c3 11bd 8675 7cbd e272 e03d 001c a9bc
000000d0: b259 e9bd 80be 00bc 74c5 a03d 9004 053d
000000e0: d6b9 d53d 5034 3e3c 18e2 3e3d e87f f9bc
000000f0: 78ac 4bbd 0e49 efbd b0da c0bd f0e6 5d3d
00000100: be94 97bd e0e8 923c 106d 233d a001 113c
00000110: 40fa a5bd f0d1 f43d 26dd 94bd 668f d23d
00000120: 6ea6 cbbd 5852 f6bc 8a41 8b3d 7c31 51bd
00000130: 0e0d d73d 062b b0bd 44fb d6bd e0de 66bd
00000140: b087 a53c a8b6 eb3d e46d 74bd 0c1b 373d
00000150: ac5c 00bd 2811 debc d83c bc3d 7a65 c6bd
00000160: 6086 593c a8be f03d c8b5 8cbc a6c4 c63d
00000170: 84ac 1dbd 0012 ce3d f6a2 f7bd 2895 93bc
00000180: a8dc b3bc 78ee 253d 24df 483d a68f c43d
00000190: c88f 98bc 606d a2bb ca4f af3d 9088 0abd
000001a0: 106b e03d aa72 aabd 209d 5dbc 0000 dcbb
000001b0: a075 643d 6605 af3d d04e a2bc 4e17 d4bd
000001c0: 28b1 7d3d cc27 193d 88ab 4d3d 0aeb 9dbd
000001d0: aec2 a43d c078 f23d 30b5 313c cc1d efbd
000001e0: 9cb5 b33d c0cf bdbd 9863 eb3c 30ce 943c
000001f0: 7ca2 6fbd b046 323d 8af9 e4bd c839 e93c
00000200: 9c4a a2bd 3075 5dbc 0d15 403d 0819 da3d
00000210: 1c49 74bd ba00 a43d 2815 82bc bc29 73bd
00000220: baec debd 7ce2 eabd 2803 fa3d 9862 ffbc
00000230: 2097 cc3b 3ccf 0a3d d67b e33d 487d da3d
00000240: 7af6 f63d 84aa bdbd e00f a4bc 1e7c 97bd
00000250: 1c44 92bd 4d6c 283d bb51 a53d 2615 cdbd
00000260: aeee 9a3d 3cba 84bd e872 c7bc 9234 cb3d
00000270: 32ab 56bc 707b 3a3c ccf3 b2bd ecea d93d
00000280: 505f 84bc 683c bbbd 3ceb 153d 3c05 b6bd
00000290: f0df bdbd 812f 9cbc ccf7 ca3d 48e3 10bd
000002a0: 40fb 703d 7afc db3d 78cb a93d 88c5 91bc
000002b0: 6080 60bc 601e 21bd 00db cdbd 00a0 5838
000002c0: 969f c03d b1ea ed3d 7014 3f3c 1b07 d93d
000002d0: e8a7 5dbd 5a3d c13d 2c0c 55bd c4d4 b1bd
000002e0: cbbd 893d 8427 193e b4ce e6bd 6a6a e73d
000002f0: ac2e 383d 5c5b b3bd c893 dcbc b819 de3d
00000300: 7e69 c4bd 5ca5 15bd 36e3 923d 1c47 e0bd
00000310: b856 8c3d 9c42 853d cac5 9e3d 4a36 a3bd
00000320: ecf9 fe3d 38bf 97bd 3e93 ff3d 46ae f5bd
00000330: 9c16 e4bd f83b 9d3d d01c 1c3d a04b ec3b
00000340: ec2e 59bd 7fb8 c0bd d0b3 15bd 4062 f9bd
00000350: 20dd d43b 065b 053d 47b4 71bd 2057 253d
00000360: b6c9 623e f421 083d d86d 3bbd 40b6 52bd
00000370: 09b7 86bd ca76 b1bd 40ea a4bc 20fb 183d
00000380: 04c5 633d 00d9 5abd 8a15 cc3d 50a1 b3bd
00000390: 81fe ad3b cb27 b03d 6c9a c33d 884a 94bd
000003a0: 7067 b63c 50ea 713c 540d 70bd 7e40 f13b
000003b0: 60ad 0a3d 70ff 84bd a0f4 a83c 188e 5d3d
000003c0: 90c3 49bd 1ab9 e83d a0c7 06bc f789 073e
000003d0: 1202 ee3d 9080 1cbd cc1c 8b3d 6c72 12bd
000003e0: 0732 e23c 706b 5b3d 0093 4bba dc6a 41bd
000003f0: 2003 f03c c056 9a3b 9a46 a23d 5843 cfbc
-0.041952476 -0.115921244 0.051241055 0.121683925 -0.035585403 -0.103502944 -0.11338246 0.031324923
-0.009464964 -0.063123405 0.025266483 0.047469854 0.09941487 0.097047776 0.022369409 -0.110220894
-0.11295289 0.1167112 0.055256903 0.05448842 -0.10815263 0.13970014 0.11841789 0.112857535
-0.10544813 -0.047165424 -0.085970476 0.1183707 -0.02530349 -0.057069317 0.06548911 -0.057824045
-0.061565265 -0.010933936 -0.01201494 -0.09737231 0.104208514 -0.055140212 0.04433936 0.108722955
0.063039556 0.017697483 0.10635713 0.01680328 -0.057832077 0.11824994 0.029585063 -0.1219601
-0.035586447 -0.061635517 0.10959412 -0.020643234 -0.11394061 -0.007857919 0.07850161 0.032475054
0.10435836 0.011609152 0.04660234 -0.030456498 -0.049725026 -0.11683856 -0.09416711 0.054175317
-0.07401417 0.01793331 0.039898932 0.008850485 -0.08104372 0.11954105 -0.07268743 0.10281257
-0.09943853 -0.030068561 0.0679961 -0.051072583 0.10500537 -0.08601956 -0.10497144 -0.056364894
0.020206302 0.11509448 -0.059675112 0.04470353 -0.03133838 -0.02710779 0.091912925 -0.09687324
0.013276666 0.11755115 -0.017176524 0.097054765 -0.0384946 0.10062027 -0.12091629 -0.01801546
-0.021955803 0.040510625 0.04904093 0.09597711 -0.018623248 -0.004956886 0.085601404 -0.033821642
0.109579206 -0.08322652 -0.013526231 -0.006713867 0.05577624 0.085459515 -0.019812971 -0.103560075
0.061936527 0.03739147 0.050212413 -0.07710846 0.08044945 0.118394375 0.010846421 -0.11675605
0.087748736 -0.09268141 0.028734013 0.018164724 -0.058504567 0.043524444 -0.11180408 0.028469935
-0.07924387 -0.013516709 0.046895076 0.106493056 -0.059640035 0.08007951 -0.015879229 -0.059365973
-0.10884996 -0.1146898 0.12207633 -0.031174943 0.0062436014 0.03388904 0.11107604 0.10668427
0.120587304 -0.09261039 -0.020027101 -0.0739672 -0.07141897 0.04111891 0.080722295 -0.10013799
0.07565056 -0.06480834 -0.024346784 0.09922136 -0.01310234 0.011381969 -0.08737907 0.10640511
-0.01615873 -0.09142381 0.03660129 -0.08887717 -0.09271228 -0.01906562 0.09910545 -0.035373002
0.05883336 0.107415155 0.08290762 -0.017794386 -0.013702482 -0.03933561 -0.100515366 5.1647425e-05
0.094054386 0.116170295 0.0116625875 0.105970584 -0.054115206 0.0943553 -0.05201356 -0.0868316
0.06725653 0.1495648 -0.11269894 0.11299594 0.044966385 -0.0875766 -0.026925936 0.10844749
-0.095904335 -0.036534652 0.07172243 -0.10951063 0.06852478 0.06506845 0.07752569 -0.07969339
0.124500126 -0.07409519 0.12479256 -0.11996131 -0.11137125 0.07677454 0.038113415 0.0072111636
-0.053023264 -0.0941019 -0.036548436 -0.12176943 0.0064960867 0.03255751 -0.059009816 0.040366292
0.22147259 0.033235505 -0.045759052 -0.05144334 -0.0657788 -0.08665235 -0.02013123 0.037348866
0.05560781 -0.053429604 0.09965046 -0.08771002 0.0053098802 0.0860134 0.09550938 -0.07240778
0.02226612 0.014765337 -0.05860646 0.0073624244 0.03385675 -0.06494033 0.020624459 0.05409059
-0.04925877 0.1136343 -0.008226305 0.13236223 0.11621489 -0.038208544 0.06792602 -0.035753652
0.027611746 0.053569257 -0.000776574 -0.04722105 0.029298365 0.0047100484 0.079236224 -0.025300667

bias f4 [64]
00000000: a61e a03d 76aa f8bd cbb1 4dbd 141a 083e
00000010: b9f6 aa3d d81f b43c 8835 f93c 1059 8d3c
00000020: c2b5 983d f0c7 aebd 612d 3f3a 4daf b0bd
00000030: 7c8e 92bd cea7 913b a715 0b3d a8ee 103e
00000040: 1861 b03c 33ca aa3b 6b86 3cbc ab3b c73d
00000050: f418 1bbd 4cde da3c e86b cdbc 746e cebd
00000060: f01d 8fbc 36a8 ecbd d09a 89bd 92f2 a2bd
00000070: 4d2f 133e bad2 ebbd d2a4 1f3e 1cf9 3f3d
00000080: 5041 67bd 1f21 043e c8c2 08bd 04d4 d8bd
00000090: 154d e73c 234b c63d e8dc b5bd 2b4b 903c
000000a0: 9ca0 3b3d f1cf 55bd 0087 3a3c 1caa 48bd
000000b0: f6bf abbd 0cd8 063e b0c5 b5bd 0015 c0ba
000000c0: d086 2a3d aa10 8fbd a94b d43d 6941 8ebd
000000d0: 387e f43d 1406 643d a557 e33b 855d a5bd
000000e0: 8b63 643d 749c 353d 3809 8bbd 70f5 80bc
000000f0: 0e42 c5bd 88ec ffbd ee49 7c3c 8a75 213e
0.07818346 -0.12141888 -0.050218385 0.13291198 0.0834784 0.02198784 0.030421034 0.017254382
0.074565426 -0.08534229 0.0007292834 -0.08627186 -0.07156083 0.0044450527 0.033956196 0.1415354
0.021530673 0.0052120923 -0.011506657 0.09728178 -0.037865594 0.026717328 -0.025075868 -0.10079661
-0.01747033 -0.11555521 -0.06718981 -0.07956423 0.14373513 -0.11514802 0.15590218 0.04686843
-0.05645877 0.1290326 -0.033388883 -0.10587314 0.028234998 0.096823 -0.08880025 0.017613968
0.045807466 -0.05220026 0.011384726 -0.048990354 -0.08386223 0.13168353 -0.088755965 -0.0014654696
0.041632473 -0.069856 0.103659935 -0.0694607 0.11938137 0.05566986 0.0069379383 -0.08074478
0.055758994 0.04433866 -0.06788868 -0.015742034 -0.096317396 -0.12496287 0.015398486 0.15767494

mask f4 [64, 64]
00000000: 0000 803f 0000 0000 0000 0000 0000 0000
00000010: 0000 0000 0000 0000 0000 0000 0000 803f
00000020: 0000 0000 0000 0000 0000 0000 0000 0000
00000030: 0000 0000 0000 0000 0000 803f 0000 0000
00000040: 0000 0000 0000 0000 0000 0000 0000 0000
00000050: 0000 0000 0000 803f 0000 0000 0000 0000
00000060: 0000 0000 0000 0000 0000 0000 0000 0000
00000070: 0000 803f 0000 0000 0000 0000 0000 0000
00000080: 0000 0000 0000 0000 0000 0000 0000 803f
00000090: 0000 0000 0000 0000 0000 0000 0000 0000
000000a0: 0000 0000 0000 0000 0000 803f 0000 0000
000000b0: 0000 0000 0000 0000 0000 0000 0000 0000
000000c0: 0000 0000 0000 803f 0000 0000 0000 0000
000000d0: 0000 0000 0000 0000 0000 0000 0000 0000
000000e0: 0000 803f 0000 0000 0000 0000 0000 0000
000000f0: 0000 0000 0000 0000 0000 0000 0000 803f
00000100: 0000 803f 0000 803f 0000 0000 0000 0000
00000110: 0000 0000 0000 0000 0000 0000 0000 803f
00000120: 0000 803f 0000 0000 0000 0000 0000 0000
00000130: 0000 0000 0000 0000 0000 803f 0000 803f
00000140: 0000 0000 0000 0000 0000 0000 0000 0000
00000150: 0000 0000 0000 803f 0000 803f 0000 0000
00000160: 0000 0000 0000 0000 0000 0000 0000 0000
00000170: 0000 803f 0000 803f 0000 0000 0000 0000
00000180: 0000 0000 0000 0000 0000 0000 0000 803f
00000190: 0000 803f 0000 0000 0000 0000 0000 0000
000001a0: 0000 0000 0000 0000 0000 803f 0000 803f
000001b0: 0000 0000 0000 0000 0000 0000 0000 0000
000001c0: 0000 0000 0000 803f 0000 803f 0000 0000
000001d0: 0000 0000 0000 0000 0000 0000 0000 0000
000001e0: 0000 803f 0000 803f 0000 0000 0000 0000
000001f0: 0000 0000 0000 0000 0000 0000 0000 803f
00000200: 0000 803f 0000 803f 0000 803f 0000 0000
00000210: 0000 0000 0000 0000 0000 0000 0000 803f
00000220: 0000 803f 0000 803f 0000 0000 0000 0000
00000230: 0000 0000 0000 0000 0000 803f 0000 803f
00000240: 0000 803f 0000 0000 0000 0000 0000 0000
00000250: 0000 0000 0000 803f 0000 803f 0000 803f
00000260: 0000 0000 0000 0000 0000 0000 0000 0000
00000270: 0000 803f 0000 803f 0000 803f 0000 0000
00000280: 0000 0000 0000 0000 0000 0000 0000 803f
00000290: 0000 803f 0000 803f 0000 0000 0000 0000
000002a0: 0000 0000 0000 0000 0000 803f 0000 803f
000002b0: 0000 803f 0000 0000 0000 0000 0000 0000
000002c0: 0000 0000 0000 803f 0000 803f 0000 803f
000002d0: 0000 0000 0000 0000 0000 0000 0000 0000
000002e0: 0000 803f 0000 803f 0000 803f 0000 0000
000002f0: 0000 0000 0000 0000 0000 0000 0000 803f
00000300: 0000 803f 0000 803f 0000 803f 0000 803f
00000310: 0000 0000 0000 0000 0000 0000 0000 803f
00000320: 0000 803f 0000 803f 0000 803f 0000 0000
00000330: 0000 0000 0000 0000 0000 803f 0000 803f
00000340: 0000 803f 0000 803f 0000 0000 0000 0000
00000350: 0000 0000 0000 803f 0000 803f 0000 803f
00000360: 0000 803f 0000 0000 0000 0000 0000 0000
00000370: 0000 803f 0000 803f 0000 803f 0000 803f
00000380: 0000 0000 0000 0000 0000 0000 0000 803f
00000390: 0000 803f 0000 803f 0000 803f 0000 0000
000003a0: 0000 0000 0000 0000 0000 803f 0000 803f
000003b0: 0000 803f 0000 803f 0000 0000 0000 0000
000003c0: 0000 0000 0000 803f 0000 803f 0000 803f
000003d0: 0000 803f 0000 0000 0000 0000 0000 0000
000003e0: 0000 803f 0000 803f 0000 803f 0000 803f
000003f0: 0000 0000 0000 0000 0000 0000 0000 803f
1.0 0.0 0.0 0.0 0.0 0.0 0.0 1.0
0.0 0.0 0.0 0.0 0.0 0.0 1.0 0.0
0.0 0.0 0.0 0.0 0.0 1.0 0.0 0.0
0.0 0.0 0.0 0.0 1.0 0.0 0.0 0.0
0.0 0.0 0.0 1.0 0.0 0.0 0.0 0.0
0.0 0.0 1.0 0.0 0.0 0.0 0.0 0.0
0.0 1.0 0.0 0.0 0.0 0.0 0.0 0.0
1.0 0.0 0.0 0.0 0.0 0.0 0.0 1.0
1.0 1.0 0.0 0.0 0.0 0.0 0.0 1.0
1.0 0.0 0.0 0.0 0.0 0.0 1.0 1.0
0.0 0.0 0.0 0.0 0.0 1.0 1.0 0.0
0.0 0.0 0.0 0.0 1.0 1.0 0.0 0.0
0.0 0.0 0.0 1.0 1.0 0.0 0.0 0.0
0.0 0.0 1.0 1.0 0.0 0.0 0.0 0.0
0.0 1.0 1.0 0.0 0.0 0.0 0.0 0.0
1.0 1.0 0.0 0.0 0.0 0.0 0.0 1.0
1.0 1.0 1.0 0.0 0.0 0.0 0.0 1.0
1.0 1.0 0.0 0.0 0.0 0.0 1.0 1.0
1.0 0.0 0.0 0.0 0.0 1.0 1.0 1.0
0.0 0.0 0.0 0.0 1.0 1.0 1.0 0.0
0.0 0.0 0.0 1.0 1.0 1.0 0.0 0.0
0.0 0.0 1.0 1.0 1.0 0.0 0.0 0.0
0.0 1.0 1.0 1.0 0.0 0.0 0.0 0.0
1.0 1.0 1.0 0.0 0.0 0.0 0.0 1.0
1.0 1.0 1.0 1.0 0.0 0.0 0.0 1.0
1.0 1.0 1.0 0.0 0.0 0.0 1.0 1.0
1.0 1.0 0.0 0.0 0.0 1.0 1.0 1.0
1.0 0.0 0.0 0.0 1.0 1.0 1.0 1.0
0.0 0.0 0.0 1.0 1.0 1.0 1.0 0.0
0.0 0.0 1.0 1.0 1.0 1.0 0.0 0.0
0.0 1.0 1.0 1.0 1.0 0.0 0.0 0.0
1.0 1.0 1.0 1.0 0.0 0.0 0.0 1.0

weight f4 [64, 64]
00000000: a53e 9e3c 656d a639 0916 55ba b317 1bba
00000010: cd64 19b9 21c6 a4b9 d15a 043a 8cfc 77b9
00000020: 9862 5fba bd3b 64ba bf20 7d3a 406d ec39
00000030: 4478 82ba 8010 57ba dbc7 b63c ec65 6d3a
00000040: a2a2 0e3a 1d24 ab39 0f68 143a 809e 3139
00000050: f4e8 3a3a 6f51 af3c 13ff 4d3a 80a6 ef39
00000060: 1707 ae39 84a1 273a 3adc 4cb9 de10 f9b9
00000070: ea3f ac3c 05a4 44ba 1baf e436 3ed5 063a
00000080: 7732 4339 59f9 10b8 bf59 c639 b10b 6fba
00000090: 0f5a 2cba 71d4 64ba 284f 823a 2a46 6eba
000000a0: dc0d f939 f06d 3c3a 54a3 94b9 773e 25b9
000000b0: 4a58 573a 8a45 56ba 0cbc 82ba c9ba 19b9
000000c0: 4443 06b9 e897 d6b9 0799 a338 777b 0b3a
000000d0: 6f41 0c3a 1bb9 9839 c722 393a 326a f4b9
000000e0: 8c86 d93c fac4 af39 219c a839 ab19 bcb9
000000f0: ade0 543a de53 48ba a5bc f8b9 0b1e 9d3c
00000100: 5809 41bd 11ac 4bba 6b8c 3a3a 0787 2fba
00000110: 693b 8a39 bbc4 683a 5b84 6e3a bb15 ae39
00000120: 3f2f 4dbd fa76 3a39 1708 173a 44b3 91b8
00000130: b589 44ba af85 673a 0c02 35bd ab33 6bbd
00000140: 4c47 6738 5780 f039 84a0 e837 7c38 df39
00000150: 3ca1 323a 0752 37bd 9825 153a ee38 b1b9
00000160: b3fb 6bba 4a2f 52ba 8c0c bc38 9e06 4c3a
00000170: 0885 3bbd 030b 9839 139b d339 e08e 71ba
00000180: 40e5 6739 bfa4 00ba 5fd2 2339 7764 c7b9
00000190: 88b1 37bd a5a8 70ba 6d07 093a 8834 c5b9
000001a0: 8c76 9339 ff04 d238 4622 74ba c731 f9b9
000001b0: 48e1 3038 61a5 0038 5f9e 04ba 1fe2 153a
000001c0: ee4e fbb9 3817 0bba 0c10 61bd 3413 e1b8
000001d0: 03cd a339 01c4 223a c942 ceb9 e0ff 9439
000001e0: 75c6 1dbd 5da3 2639 0995 633a d0bd e339
000001f0: 9e78 403a cb25 4c3a b7a9 1d3a da7a 3cbd
00000200: 047b 3cbd 8a7a 203a 357f 2bbd fc89 3239
00000210: 8010 c9b9 2781 0eb8 6d4a 063a e41d a4b8
00000220: 5da8 44bd 3eae 8139 96e3 07b8 986e b138
00000230: 8607 61b9 2731 26b7 fa15 3abd 7a29 4bbd
00000240: 65bd 31ba 0fe0 47ba a7f7 4bb9 5fd2 9b38
00000250: 3068 2c3a 6762 38bd fabe 89b7 190d 78ba
00000260: 2e98 f7b9 219a 8839 ece3 a7b9 f883 20ba
00000270: 06f9 39bd 1d15 3b3a b8a5 40bd 4455 443a
00000280: 3820 623a e6f0 cf37 a00e 833a 3829 ad39
00000290: 7b2f 33bd fff3 12bd 6db4 72ba 139b d539
000002a0: ee25 5c3a 8295 4339 f943 7c38 1522 33b9
000002b0: 75e7 4dba 0203 0539 4c3f d339 92f9 c739
000002c0: ee1a 6e3a bfd7 1cba c81f 44bd 9a3d 33bd
000002d0: 8aeb 98b9 5d94 04ba 304b 2fba af2f 6139
000002e0: e154 34bd e6ac 4039 8e28 7fba a2ed a9b9
000002f0: 58ab 063a b3e1 feb9 ce32 723a 3011 40bd
00000300: d20d 83bc 0958 2e3a c3ab 6dbc 05bc 08bd
00000310: 3e66 0b3a f2d3 39ba f813 4639 8ecf c3b8
00000320: d7d9 aebc 3cbf 5e39 beb8 a9bc 5558 35ba
00000330: f69c 00b9 0558 8939 65ab 3dbc ff94 f3bc
00000340: d664 673a 83bb acbb 6348 6939 de2c 62ba
00000350: 0597 66ba 912f 56bc 8c7c 9ab8 6766 4739
00000360: 4671 6a3a ab81 2db9 0bb4 343a 4ae6 5bba
00000370: e805 4fbc e896 62ba 3d5e d3bc c352 1d3a
00000380: 301e 2bba 75e3 10ba 36cf 1aba 4cc3 90b9
00000390: 4f4a 93bc a156 3bba 3b2f debc 670e a938
000003a0: a0c7 58ba 6593 5eba 07eb 85b9 a410 b4b8
000003b0: deca 023a 4194 3dbd fac6 8239 2c01 483a
000003c0: 3e32 f0b8 3e12 bab8 5be0 b2bc 46bb 97bc
000003d0: da81 323a 92a2 02ba 822a 283a 7da1 1c3a
000003e0: db58 0ebc 7971 1bba 2212 7aba 73dc 3939
000003f0: bd48 05b9 0d1a 783a 0132 afb9 60bd 71bc
0.01931698 0.00031743493 -0.00081285887 -0.0005916312 -0.00014628768 -0.00031428135 0.0005048933 -0.00023649837
-0.00085214665 -0.00087064115 0.00096560636 0.00045094825 -0.0009954055 -0.0008204058 0.022312095 0.000905602
0.00054411043 0.00032642568 0.0005661258 0.00016939081 0.00071300496 0.021401135 0.00078581384 0.00045709684
0.0003319315 0.0006394612 -0.00019536997 -0.00047505548 0.02102657 -0.00075012475 6.8153145e-06 0.000514347
0.00018615449 -3.45645e-05 0.0003783237 -0.00091188686 -0.0006574699 -0.0008729166 0.0009941803 -0.0009089435
0.00047503307 0.0007188013 -0.0002835045 -0.00015758896 0.0008214755 -0.0008173814 -0.0009974255 -0.000146608
-0.00012804294 -0.0004093044 7.800949e-05 0.0005320827 0.00053503265 0.00029129614 0.0007062372 -0.00046618428
0.026553415 0.0003352536 0.00032159782 -0.00035877278 0.00081206375 -0.0007641892 -0.00047442797 0.019179365
-0.04712805 -0.00077694753 0.0007116261 -0.0006695841 0.00026365675 0.0008879413 0.0009098702 0.00033204057
-0.050093886 0.00017782665 0.00057613984 -6.9475296e-05 -0.00074973266 0.0008831871 -0.044191405 -0.05742232
5.5141092e-05 0.00045871988 2.7731301e-05 0.0004257596 0.0006814187 -0.04475596 0.0005689501 -0.00033802487
-0.00090020447 -0.0008017911 8.9668756e-05 0.00077829685 -0.045781165 0.00028999904 0.00040360595 -0.00092147104
0.00022115279 -0.00049073616 0.0001562326 -0.0003803109 -0.04484704 -0.00091804034 0.0005227242 -0.00037613907
0.0002812635 0.00010014511 -0.00093129685 -0.00047530068 4.217148e-05 3.06716e-05 -0.00050589995 0.00057175936
-0.00047933258 -0.0005305889 -0.054946944 -0.00010732413 0.00031242528 0.00062090164 -0.0003934114 0.00028419401
-0.03851934 0.00015891851 0.0008681571 0.00043438235 0.0007342192 0.0007787614 0.0006014364 -0.046015598
-0.046015754 0.00061217754 -0.04186936 0.00017026806 -0.0003835 -3.397572e-05 0.00051227846 -7.825697e-05
-0.048012126 0.00024734618 -3.2398464e-05 8.4606174e-05 -0.00021460475 -9.905815e-06 -0.045431115 -0.049600102
-0.0006780236 -0.0007624635 -0.00019451846 7.4301606e-05 0.00065768044 -0.04501572 -1.6420603e-05 -0.0009462401
-0.00047224894 0.00026054776 -0.00032022537 -0.00061231805 -0.045403503 0.000713663 -0.04703304 0.0007489512
0.0008626017 2.47885e-05 0.0009998865 0.00033027842 -0.043746453 -0.035877224 -0.0009258453 0.00040742065
0.0008397986 0.00018652345 6.0144786e-05 -0.00017083467 -0.0007854619 0.00012684989 0.00040292216 0.00038142182
0.00090829923 -0.00059830764 -0.04788187 -0.04375992 -0.0002916719 -0.0005057508 -0.0006686924 0.00021475436
-0.04402626 0.00018374957 -0.0009733521 -0.00032411242 0.00051372265 -0.00048614814 0.0009239138 -0.04689139
-0.015997801 0.00066506915 -0.014506283 -0.033382434 0.00053176645 -0.0007088772 0.0001889019 -9.336985e-05
-0.021344109 0.0002124281 -0.020717975 -0.00069177645 -0.00012265504 0.00026196256 -0.011576508 -0.029734133
0.00088269764 -0.0052713766 0.00022247578 -0.00086279016 -0.00087963074 -0.013072864 -7.366491e-05 0.00019016267
0.00089432707 -0.00016546871 0.00068932836 -0.0008388503 -0.0126356855 -0.00086437026 -0.025801772 0.0006001407
-0.00065276306 -0.0005527058 -0.00059055106 -0.00027611328 -0.017979769 -0.00071463926 -0.02712213 8.0612306e-05
-0.00082694925 -0.00084905914 -0.00025542846 -8.5861684e-05 0.0004989336 -0.046283964 0.0002494378 0.0007629569
-0.0001145345 -8.872569e-05 -0.021835497 -0.018521916 0.00068095105 -0.00049833313 0.00064150256 0.00059749914
-0.008688177 -0.00059296895 -0.0009539445 0.00017725099 -0.00012710966 0.0009464331 -0.00033415857 -0.014754623

bias f4 [64]
00000000: a868 533c 77d2 58bd 41cc 47bd 64dd a4bc
00000010: 263f ac3b 7a48 18bd 67a7 4b3d 91ba 43bd
00000020: 4bc3 5ebd 0d29 1fbd 291b 10bd 4cad 093c
00000030: f368 d5bc 3958 063d 5ed9 433d 4363 90bd
00000040: 54bf 543b 0a26 1d3d 678b 38bc 7cd2 eabc
00000050: 3031 003d 8383 663d 87ed da3c f0e1 a73c
00000060: e6cb 5ebc cdf4 e73c e058 c63a b44c e0bc
00000070: f6f6 5b3d a5a3 24bd 738b 13bd 01bb 5e3d
00000080: 3ec8 fabb b16a 9abc 6f2f ff3b 7c7a 67bd
00000090: 6ce2 463d 8eb8 23bd 6280 45bd 93bd 9abc
000000a0: bef5 dc3c 6a38 0a3d e678 70bd 78f3 1c3d
000000b0: d9db 3ebd 7281 a03c 0588 503d be9f f9bc
000000c0: f27d f23c 88a7 723d 2c5e 54bd 3995 8d3c
000000d0: 3ab0 1c3d 0ca1 2c3d 4f25 8ebc 9980 e73c
000000e0: 5c6d a7bc 3581 633d ccc1 39bd bb29 f53c
000000f0: 0acb 133d 306e 21bd f6d2 123d 1839 82bd
0.01290337 -0.05293509 -0.048778776 -0.020125099 0.0052565513 -0.037178494 0.049720194 -0.047785345
-0.054385465 -0.03885751 -0.035182152 0.008403134 -0.02605102 0.03279898 0.04781472 -0.07050183
0.0032462673 0.038366355 -0.011263705 -0.02866482 0.03129691 0.056277763 0.02672459 0.020493478
-0.013598418 0.028314972 0.0015132688 -0.027380325 0.053702317 -0.040195126 -0.03602166 0.05437756
-0.0076532653 -0.018849703 0.007787637 -0.056513295 0.048555776 -0.039970927 -0.04821814 -0.018889224
0.026972648 0.033745207 -0.058709048 0.038318127 -0.04659638 0.019592974 0.05091097 -0.030471679
0.029601071 0.0592418 -0.05184762 0.017283069 0.038254 0.042145774 -0.017351774 0.028259562
-0.020437889 0.055543143 -0.045350835 0.029927125 0.036082305 -0.039411724 0.03584572 -0.06358546

mask f4 [64, 64]
00000000: 0000 803f 0000 0000 0000 0000 0000 0000
00000010: 0000 0000 0000 0000 0000 0000 0000 803f
00000020: 0000 0000 0000 0000 0000 0000 0000 0000
00000030: 0000 0000 0000 0000 0000 803f 0000 0000
00000040: 0000 0000 0000 0000 0000 0000 0000 0000
00000050: 0000 0000 0000 803f 0000 0000 0000 0000
00000060: 0000 0000 0000 0000 0000 0000 0000 0000
00000070: 0000 803f 0000 0000 0000 0000 0000 0000
00000080: 0000 0000 0000 0000 0000 0000 0000 803f
00000090: 0000 0000 0000 0000 0000 0000 0000 0000
000000a0: 0000 0000 0000 0000 0000 803f 0000 0000
000000b0: 0000 0000 0000 0000 0000 0000 0000 0000
000000c0: 0000 0000 0000 803f 0000 0000 0000 0000
000000d0: 0000 0000 0000 0000 0000 0000 0000 0000
000000e0: 0000 803f 0000 0000 0000 0000 0000 0000
000000f0: 0000 0000 0000 0000 0000 0000 0000 803f
00000100: 0000 803f 0000 803f 0000 0000 0000 0000
00000110: 0000 0000 0000 0000 0000 0000 0000 803f
00000120: 0000 803f 0000 0000 0000 0000 0000 0000
00000130: 0000 0000 0000 0000 0000 803f 0000 803f
00000140: 0000 0000 0000 0000 0000 0000 0000 0000
00000150: 0000 0000 0000 803f 0000 803f 0000 0000
00000160: 0000 0000 0000 0000 0000 0000 0000 0000
00000170: 0000 803f 0000 803f 0000 0000 0000 0000
00000180: 0000 0000 0000 0000 0000 0000 0000 803f
00000190: 0000 803f 0000 0000 0000 0000 0000 0000
000001a0: 0000 0000 0000 0000 0000 803f 0000 803f
000001b0: 0000 0000 0000 0000 0000 0000 0000 0000
000001c0: 0000 0000 0000 803f 0000 803f 0000 0000
000001d0: 0000 0000 0000 0000 0000 0000 0000 0000
000001e0: 0000 803f 0000 803f 0000 0000 0000 0000
000001f0: 0000 0000 0000 0000 0000 0000 0000 803f
00000200: 0000 803f 0000 803f 0000 803f 0000 0000
00000210: 0000 0000 0000 0000 0000 0000 0000 803f
00000220: 0000 803f 0000 803f 0000 0000 0000 0000
00000230: 0000 0000 0000 0000 0000 803f 0000 803f
00000240: 0000 803f 0000 0000 0000 0000 0000 0000
00000250: 0000 0000 0000 803f 0000 803f 0000 803f
00000260: 0000 0000 0000 0000 0000 0000 0000 0000
00000270: 0000 803f 0000 803f 0000 803f 0000 0000
00000280: 0000 0000 0000 0000 0000 0000 0000 803f
00000290: 0000 803f 0000 803f 0000 0000 0000 0000
000002a0: 0000 0000 0000 0000 0000 803f 0000 803f
000002b0: 0000 803f 0000 0000 0000 0000 0000 0000
000002c0: 0000 0000 0000 803f 0000 803f 0000 803f
000002d0: 0000 0000 0000 0000 0000 0000 0000 0000
000002e0: 0000 803f 0000 803f 0000 803f 0000 0000
000002f0: 0000 0000 0000 0000 0000 0000 0000 803f
00000300: 0000 803f 0000 803f 0000 803f 0000 803f
00000310: 0000 0000 0000 0000 0000 0000 0000 803f
00000320: 0000 803f 0000 803f 0000 803f 0000 0000
00000330: 0000 0000 0000 0000 0000 803f 0000 803f
00000340: 0000 803f 0000 803f 0000 0000 0000 0000
00000350: 0000 0000 0000 803f 0000 803f 0000 803f
00000360: 0000 803f 0000 0000 0000 0000 0000 0000
00000370: 0000 803f 0000 803f 0000 803f 0000 803f
00000380: 0000 0000 0000 0000 0000 0000 0000 803f
00000390: 0000 803f 0000 803f 0000 803f 0000 0000
000003a0: 0000 0000 0000 0000 0000 803f 0000 803f
000003b0: 0000 803f 0000 803f 0000 0000 0000 0000
000003c0: 0000 0000 0000 803f 0000 803f 0000 803f
000003d0: 0000 803f 0000 0000 0000 0000 0000 0000
000003e0: 0000 803f 0000 803f 0000 803f 0000 803f
000003f0: 0000 0000 0000 0000 0000 0000 0000 803f
1.0 0.0 0.0 0.0 0.0 0.0 0.0 1.0
0.0 0.0 0.0 0.0 0.0 0.0 1.0 0.0
0.0 0.0 0.0 0.0 0.0 1.0 0.0 0.0
0.0 0.0 0.0 0.0 1.0 0.0 0.0 0.0
0.0 0.0 0.0 1.0 0.0 0.0 0.0 0.0
0.0 0.0 1.0 0.0 0.0 0.0 0.0 0.0
0.0 1.0 0.0 0.0 0.0 0.0 0.0 0.0
1.0 0.0 0.0 0.0 0.0 0.0 0.0 1.0
1.0 1.0 0.0 0.0 0.0 0.0 0.0 1.0
1.0 0.0 0.0 0.0 0.0 0.0 1.0 1.0
0.0 0.0 0.0 0.0 0.0 1.0 1.0 0.0
0.0 0.0 0.0 0.0 1.0 1.0 0.0 0.0
0.0 0.0 0.0 1.0 1.0 0.0 0.0 0.0
0.0 0.0 1.0 1.0 0.0 0.0 0.0 0.0
0.0 1.0 1.0 0.0 0.0 0.0 0.0 0.0
1.0 1.0 0.0 0.0 0.0 0.0 0.0 1.0
1.0 1.0 1.0 0.0 0.0 0.0 0.0 1.0
1.0 1.0 0.0 0.0 0.0 0.0 1.0 1.0
1.0 0.0 0.0 0.0 0.0 1.0 1.0 1.0
0.0 0.0 0.0 0.0 1.0 1.0 1.0 0.0
0.0 0.0 0.0 1.0 1.0 1.0 0.0 0.0
0.0 0.0 1.0 1.0 1.0 0.0 0.0 0.0
0.0 1.0 1.0 1.0 0.0 0.0 0.0 0.0
1.0 1.0 1.0 0.0 0.0 0.0 0.0 1.0
1.0 1.0 1.0 1.0 0.0 0.0 0.0 1.0
1.0 1.0 1.0 0.0 0.0 0.0 1.0 1.0
1.0 1.0 0.0 0.0 0.0 1.0 1.0 1.0
1.0 0.0 0.0 0.0 1.0 1.0 1.0 1.0
0.0 0.0 0.0 1.0 1.0 1.0 1.0 0.0
0.0 0.0 1.0 1.0 1.0 1.0 0.0 0.0
0.0 1.0 1.0 1.0 1.0 0.0 0.0 0.0
1.0 1.0 1.0 1.0 0.0 0.0 0.0 1.0

weight f4 [64, 64]
00000000: 0805 e8bd 2ace 9dbd b026 0d3c 7c39 5dbd
00000010: 0096 303d 24e6 3fbd bca0 08bd c87d e43d
00000020: d2d9 80bd 0c3a ddbd 083a 8d3c 7e5d c1bd
00000030: fc3b 21bd 121c cbbd a5ba 3dbd c084 373c
00000040: 2893 683d 84e2 03bd b457 f6bd 7634 d1bd
00000050: 8074 06bc cb60 b73d 3025 fcbc f412 5b3d
00000060: 28ab d13c 9046 e03d 2056 623d e093 a43c
00000070: 0a47 0cbd 10b0 3ebc ca28 d53d 38be 3c3d
00000080: 0282 a9bd a2ec cb3d 6493 893d c05f 8dbd
00000090: 808f 103c dc18 2f3d 60db 533d d047 94bc
000000a0: c002 7cbb fe19 993d 8007 e03a 5c8c 72bd
000000b0: c80a be3d 1e76 b83d 9006 53bd 4ea2 e7bd
000000c0: c8c9 76bd 0552 7ebd f089 a4bc 4c50 e0bd
000000d0: ded3 bebd b037 1f3d 107d 66bc 702b 88bc
000000e0: 5ad0 ca3d 202c 1f3d e86e b83d 50ab 84bc
000000f0: e064 e4bb 6e85 eebd e2a1 f6bd 42b2 adbd
00000100: 9704 8e3c d827 803d f076 323d 5af6 893d
00000110: 304f 9abc e298 acbd 8871 b73d 0874 edbc
00000120: a078 b4bc 0617 a0bd 143d ae3d a82e c33d
00000130: 444d 76bd 5c67 dc3d 2f90 e63d bce4 0f3d
00000140: ecc6 73bd a4cb abbd d018 913c 7439 623d
00000150: 16ac a7bd a190 e53d fffa 393d c0c0 0c3b
00000160: ced0 ffbd 7e0a c8bd 38da b43d f034 443c
00000170: 2a29 853a 7263 a4bd 408f 6ebd fee9 d53d
00000180: 98bd 733d 70ac 213c c252 c33d f471 95bd
00000190: 68ea c7bc 4895 353d bcdb c2bd 4a99 e23d
000001a0: cace a53d 18b3 aa3c 307a cabd d83b 193e
000001b0: 54be 39bd 0872 a2bc 2c6b d53d e042 e0bc
000001c0: 24e8 f23d be17 c33b f646 99bd c8bb e6bc
000001d0: d483 eebd 2212 9c3d a0f2 723d 8802 ba3c
000001e0: 966c 2bbd 972c e53d b061 913d 40d5 db3d
000001f0: 14b2 57bd c00a 4e3d 8c9b 6f3d 2083 81bc
00000200: de7d 2bbd 3acd a13d 49e5 083d a42c 17bd
00000210: e017 453d e03b 093c dc96 2bbd 3089 4fbc
00000220: 92ec 943d 9419 fd3d ac2b 07bd 2caf c63d
00000230: f814 f73d b66b 963d caf4 b53d 9411 d8bd
00000240: 4fbe 27bd d033 53bd 8239 f93d 6074 a23c
00000250: d8a6 d9bd 4dd6 c7bd e24d 16be a1c7 57be
00000260: 7e9a 9abd 1a59 88bd e04f be3d 7c1a 52bd
00000270: dbfa 063e 902a eabc 6cd0 cebd 74cb 3bbd
00000280: 60fe 62bd cefc afbd a2c7 eebd 00c0 8e3b
00000290: 5496 abbd 4356 9abd f893 06bd f8d2 93bd
000002a0: 0029 9bbb 1e5d c6bd 1872 26bd c06a 273e
000002b0: fcc3 ec3d 6003 253c b020 ee3c 9e69 e33d
000002c0: 2ad3 f53d b662 37bd 10ec a13c 0bb2 813d
000002d0: 9899 afbd 2e3a e33d bc0a cb3d a095 b03b
000002e0: 0591 293e a53f cc3d ec01 a93d c4db 583d
000002f0: 484c 723d 6cc4 363d a479 803d 12f5 e03d
00000300: 675a 05bb 3c4c a3bd 2aa5 883d 2ea0 ff3d
00000310: 8e3e d43d 3c73 a13d 641a 42bd d6e2 fc3d
00000320: 48e4 ba3c 5cb4 89bd 80dd 99bb a0fc b93d
00000330: 1a16 ebbd 989c eabc f046 f03d a820 0dbd
00000340: 1d0b 14bd da0c 70bd 70c7 273d a889 c5bd
00000350: 888c 813c 28f4 303d 2d12 04bc 1929 0c3b
00000360: bf08 2e3e 20c7 f1bb fe8f c63d b47b a93d
00000370: ca92 93bd 681b c8bc 861a c73d 4115 153d
00000380: e09b 1cbd 203d 00bc 2858 ebbc e0a8 32bd
00000390: 5169 1f3d 8a39 8d3d 3a43 c13b 1cf3 8f3d
000003a0: 42a9 c53d 7897 a6bd 1416 b6bd 1f2a e13c
000003b0: a085 183d b8f4 ca3b 34f3 6fbd aa31 b0bd
000003c0: 003e 6f3b 8246 d63d 60b0 b03b a1d9 483e
000003d0: 29a8 7ebd b063 ec3d f81f a4bd 3464 cb3d
000003e0: f7c6 8d3d cf13 3b3e 5c9d f33d 1432 2fbd
000003f0: 70c3 15bc e407 0bbd e0cc e33c 505e 7cbd
-0.11329085 -0.07705338 0.008615181 -0.0540099 0.0431118 -0.04685034 -0.033356413 0.11156803
-0.06291546 -0.10802087 0.017239586 -0.0944166 -0.039363846 -0.09917463 -0.046320576 0.011201084
0.056780964 -0.032198444 -0.12028447 -0.10215084 -0.008206487 0.08954009 -0.030779451 0.053484872
0.025594309 0.10950959 0.055257916 0.020090044 -0.034247436 -0.011638656 0.104081705 0.046079844
-0.0827675 0.099572435 0.06717566 -0.069030285 0.008823276 0.042748317 0.051722884 -0.01810065
-0.0038453788 0.07475661 0.0017092079 -0.05921589 0.092794 0.09006904 -0.05151993 -0.11310254
-0.060251027 -0.06208994 -0.020085305 -0.109528154 -0.09317754 0.038871467 -0.014067903 -0.016622275
0.09903021 0.03886044 0.09005529 -0.01619497 -0.006970033 -0.116465434 -0.120425954 -0.084812656
0.017336173 0.062575996 0.04357046 0.06736441 -0.018836588 -0.084275976 0.08957201 -0.028985992
-0.022030175 -0.07816891 0.085077435 0.09530383 -0.06013228 0.10761902 0.112579696 0.035130247
-0.05951588 -0.08388451 0.017712027 0.055230573 -0.0818712 0.112092264 0.045405384 0.0021477193
-0.12490998 -0.09767626 0.088306844 0.011975512 0.0010159363 -0.0802678 -0.058242083 0.10445021
0.059506983 0.009867772 0.09537269 -0.072971255 -0.024403766 0.04433182 -0.09514567 0.11064394
0.080960825 0.020837352 -0.09886587 0.14964235 -0.045347527 -0.019829765 0.10420832 -0.027375638
0.118606836 0.005953758 -0.07484238 -0.028165713 -0.11646238 0.07620646 0.059313416 0.022706285
-0.041851602 0.111901455 0.070987105 0.107340336 -0.052660063 0.05030322 0.05849795 -0.015809596
-0.041868083 0.07900472 0.03342179 -0.036907807 0.048118472 0.008376092 -0.041891918 -0.012666985
0.07271685 0.12358394 -0.033000633 0.0970138 0.12064546 0.07344763 0.088845804 -0.10550228
-0.040952977 -0.051563084 0.12169172 0.019830883 -0.10627526 -0.097576715 -0.14678147 -0.21072246
-0.07548998 -0.0665762 0.09292579 -0.05129479 0.13181631 -0.028584749 -0.10098347 -0.045848325
-0.055418372 -0.085931405 -0.11659171 0.0043563843 -0.08378282 -0.07535984 -0.032855958 -0.072179735
-0.004735112 -0.096857294 -0.040636152 0.16349316 0.115608186 0.010071605 0.029068321 0.11104129
0.12003167 -0.044771872 0.019765884 0.06332787 -0.085742176 0.11095081 0.09914157 0.0053889304
0.16559227 0.09973077 0.0825232 0.05294396 0.05915478 0.044620916 0.06273201 0.109842435
-0.0020348073 -0.07973525 0.066721275 0.12481724 0.10363494 0.07883307 -0.04738845 0.12347953
0.022813931 -0.06723854 -0.0046955943 0.090813875 -0.11478825 -0.028639123 0.1173228 -0.03445497
-0.03614341 -0.058606006 0.040961683 -0.096453965 0.01581408 0.043201596 -0.008060974 0.00213868
0.16995524 -0.007378474 0.09695433 0.082755476 -0.07205732 -0.02442713 0.09721856 0.036397222
-0.03823459 -0.007827073 -0.02872856 -0.043618083 0.038918797 0.0689574 0.0058979066 0.07028791
0.09651424 -0.08134359 -0.0889093 0.027485905 0.03723681 0.0061937235 -0.058581546 -0.08603223
0.003650546 0.10462667 0.0053921193 0.19614269 -0.06217209 0.115424514 -0.0801391 0.099312216
0.06922715 0.18269275 0.11895248 -0.042772368 -0.009140834 -0.033943072 0.027807653 -0.06161338

bias f4 [64]
00000000: 3d97 143e 11bc e13b 6684 f23c fbac d63d
00000010: bc36 113c 323d ccbd 02f7 b2bd f046 373c
00000020: 0b33 973d 5a81 ac3d 645b c73d fcef 193e
00000030: c7f3 ab3d 3c02 783d 44eb 273e ac42 53bd
00000040: 8249 c53d 63cc 56ba 307e 8c3c f915 c13d
00000050: 541e ffbd 01a7 023e 887b b73c 7f40 d7bc
00000060: d867 45bd ca1a 52bd f897 e73c 1310 733c
00000070: b2d2 aa3d fc5c 783b b640 d03b f858 073e
00000080: 7099 ffbd 3602 ea3b 9359 c73d c250 e03d
00000090: 754b a83d f1c6 fb3d 30fd f5bd df4b 8bbd
000000a0: 4ca8 bbbd 3dba 083e 5db9 fe3d 5ef3 033e
000000b0: 880e 1f3e 1453 16bd 042b 163e 5d00 1e3d
000000c0: d40d 383d 10e0 b83c 70a6 28bd 8fb5 25bd
000000d0: 124d 003d 1891 cf3d 6baa 46bd 55b1 06bd
000000e0: 3340 023d e482 efbd f817 a3bc dd90 803d
000000f0: 00de 24bc 7e02 413b ece5 9a3d 1efb b0bd
0.14510818 0.0068888743 0.029604148 0.10482212 0.008863147 -0.099726096 -0.08738519 0.011186346
0.073827825 0.08423109 0.09734228 0.15032953 0.08396106 0.060549006 0.1639834 -0.051577255
0.09633161 -0.0008193908 0.017150015 0.09428019 -0.124569565 0.1275902 0.022397771 -0.026275871
-0.048194736 -0.05129508 0.028270707 0.014835375 0.08340968 0.003789722 0.0063553704 0.13217533
-0.12480438 0.007141377 0.09733882 0.10952903 0.08217517 0.122938044 -0.12011182 -0.06801581
-0.091629595 0.13352294 0.12437699 0.12885806 0.15532887 -0.036700323 0.14664847 0.038574565
0.044935063 0.022567779 -0.041174352 -0.04045635 0.0313235 0.10135096 -0.048502367 -0.03288396
0.031799506 -0.11694887 -0.01990889 0.062776305 -0.010062695 0.0029450948 0.07563385 -0.08641647

mask f4 [64, 64]
00000000: 0000 803f 0000 0000 0000 0000 0000 0000
00000010: 0000 0000 0000 0000 0000 0000 0000 803f
00000020: 0000 0000 0000 0000 0000 0000 0000 0000
00000030: 0000 0000 0000 0000 0000 803f 0000 0000
00000040: 0000 0000 0000 0000 0000 0000 0000 0000
00000050: 0000 0000 0000 803f 0000 0000 0000 0000
00000060: 0000 0000 0000 0000 0000 0000 0000 0000
00000070: 0000 803f 0000 0000 0000 0000 0000 0000
00000080: 0000 0000 0000 0000 0000 0000 0000 803f
00000090: 0000 0000 0000 0000 0000 0000 0000 0000
000000a0: 0000 0000 0000 0000 0000 803f 0000 0000
000000b0: 0000 0000 0000 0000 0000 0000 0000 0000
000000c0: 0000 0000 0000 803f 0000 0000 0000 0000
000000d0: 0000 0000 0000 0000 0000 0000 0000 0000
000000e0: 0000 803f 0000 0000 0000 0000 0000 0000
000000f0: 0000 0000 0000 0000 0000 0000 0000 803f
00000100: 0000 803f 0000 803f 0000 0000 0000 0000
00000110: 0000 0000 0000 0000 0000 0000 0000 803f
00000120: 0000 803f 0000 0000 0000 0000 0000 0000
00000130: 0000 0000 0000 0000 0000 803f 0000 803f
00000140: 0000 0000 0000 0000 0000 0000 0000 0000
00000150: 0000 0000 0000 803f 0000 803f 0000 0000
00000160: 0000 0000 0000 0000 0000 0000 0000 0000
00000170: 0000 803f 0000 803f 0000 0000 0000 0000
00000180: 0000 0000 0000 0000 0000 0000 0000 803f
00000190: 0000 803f 0000 0000 0000 0000 0000 0000
000001a0: 0000 0000 0000 0000 0000 803f 0000 803f
000001b0: 0000 0000 0000 0000 0000 0000 0000 0000
000001c0: 0000 0000 0000 803f 0000 803f 0000 0000
000001d0: 0000 0000 0000 0000 0000 0000 0000 0000
000001e0: 0000 803f 0000 803f 0000 0000 0000 0000
000001f0: 0000 0000 0000 0000 0000 0000 0000 803f
00000200: 0000 803f 0000 803f 0000 803f 0000 0000
00000210: 0000 0000 0000 0000 0000 0000 0000 803f
00000220: 0000 803f 0000 803f 0000 0000 0000 0000
00000230: 0000 0000 0000 0000 0000 803f 0000 803f
00000240: 0000 803f 0000 0000 0000 0000 0000 0000
00000250: 0000 0000 0000 803f 0000 803f 0000 803f
00000260: 0000 0000 0000 0000 0000 0000 0000 0000
00000270: 0000 803f 0000 803f 0000 803f 0000 0000
00000280: 0000 0000 0000 0000 0000 0000 0000 803f
00000290: 0000 803f 0000 803f 0000 0000 0000 0000
000002a0: 0000 0000 0000 0000 0000 803f 0000 803f
000002b0: 0000 803f 0000 0000 0000 0000 0000 0000
000002c0: 0000 0000 0000 803f 0000 803f 0000 803f
000002d0: 0000 0000 0000 0000 0000 0000 0000 0000
000002e0: 0000 803f 0000 803f 0000 803f 0000 0000
000002f0: 0000 0000 0000 0000 0000 0000 0000 803f
00000300: 0000 803f 0000 803f 0000 803f 0000 803f
00000310: 0000 0000 0000 0000 0000 0000 0000 803f
00000320: 0000 803f 0000 803f 0000 803f 0000 0000
00000330: 0000 0000 0000 0000 0000 803f 0000 803f
00000340: 0000 803f 0000 803f 0000 0000 0000 0000
00000350: 0000 0000 0000 803f 0000 803f 0000 803f
00000360: 0000 803f 0000 0000 0000 0000 0000 0000
00000370: 0000 803f 0000 803f 0000 803f 0000 803f
00000380: 0000 0000 0000 0000 0000 0000 0000 803f
00000390: 0000 803f 0000 803f 0000 803f 0000 0000
000003a0: 0000 0000 0000 0000 0000 803f 0000 803f
000003b0: 0000 803f 0000 803f 0000 0000 0000 0000
000003c0: 0000 0000 0000 803f 0000 803f 0000 803f
000003d0: 0000 803f 0000 0000 0000 0000 0000 0000
000003e0: 0000 803f 0000 803f 0000 803f 0000 803f
000003f0: 0000 0000 0000 0000 0000 0000 0000 803f
1.0 0.0 0.0 0.0 0.0 0.0 0.0 1.0
0.0 0.0 0.0 0.0 0.0 0.0 1.0 0.0
0.0 0.0 0.0 0.0 0.0 1.0 0.0 0.0
0.0 0.0 0.0 0.0 1.0 0.0 0.0 0.0
0.0 0.0 0.0 1.0 0.0 0.0 0.0 0.0
0.0 0.0 1.0 0.0 0.0 0.0 0.0 0.0
0.0 1.0 0.0 0.0 0.0 0.0 0.0 0.0
1.0 0.0 0.0 0.0 0.0 0.0 0.0 1.0
1.0 1.0 0.0 0.0 0.0 0.0 0.0 1.0
1.0 0.0 0.0 0.0 0.0 0.0 1.0 1.0
0.0 0.0 0.0 0.0 0.0 1.0 1.0 0.0
0.0 0.0 0.0 0.0 1.0 1.0 0.0 0.0
0.0 0.0 0.0 1.0 1.0 0.0 0.0 0.0
0.0 0.0 1.0 1.0 0.0 0.0 0.0 0.0
0.0 1.0 1.0 0.0 0.0 0.0 0.0 0.0
1.0 1.0 0.0 0.0 0.0 0.0 0.0 1.0
1.0 1.0 1.0 0.0 0.0 0.0 0.0 1.0
1.0 1.0 0.0 0.0 0.0 0.0 1.0 1.0
1.0 0.0 0.0 0.0 0.0 1.0 1.0 1.0
0.0 0.0 0.0 0.0 1.0 1.0 1.0 0.0
0.0 0.0 0.0 1.0 1.0 1.0 0.0 0.0
0.0 0.0 1.0 1.0 1.0 0.0 0.0 0.0
0.0 1.0 1.0 1.0 0.0 0.0 0.0 0.0
1.0 1.0 1.0 0.0 0.0 0.0 0.0 1.0
1.0 1.0 1.0 1.0 0.0 0.0 0.0 1.0
1.0 1.0 1.0 0.0 0.0 0.0 1.0 1.0
1.0 1.0 0.0 0.0 0.0 1.0 1.0 1.0
1.0 0.0 0.0 0.0 1.0 1.0 1.0 1.0
0.0 0.0 0.0 1.0 1.0 1.0 1.0 0.0
0.0 0.0 1.0 1.0 1.0 1.0 0.0 0.0
0.0 1.0 1.0 1.0 1.0 0.0 0.0 0.0
1.0 1.0 1.0 1.0 0.0 0.0 0.0 1.0
