gwak/output/S4_SimCLR_multiSignalAndBkg_HV/model_JIT.pt (torch, 901793 bytes, 40 tensors)

weight f4 [128, 2]
00000000: 21b5 613d 7a29 053f 1f38 04bf 7771 f4be
00000010: 2ac5 a6be f8bc 293e 56a1 253d f98a 033f
00000020: da76 c5bd cf60 6f3e 2935 99be 37ef 46be
00000030: d8c3 27bf e957 e1be 525e b6be f65c 81bc
00000040: ad67 5a3e b0f5 b13e e814 dcbe 80ca 91be
00000050: aeb6 903e b5e3 0d3f d23a 31be b644 f43e
00000060: 7617 60be 2884 263d 9b79 373f ac2a 2fbf
00000070: e429 efbe e4de ecbd e22d b7be 0df6 223f
00000080: a168 fabe 1699 afbe 9536 3fbf ede6 30bf
00000090: 8c31 a9be 34fd 0a3f 856f 8c3e 74c9 7e3e
000000a0: 30cf bd3c 9b2d bcbe 3042 0d3e bbb1 eebe
000000b0: 7168 01bf 7b5a a9be ff2e f93e df2c dc3e
000000c0: 53be 8abe 33e5 063d bda8 c93e d39f 2b3f
000000d0: 251f 8f3e 10a0 2d3e 6bfa 0e3f 9883 debe
000000e0: eb2b 7a3e 7962 17bf 288f 0bbf 20ae c9be
000000f0: 5204 c03e c9c0 9e3e 1a3c bbbe 160c 523e
00000100: 231e fd3e 0745 21be f592 e9bc 0b43 1e3e
00000110: c64c d33e adf7 1e3f a025 eabe 2bc0 21be
00000120: 813d 053f 378e 223f 74fb 1b3f b803 203f
00000130: 2057 243e 592f 0cbf 7d7b 8d3d c89a cbbe
00000140: e297 2dbf 323a 193f 1e35 1d3f a763 2bbf
00000150: 1a83 653e f29f 1bbe 0244 d0bd 7ce9 a1be
00000160: 1af7 a23e 5eab cdbe 876a 423e 0d2d ae3e
00000170: 56ba 063f 2c45 7d3e c25e 24bf 4f00 bcbe
00000180: 6a1a 9e3e 961a bf3d 87eb 22bf 4c78 c7be
00000190: 9413 363f 0c9a f53e cbc0 bbbe 5bf1 2cbe
000001a0: 64d7 2dbf 111b 5c3c 3b01 00bf dc9c 00bf
000001b0: 4736 08bd a3e3 dd3d 00c7 ecbe 8d25 da3e
000001c0: af44 9cbe 5e88 ff3e 3bdf 053f faca 12bf
000001d0: d400 7abe 2367 9e3d 02c4 163e 0ad0 1f3e
000001e0: 7aff e43e f4db ff3d b04b 22bf 2c07 ed3e
000001f0: 863e 38bf 0b20 90be ba32 63be b967 aebe
00000200: 085d 91be 625e 0ebf e294 7ebe 7dd2 223e
00000210: a493 04bf 6346 15bd 5489 0a3f bee5 0ebd
00000220: d98e 6cbc 557e 29bd 34b8 ce3c a596 b03e
00000230: 3692 2d3f 7c7c ca3e efcd 243f 27b8 42bd
00000240: 5139 44bf d28c b8be 8c3c 313f c051 4f3b
00000250: bd61 babe e2d7 e5be d859 2fbf e63a 13bf
00000260: 74cf 70be 46e6 d43e 37c2 bc3e c8d6 1fbf
00000270: 8bc2 f23e 70d6 13bf edab 13be 9dc3 64be
00000280: 3896 22bd b1d9 22be 9aab 2bbf 14f2 18bf
00000290: 8d10 11be ba30 28bd 386a cebe 7b7d 853e
000002a0: ebea 72bf 54f6 04be df85 0f3f bbc4 48be
000002b0: f3ed 123f fd6b 583e aa7a 26bf e1fe ba3e
000002c0: e22c 7abd 3022 5fbe b192 2d3f 4a7f 32bf
000002d0: b154 ce3b 87a6 1dbe 1ec3 0d3f 88cc 5b3e
000002e0: b2c1 d03e 08e8 7a3e 8773 58be d90c 12be
000002f0: d8cf 38bf 7cc8 c43e ab3e 113f 7c61 e93e
00000300: 361a 32bf a6e0 573d e969 04bf 9be8 d5be
00000310: 8e88 d3be 54c7 303e 97a2 d6be f004 b0bd
00000320: 1cf5 28bb 44df d93e d53a 03bf 0309 dabe
00000330: c879 bdbe 5d2a f53e 1a65 6fbe a240 0f3f
00000340: 8fff bc3e bb75 ff3d 19e0 26bc 334d efbd
00000350: a06e 083e f66c 1abe e8f5 cebb 483e 0e3d
00000360: 7bc8 2abf e222 d3be d25b 013f 5ef7 07bf
00000370: 86e3 a5bd f34e 283f 6cef b83e 61bc cd3d
00000380: 030c 44bf 28bd ae3e 9470 63bf 845f b1be
00000390: a789 88be 4b4e 09bd 7a90 663c aa57 023f
000003a0: 8ab1 1e3d 4537 263f b8d8 eb3e f6aa c5be
000003b0: d65b c03e 8bd2 f5be bb5c b5be 144f 7e3e
000003c0: 0c50 6d3e 0178 073f 520d 8cbe 1783 bdbd
000003d0: fb54 cf3e 1581 2ebf bc3d f23e dbd2 10bf
000003e0: 10ec 76bd d8e3 36be 8036 b4be 743a 133e
000003f0: 617a 103f 122c 3dbe 21a9 babe 5cfe 38be
0.05510438 0.52016413 -0.51648134 -0.47742817 -0.325723 0.16575992 0.040437065 0.5138393
-0.0964181 0.23376773 -0.2992337 -0.1942719 -0.6553321 -0.44012383 -0.35618836 -0.015791398
0.21328612 0.34757757 -0.429847 -0.28474808 0.28264374 0.5542558 -0.17307594 0.47708672
-0.2188395 0.040653378 0.7166993 -0.6842449 -0.46711648 -0.115659505 -0.35777193 0.63656694
-0.4890795 -0.34296483 -0.7469266 -0.69102365 -0.33045614 0.5429261 0.27428833 0.24881536
0.023170084 -0.36753544 0.1379478 -0.46619973 -0.5054999 -0.33076844 0.48668668 0.43002984
-0.2709833 0.032933425 0.3938655 0.6704075 0.2795345 0.1695559 0.5585086 -0.43459773
0.24430816 -0.5913463 -0.54515314 -0.3939066 0.37503296 0.31006458 -0.3656929 0.20512423
0.49437055 -0.15748988 -0.028512457 0.15455262 0.4126951 0.62096673 -0.4573183 -0.15795963
0.5204697 0.6349825 0.6093056 0.62505674 0.1604886 -0.54759747 0.06908319 -0.39766526
-0.6780988 0.59854424 0.61409175 -0.6694893 0.22413293 -0.15197733 -0.101692215 -0.31623447
0.3182915 -0.40169805 0.1898595 0.34018746 0.52628076 0.24733418 -0.6420709 -0.36718985
0.30879527 0.09331243 -0.63640636 -0.38958967 0.71123624 0.4796909 -0.36670527 -0.16888945
-0.67906785 0.0134341875 -0.5000188 -0.5023935 -0.033254888 0.10834434 -0.46245575 0.42606774
-0.3052115 0.49908727 0.5229375 -0.5734097 -0.24414378 0.077345155 0.14723209 0.15606704
0.44726163 0.124931246 -0.6339674 0.46294534 -0.71970403 -0.28149447 -0.2218732 -0.3406351
-0.2839129 -0.55612767 -0.24861482 0.15900607 -0.5178778 -0.03644408 0.54115796 -0.034887068
-0.014438354 -0.041380245 0.02523432 0.34489933 0.67801225 0.395481 0.6437673 -0.047538903
-0.7664996 -0.36044937 0.6923301 0.003163442 -0.36402693 -0.44891268 -0.68496466 -0.57511747
-0.23516637 0.41581935 0.36866924 -0.62437105 0.4741405 -0.5774908 -0.14421053 -0.22340246
-0.03969404 -0.15903355 -0.6705872 -0.5974438 -0.1416647 -0.041062094 -0.40315413 0.26072297
-0.94889706 -0.12984592 0.56063646 -0.19606297 0.5739433 0.21134944 -0.6503092 0.36522582
-0.06107796 -0.21790385 0.6780196 -0.6972548 0.006296717 -0.15395556 0.5537585 0.21464741
0.40772778 0.24502575 -0.2113782 -0.14262713 -0.72192144 0.38434207 0.5673625 0.45582187
-0.69571245 0.052704476 -0.51724106 -0.41779026 -0.4131512 0.17263538 -0.4192092 -0.08594692
-0.0025780862 0.4255315 -0.51261646 -0.42585 -0.37006974 0.47883883 -0.23378411 0.55957997
0.36913726 0.12473627 -0.010185265 -0.116846465 0.1332345 -0.15080628 -0.0063159354 0.034727365
-0.6671216 -0.4123755 0.5053073 -0.5311183 -0.08100037 0.65745467 0.36120164 0.10045696
-0.7658083 0.3412869 -0.88843656 -0.34643185 -0.2666752 -0.03352193 0.014072532 0.50915015
0.038743533 0.64928085 0.4606378 -0.38606995 0.37570065 -0.48012194 -0.3542231 0.24834853
0.23175067 0.52917486 -0.27353913 -0.09253519 0.40494522 -0.68165714 0.47312725 -0.5657174
-0.06028372 -0.17860353 -0.3519783 0.14377767 0.56436735 -0.18473843 -0.3645716 -0.1806578

bias f4 [128]
00000000: c369 32bf c1ef 5d3e 14b3 abbe 0f4b cabe
00000010: 2b19 bebe 21c3 b53e af45 ab3e dab0 ec3e
00000020: fb45 343e 6a39 58be 57e5 29be 74ac 843e
00000030: 6110 1e3f d34c cb3d d397 8bbe b050 acbe
00000040: c9e2 1fbf 1c79 173e 33e2 a8be 59e9 12bf
00000050: bf8e 223f 3b4a eabe 3d93 a0bd 9ea6 463e
00000060: b454 15bb 9cf7 d0be deaf 06bf aaa8 033f
00000070: 5744 ce3d fa90 123f 5b21 3cbe 8c71 3b3e
00000080: 9a8a 0bbe 92bc 40bc 8dda d1be ab19 373e
00000090: 591d 713e 665b 5dbd 9d10 31be f9eb cfbe
000000a0: 8756 df3e 1ea9 e0be 4a39 763e 61fb 80be
000000b0: 584c a3be aeef dd3d a130 b5be e5eb eb3d
000000c0: d944 973d 88d9 04bf 3962 c23d dc3c 953e
000000d0: 282d 843e 45ff ffbd 79a5 05bf bcb4 b4bd
000000e0: f032 813e d954 76be 4d8d 5f3e 2fdc da3e
000000f0: 7d0c bbbe eeb4 9b3c 280f 5e3e 46a9 b73d
00000100: 62c5 563d 5cb7 933d 338c 00bf 0c04 323d
00000110: 0f5e c13e f08c 263f 39f7 ce3e be80 1d3d
00000120: 90e1 a03e 51ac a9be 1fdf fdbe fb4a 13bf
00000130: b5f7 253f 6895 b93e 3fb0 cdbe 1082 8a3e
00000140: d569 083f 1c71 3a3f 6908 103f 51d7 063f
00000150: 6a5c 29be e8d1 46be 89e6 0b3f 8d47 a63e
00000160: b8cb bbbe 9cee 0c3f 46a0 8e3e bdf8 b13e
00000170: 5499 cfbe bca4 2e3e 4655 81be cdcb 0f3f
00000180: 61c7 b4bd 4012 a03e 6968 bd3d 6ead 9e3e
00000190: b3cf 33be 634f aa3e 2d45 06bf a9f7 063e
000001a0: 3668 e3be 9b73 16bf 44e9 e1be 7c3e fe3e
000001b0: 2794 b03e 80ff 173f d97f 073f 3d00 12bf
000001c0: 6578 0fbf 0391 d5bd 15b3 c7be 7195 e93e
000001d0: cdda 08bf bfc4 a2be 11d7 21bf 3c89 c4be
000001e0: 0294 093f 0fc2 e83e 9b90 f43e d0f6 fe3e
000001f0: 7e61 113f 747e ffbd 2212 953e eaf4 133f
-0.6969263 0.2167349 -0.33535063 -0.3951039 -0.37128577 0.35500434 0.33451602 0.46228677
0.1760482 -0.21115652 -0.16591392 0.2591282 0.6174374 0.099267624 -0.2726427 -0.3365531
-0.6245542 0.14792293 -0.32985076 -0.5738731 0.63499063 -0.45759758 -0.078405835 0.19399497
-0.0022786083 -0.4081391 -0.526121 0.51429236 0.100716285 0.57252467 -0.18372099 0.18305033
-0.13627091 -0.011763709 -0.40987054 0.17880885 0.23546351 -0.054042242 -0.17291494 -0.4060972
0.43620703 -0.43879026 0.24045292 -0.25191787 -0.31894183 0.10836731 -0.35388663 0.11519603
0.073861785 -0.51894426 0.09491391 0.29147995 0.258157 -0.12499861 -0.52205616 -0.08823535
0.25234175 -0.24055804 0.21831246 0.42746112 -0.36532965 0.019007172 0.21685469 0.08967833
0.052434333 0.072127074 -0.5021393 0.04346089 0.37767074 0.65058804 0.4042299 0.038452856
0.3142209 -0.3313928 -0.4958429 -0.57536286 0.64831096 0.362468 -0.40173528 0.27052355
0.53286487 0.7282884 0.5626283 0.52672297 -0.1653916 -0.1941601 0.54648644 0.32476464
-0.36678863 0.5505159 0.27856654 0.34760085 -0.40546668 0.17055029 -0.2526037 0.5617035
-0.08827091 0.31263924 0.0924843 0.3099169 -0.175597 0.33263692 -0.52449304 0.13180412
-0.44415444 -0.5877015 -0.4412328 0.49657047 0.3448803 0.5937424 0.52929455 -0.57031614
-0.5604308 -0.104280494 -0.39003816 0.45621827 -0.53458863 -0.3179073 -0.6321879 -0.38385952
0.53741467 0.45460555 0.47766575 0.49797678 0.56789386 -0.12475291 0.29115397 0.57795584

D f4 [128]
00000000: d81a 983e 0489 2c3f 49b8 983f a182 7a3f
00000010: 5e76 fc3e 9a1a c8bf 7fc6 a23e 6baf 443f
00000020: 6730 ab3f 21af 7f40 d040 853f 1c0c c4bf
00000030: d3d7 24bf ef96 0e3f cef8 ab3f 7abb 14bf
00000040: b536 3ebf c3b6 c63d e5fd 6d3e 2cd9 07c0
00000050: d82b b33f f2af 0bbf 2dc7 cf3f 95fb 73bf
00000060: 9ba2 c93f 8e66 90bf a8c6 583f 4959 9f3f
00000070: d977 28bf 272c 12bd 0a97 0d40 a583 db3f
00000080: 8e35 97bd 1b2f 813f 086d 84bf 186f d43f
00000090: 295a 53be 2dea e7bd 76f8 183f bc9b 14bf
000000a0: 2446 70bf 8ad6 bb3e 995a 253f c17b e73f
000000b0: 6aa8 9f3f a6d6 1abf 01fc 743f dc50 b2bf
000000c0: 040f 0940 f41c 513f 9bed b2be 38d7 cb3e
000000d0: 2dbe a73f e970 b73e b54e febe 1767 25be
000000e0: 74ed 243e 3524 ce3d 2e81 b93e 2b3f 41bf
000000f0: b15e 7d3e 5d96 8dbd 4618 bf3f 2682 98be
00000100: 3ec4 8dbf b08f 70bd b870 e83f 8297 88bf
00000110: 1e43 4f40 cd6b 0cbf b4ef e6be 8d57 d13f
00000120: 8882 cdbd 3881 97be 6652 ae3f a11b 943f
00000130: b0a2 6a3e c73f bf3f 5657 9fbe a9c5 a93f
00000140: bfe8 a83e 65aa cdbf 434d 1dbf 5fb0 233f
00000150: 0c2f ee3d a3d0 bcbd 083a 963e 9b27 70be
00000160: 962f aabf f36d 223f fb2f 94bf 685b 803c
00000170: 05a7 763e e437 65bf 75f4 ae3f 0f04 48c0
00000180: f304 e6be 7079 03bf e60d aabe 52d2 c9bf
00000190: cfd7 853d da53 943f f503 c33f 6b93 ccbf
000001a0: ddd2 04be c1e7 263f 44ca bc3e 28ae 3cbf
000001b0: 9a81 77bf 7ef8 c83f 07d6 68bf 274a 153f
000001c0: 4992 873e a666 903d b7ff 9bbf 35f7 34bf
000001d0: a091 fdbd 6898 65bf be8d 82bf c0d7 1e3f
000001e0: 2bd1 34be b21d 1f3f 8216 00c0 6c76 14c0
000001f0: f16d 093e 3d85 cdbf 8bb5 9b3f 4f68 dabf
0.2970798 0.6739657 1.1931239 0.97855574 0.49309057 -1.5633118 0.31792066 0.76830167
1.3374146 3.995064 1.0410404 -1.5316195 -0.6439182 0.55699056 1.3435304 -0.58098567
-0.74302226 0.09702828 0.23241384 -2.1226301 1.3997755 -0.54565346 1.6232659 -0.9530576
1.5752748 -1.1281297 0.84678125 1.2449123 -0.65807873 -0.03568664 2.2123437 1.714955
-0.073832616 1.00925 -1.0345774 1.6596403 -0.20639862 -0.11323962 0.5975412 -0.5805013
-0.93857026 0.36687118 0.64591366 1.8084642 1.2473271 -0.6048378 0.9569703 -1.3930926
2.1415415 0.81684804 -0.34946904 0.39812636 1.3104912 0.3582833 -0.49669424 -0.16152607
0.16106206 0.100655 0.3623137 -0.7548701 0.24743153 -0.06913445 1.4929283 -0.29786795
-1.1075513 -0.05873078 1.8159399 -1.0671237 3.2384715 -0.5485199 -0.45104754 1.6354843
-0.100346625 -0.29590774 1.3618896 1.1570932 0.22913623 1.4941338 -0.3112132 1.3263446
0.3299007 -1.6067625 -0.6144602 0.63940996 0.11630067 -0.09219482 0.2934115 -0.23452608
-1.3295772 0.6344902 -1.1577142 0.015668586 0.2408715 -0.8953841 1.3668352 -3.1252477
-0.4492565 -0.51357174 -0.3321373 -1.576731 0.06535303 1.158809 1.5235583 -1.5982488
-0.12971063 0.6519738 0.36873066 -0.7370324 -0.9668213 1.5700834 -0.9095158 0.5831627
0.26478794 0.07050829 -1.2187413 -0.7068971 -0.123812914 -0.8968568 -1.0199506 0.6204796
-0.17657916 0.62154686 -2.0013738 -2.319728 0.13420846 -1.6056286 1.2164778 -1.7063082

C f4 [128, 32, 2]
00000000: 798b b53e 2006 27bf 8d07 2c3e c3bc 76be
00000010: a383 c93e 4522 883f a8d7 c03e cb19 78be
00000020: fdf9 2b3e c397 1e3f af7e 94bf a95b 583f
00000030: 9add 7dbe f9b4 d03f 6b9d 9f3e afcf c53f
00000040: cb23 51bf ca93 e23f 5025 c8be fdd3 513f
00000050: cf9c 96be d995 163f c9f4 b93f cf16 9abe
00000060: b61c 71be b42b acbe 384a 8b3e 70ac 2cbf
00000070: 9177 253f c5fb cfbe f6b3 753e bd6b 183e
00000080: e748 373f e641 023f 04dd 7dbf 8378 b9bf
00000090: e235 e7bd 7e0f d93e 5f2d 95bf 3985 103f
000000a0: f0c3 82be 0b8d 613f e3dd b53e 9568 6c3e
000000b0: 7d2f 42bf e553 2abf 6b41 1d3f a226 ad3e
000000c0: 53a3 303f dbd9 323f 01d5 46bf e957 cbbe
000000d0: f0c0 fabd efe7 5bbf 03e8 583f a08f 0ebe
000000e0: 47a1 6bbf cf2e 3c3f d611 34bf 224a 43be
000000f0: cff6 a63f f835 d9bf 0b00 933e b96e ecbd
00000100: 6896 9d3e 275e 4d3f e0d2 4a3f 3709 83bf
00000110: 1773 21bf 42c1 3fbf 4d21 f03e d83e 1b3f
00000120: b017 833e 1627 873e 00ce 63be ec06 9c3f
00000130: c60e c1bd c178 6dbf d6ff 56bf d138 1dbe
00000140: 7d4d 133f e605 1f3e 0c81 23bf 974b 033f
00000150: 3261 cebe 1842 6abf cb7f 8f3f accb d03e
00000160: 3fce bcbf 27a0 e43e e0c3 d63e 06d4 35be
00000170: a9c7 a43e 7798 37be 4d28 ba3f 901c 6bbd
00000180: 890f e9bd 8efd dd3e 718d d73e 13a9 0b3e
00000190: 0c3a 7bbe 6b1f bebe a21b 983f eb59 10bf
000001a0: 9ba3 20bf 4c5f a1bd 0921 4cbf ea89 dc3e
000001b0: 785f 913d 19e1 363f 6080 473f b5ca b33d
000001c0: db1a 94bf 73e3 083f f1fc 3f3f e4c8 633f
000001d0: 430a a0be 9f13 603f 2e5b 02bf ca4e d43e
000001e0: b38c 3abf 1698 b4bf 0e44 513e 446c 61be
000001f0: 51f2 10bf d381 923f a52d 843e c283 d7bd
00000200: 9341 a43e 0363 513e b485 a13f ace9 a93e
00000210: 91d6 ad3f 3ffb 7e3e 58f1 b6bf 541c 2dbf
00000220: 60d6 04be 14be 073f 3672 bbbd eb98 a9bd
00000230: dc56 a33e 6e58 98bf 697c 02bf c95e 19be
00000240: 5643 cd3e 12d8 c3be aae0 acbe 432d 0abe
00000250: ab29 8b3e dd13 ed3e 79ce 45bf c768 52bf
00000260: edd2 02be 8cf3 e5be d984 073f 0c2f ae3c
00000270: be06 2e3f b848 2e3f 938a af3e 9db7 1a3f
00000280: 804b 7abf 065f f3be 3e21 4bbe 7f2b 20be
00000290: acde 1abf 8c76 753f e979 05c0 9b41 dcbd
000002a0: 3e35 23bf 201b 7fbe ed50 b53f 0147 ac3e
000002b0: 0f2b 29bf f783 ad3f 19ec 9cbf 95c5 d9be
000002c0: 63a2 18bf 0e23 a5bf 9f43 3dbf 2581 a4be
000002d0: b1d2 ccbf 06ef 0cbf fcb4 023f 9a2c f5be
000002e0: b022 603e cac9 403f bfe7 54bc 9083 883f
000002f0: 7cc3 bebf 59dc 83bc c003 87bf 2bff d33e
00000300: 60e0 2abf c75f ae3e a106 58be 9c12 f4be
00000310: 1ca6 56be 863d fabe ef75 51be 382e 193f
00000320: a70f c93e e698 18bf 9859 f7bd 11b7 88bf
00000330: d220 61bf 2f0b b23e 60d2 19bf 1357 47bf
00000340: 21e0 4fbf 004e 39be beec bb3e e12c a03f
00000350: 6aff 053e 56bb e43e d904 6abf 3950 9dbe
00000360: 9e66 a9bd 5725 5e3f eb37 44bf b8cd 673e
00000370: aa0c 12bf d6fc aabd 503b 38bf 2ebf 8ebc
00000380: a2d3 0540 437b 1cbf 6818 4dbf 7584 03bf
00000390: 32f4 fa3e a6e2 623f 62d8 533e f366 36bf
000003a0: 4a64 53bd db47 08be e2e2 3a3d d30e 91be
000003b0: ad33 10bf 37a6 f5bd 50fc 4f3f 5ba9 bd3d
000003c0: bef8 06bf 9547 1b3e 44aa 343d 882d d53f
000003d0: 7931 64bf 7588 263f 6269 a7be 7ff0 9ebd
000003e0: 6678 6cbe 6c61 abbd 885f ab3e ae49 24bf
000003f0: 27ba 5dbf 4e56 6dbf 2c18 8e3f 09e8 b5be
0.35457972 -0.6524372 0.16799755 -0.24095444 0.39358243 1.0635458 0.37664533 -0.24228589
0.16794582 0.6195032 -1.1601161 0.8451486 -0.24791566 1.6305228 0.31174788 1.5454005
-0.8169524 1.7701352 -0.39090967 0.81964093 -0.2941651 0.588224 1.4527828 -0.30095527
-0.23546109 -0.33627093 0.27205062 -0.6745062 0.6463557 -0.40621772 0.23994431 0.14884849
0.71595615 0.50881803 -0.9916537 -1.4489902 -0.11289574 0.42394632 -1.1654471 0.5645328
-0.25540113 0.8810584 0.3552085 0.2308677 -0.7585371 -0.6653426 0.61427945 0.33818537
0.68999213 0.6986367 -0.7766877 -0.39715508 -0.12243831 -0.8590078 0.8472902 -0.13921976
-0.92042965 0.73508924 -0.70339715 -0.19071248 1.304407 -1.6969595 0.2871097 -0.11544556
0.30778813 0.8022179 0.7922802 -1.0237187 -0.6306624 -0.74904263 0.46900406 0.60642767
0.2560401 0.26397008 -0.22246552 1.2189612 -0.09426646 -0.9276238 -0.83984125 -0.15353705
0.5754011 0.15529594 -0.63868785 0.51287216 -0.4030853 -0.915071 1.1210874 0.4078039
-1.4750441 0.44653437 0.41946316 -0.17756662 0.3218358 -0.17929254 1.4543549 -0.057400286
-0.11379916 0.4335751 0.421001 0.13638715 -0.24533862 -0.37133345 1.1883433 -0.56387204
-0.6274964 -0.078795046 -0.7973791 0.4307397 0.07098287 0.7143722 0.7793026 0.08778898
-1.1570696 0.5347206 0.7499533 0.8897841 -0.3125783 0.8752994 -0.5092038 0.4146636
-0.7287094 -1.4108913 0.20436117 -0.22013956 -0.56619745 1.1445869 0.25816074 -0.10523178
0.3208128 0.20447926 1.2618928 0.3318609 1.3581105 0.2490053 -1.4292402 -0.6762135
-0.12972403 0.5302441 -0.091526434 -0.0828112 0.31902206 -1.1901987 -0.50971085 -0.14977564
0.40090436 -0.38250786 -0.33765155 -0.13493828 0.27180228 0.46304217 -0.7726818 -0.8219113
-0.12775774 -0.44912374 0.52937084 0.021262668 0.6797904 0.6807971 0.3428541 0.6043642
-0.97771454 -0.47533435 -0.198369 -0.15641592 -0.6049602 0.95884013 -2.0855658 -0.10754701
-0.63753116 -0.24912691 1.4165322 0.33647922 -0.6608133 1.3555897 -1.2259551 -0.42533556
-0.5962278 -1.2901323 -0.73931307 -0.3212978 -1.6001798 -0.5505222 0.5105741 -0.4788559
0.21888232 0.75307906 -0.012994706 1.066515 -1.4903407 -0.01609628 -1.054802 0.41405615
-0.6674862 0.34057447 -0.21096279 -0.47670448 -0.20961803 -0.48875064 -0.20455144 0.5983615
0.39269754 -0.59608305 -0.120776355 -1.0680867 -0.87940705 0.34774157 -0.6008663 -0.7786724
-0.8120137 -0.18096161 0.36704057 1.2513696 0.13085714 0.44674176 -0.91413647 -0.30725268
-0.08271526 0.86775726 -0.76647824 0.22637069 -0.57050574 -0.08349006 -0.71965504 -0.017425146
2.091042 -0.6112558 -0.80115366 -0.5137399 0.4901443 0.8862709 0.20688012 -0.7125084
-0.051609315 -0.1330866 0.04562653 -0.28331622 -0.5632885 -0.119945936 0.81244373 0.092608176
-0.527233 0.15164025 0.04410769 1.665452 -0.8913799 0.65051967 -0.32697588 -0.07760715
-0.23092803 -0.08368191 0.33471322 -0.64174926 -0.8661217 -0.92709816 1.1101127 -0.3552859

log_dt f4 [128]
00000000: d1e5 a6c0 173f a7c0 668b 78c0 bd6c 6dc0
00000010: 3006 b3c0 4268 89c0 0830 4dc0 5908 9ac0
00000020: 952e 74c0 5737 a1c0 9e9c 70c0 6763 c5c0
00000030: f0d7 bbc0 f10e b4c0 6a51 1cc0 1cbf a3c0
00000040: f6e9 8ec0 b7ae b4c0 0f17 15c0 5b68 15c0
00000050: b680 c8c0 2f2b cfc0 6fcd c9c0 a5aa 8fc0
00000060: 14e7 a0c0 5a20 bec0 287a a8c0 5ef8 81c0
00000070: 2bc2 b5c0 9be9 80c0 056c a0c0 4403 b2c0
00000080: 5b5f 86c0 f02b 29c0 3ef8 bdc0 b318 8ec0
00000090: 475e abc0 f22d 15c0 3229 d6c0 33d5 d2c0
000000a0: 35da 11c0 a38d bfc0 f6dd 81c0 b854 94c0
000000b0: e40c a1c0 acb0 a0c0 519f 44c0 a312 8ec0
000000c0: cc07 d8c0 9b13 b9c0 d5f4 adc0 ec8a 5cc0
000000d0: 83fa bdc0 2b3e 1ac0 6dcc a3c0 2af5 9ec0
000000e0: 69e3 2bc0 b287 57c0 3a3c 27c0 4633 50c0
000000f0: e872 a5c0 3e15 bfc0 77dc 97c0 ad13 2bc0
00000100: 4364 a8c0 6a41 d2c0 f060 62c0 4a00 14c0
00000110: 9cb9 a7c0 ea37 ccc0 bc31 d2c0 a347 7bc0
00000120: f06f 96c0 f887 b4c0 19d0 83c0 7129 6bc0
00000130: 7639 2cc0 419c 32c0 0d13 9bc0 1070 cdc0
00000140: 3574 cfc0 b72c 18c0 5a91 62c0 046c 63c0
00000150: c890 cbc0 4fe5 19c0 1834 19c0 70aa 1fc0
00000160: a5fc ccc0 4fee a9c0 3673 c3c0 6dec 17c0
00000170: 22a8 adc0 446e b0c0 f81f 59c0 91af b0c0
00000180: fd7c b6c0 a994 97c0 6132 97c0 7373 c8c0
00000190: 70ec 27c0 fdaf b2c0 1a4f 6dc0 8de6 21c0
000001a0: 1e55 58c0 2b05 84c0 6fa0 27c0 798e 87c0
000001b0: 7f7c b0c0 4bde 18c0 0d03 7fc0 2e86 d6c0
000001c0: 40f4 a5c0 bf8e c1c0 27aa 22c0 dbc7 9dc0
000001d0: f1e4 d1c0 7684 97c0 be20 46c0 9c99 7bc0
000001e0: 0589 75c0 da75 8cc0 1dae 6cc0 c08a a2c0
000001f0: fd28 b0c0 dd9e d2c0 e446 c4c0 48d7 62c0
-5.2155538 -5.2264514 -3.8835082 -3.7097619 -5.5945053 -4.293977 -3.2060566 -4.813519
-3.8153431 -5.0380054 -3.7595592 -6.168384 -5.8701096 -5.626824 -2.4424691 -5.117079
-4.4660597 -5.6463275 -2.3295324 -2.3344944 -6.265712 -6.4740214 -6.3063273 -4.4895806
-5.028208 -5.941449 -5.2649117 -4.0615683 -5.679952 -4.0285163 -5.013186 -5.5628986
-4.19914 -2.6433067 -5.936553 -4.440515 -5.3552585 -2.3309293 -6.6925287 -6.5885253
-2.2789433 -5.9860396 -4.058345 -4.6353416 -5.0328236 -5.0215664 -3.072224 -4.439775
-6.750952 -5.7836432 -5.4361367 -3.445979 -5.93683 -2.4100444 -5.1187043 -4.9674273
-2.685755 -3.3676572 -2.613051 -3.2531295 -5.1702766 -5.971343 -4.745662 -2.673076
-5.262239 -6.570485 -3.5371666 -2.3125176 -5.2414074 -6.3818254 -6.568571 -3.9262474
-4.7011642 -5.6415977 -4.1191525 -3.6744044 -2.6910071 -2.790787 -4.8460755 -6.4199295
-6.4829354 -2.3777292 -3.5401216 -3.5534678 -6.3614235 -2.404621 -2.3938046 -2.4947777
-6.4058404 -5.3103404 -6.107814 -2.3738053 -5.426774 -5.51346 -3.3925762 -5.5214314
-5.7027574 -4.736897 -4.7249 -6.264093 -2.623806 -5.583983 -3.707953 -2.5296967
-3.3801951 -4.125631 -2.619167 -4.2361417 -5.5151973 -2.3885677 -3.9845612 -6.7038794
-5.1860657 -6.048675 -2.5416353 -4.9306464 -6.559197 -4.7349195 -3.0957484 -3.9312506
-3.836488 -4.389386 -3.698127 -5.0794373 -5.5050035 -6.5818925 -6.1336536 -3.5443897

log_A_real f4 [128, 32]
00000000: 88e4 23bf 44e7 40bf 262a 2abf bd5a 36bf
00000010: 3167 3ebf a50b 53bf 4058 43bf 97d9 44bf
00000020: 5184 4cbf d1ea 37bf 3daf 3bbf 9395 37bf
00000030: e280 38bf 990b 2ebf 7427 36bf edbe 2fbf
00000040: 5c9f 30bf 2b22 32bf 4933 2bbf 4cfa 31bf
00000050: ced5 2ebf a26c 2abf 7b67 32bf d912 29bf
00000060: 4fae 2cbf 204f 2bbf 80fa 33bf 261f 34bf
00000070: 466e 2fbf a5bd 33bf 6df5 33bf 48a8 2bbf
00000080: eff0 14bf 5adc 3fbf 5269 1dbf 458f 39bf
00000090: 53e3 43bf 0137 58bf 1c1f 40bf 71a0 46bf
000000a0: c0fd 4ebf ffcb 49bf cff5 58bf d8a5 4cbf
000000b0: a143 44bf 2b55 2ebf e804 2dbf ae23 2cbf
000000c0: eaf3 26bf 04af 1bbf ea4e 21bf f8dd 21bf
000000d0: 237d 1dbf 1251 27bf 6c94 1bbf 1053 23bf
000000e0: 2c40 17bf b953 18bf f9af 1ebf 97c8 18bf
000000f0: 9765 20bf 4fd1 29bf 1390 18bf 0ca8 2cbf
00000100: 7f30 23bf eaff 61bf 1455 65bf dd56 63bf
00000110: 662d 3cbf 59d9 2fbf dfeb 26bf d845 21bf
00000120: 16ae 1bbf 90f0 25bf 8877 22bf d294 1dbf
00000130: 7352 28bf 2cde 25bf 86d6 19bf 90d3 2fbf
00000140: 57b9 1fbf 95a8 2bbf 879d 26bf 359e 26bf
00000150: 16bc 2bbf f02b 21bf b451 21bf d6bd 23bf
00000160: 53b7 23bf 2b44 1dbf 0ac8 19bf 664a 2bbf
00000170: 791c 23bf fa4d 1fbf 14a9 25bf dc5e 24bf
00000180: d398 1bbf c301 3dbf daba 35bf ac09 34bf
00000190: ab61 19bf 0627 26bf a55d 22bf 6a0e 20bf
000001a0: ffdf 22bf 6d69 23bf fc3b 26bf 395d 20bf
000001b0: f757 21bf 7ba2 22bf a495 1cbf 4efe 20bf
000001c0: e434 1bbf 64aa 1ebf 6b0f 1cbf b67a 23bf
000001d0: 7577 2fbf ca77 24bf f005 2cbf 49ec 25bf
000001e0: 85df 23bf 674e 22bf 7624 22bf 5b90 2cbf
000001f0: 97cd 25bf 0b49 2abf 26da 1dbf 5bf7 18bf
00000200: 5696 18bf db5a 40bf 7632 18bf b793 1fbf
00000210: f9ac 1bbf 3ab2 36bf 4f48 4abf a8d1 45bf
00000220: 6378 39bf 1e16 42bf 5f25 1dbf 1048 26bf
00000230: 9f09 3ebf 1f57 3cbf 4cde 2dbf b85a 40bf
00000240: 9559 3dbf 8a94 38bf 018f 2dbf 883b 38bf
00000250: b96b 3dbf 8dc3 28bf c8ac 33bf 463f 32bf
00000260: 77a8 2ebf 06de 2fbf dafd 26bf 9c7f 31bf
00000270: e092 2dbf a244 30bf f802 27bf 1a6d 31bf
00000280: 35cb 21bf 8cf2 4abf 8a5f 15bf 6385 11bf
00000290: 9602 15bf 186b 29bf ef33 32bf e15b 39bf
000002a0: f7ef 39bf ce84 35bf 10e4 2fbf 0415 35bf
000002b0: c313 3abf 374c 2bbf dac6 38bf 0609 2bbf
000002c0: d5df 3bbf 6884 37bf b38a 36bf 5078 38bf
000002d0: 20d7 31bf 71c9 33bf 26df 35bf ac85 35bf
000002e0: 4cae 39bf 7f07 32bf 3b89 2bbf 17b9 29bf
000002f0: 669d 2fbf b4d0 37bf 3abe 34bf 4f61 3cbf
00000300: c70b 2fbf 2510 0abf f3e0 1abf 7ea2 34bf
00000310: 5679 3abf 9358 3cbf 6b9d 38bf fc9a 3cbf
00000320: f3d0 34bf d594 37bf b9a0 35bf a3d6 34bf
00000330: d548 24bf f6f5 35bf 1009 2cbf a96e 38bf
00000340: 1c95 35bf 3232 31bf a42d 2dbf 3243 2bbf
00000350: 706f 2fbf 7214 2ebf 556f 2dbf 6e3c 31bf
00000360: c7df 2ebf 3f9b 37bf 12b1 28bf 7054 26bf
00000370: 92fc 33bf 4b15 2bbf e888 24bf 886c 39bf
00000380: 61c5 14bf 1567 38bf 5425 4ebf 6f78 47bf
00000390: 6a6c 37bf f7f6 28bf 8cba 47bf 9557 3ebf
000003a0: ac01 33bf 0712 31bf efa8 29bf 2141 31bf
000003b0: 5a28 28bf 189b 2dbf 5ac5 26bf 6d8d 2bbf
000003c0: 7759 2fbf 6f0f 2abf 04a1 2abf ae64 2cbf
000003d0: 478d 25bf 3387 28bf 6de4 2fbf b481 2fbf
000003e0: bc52 2abf 7c02 2cbf 147c 2dbf 02b2 33bf
000003f0: 8464 28bf e93a 33bf 85c1 2fbf f74b 31bf
-0.64020586 -0.75352883 -0.66470563 -0.71232206 -0.7437621 -0.82439643 -0.76306534 -0.76894516
-0.798894 -0.71842676 -0.7331427 -0.7171261 -0.7207166 -0.67986447 -0.7115395 -0.68650705
-0.68993163 -0.69583386 -0.6687513 -0.6952255 -0.6829499 -0.6657201 -0.6968915 -0.66044384
-0.67453474 -0.6691761 -0.7030411 -0.7036003 -0.6852764 -0.7021125 -0.70296365 -0.6705365
-0.58180135 -0.74945605 -0.6148883 -0.72484237 -0.76518744 -0.8445893 -0.7504747 -0.77588564
-0.8085594 -0.788269 -0.84750074 -0.7994056 -0.76665694 -0.68098706 -0.6758561 -0.6724194
-0.65215933 -0.6081393 -0.6301104 -0.6322932 -0.6151907 -0.6535808 -0.6077335 -0.6379862
-0.59082294 -0.5950275 -0.6198726 -0.59681076 -0.62655014 -0.66335005 -0.5959484 -0.6744392
-0.63745874 -0.8828112 -0.89582944 -0.8880442 -0.7350677 -0.6869102 -0.6520366 -0.629972
-0.6081251 -0.64820194 -0.6346364 -0.61555207 -0.6575081 -0.6479213 -0.6009296 -0.68682194
-0.6239218 -0.6705411 -0.6508412 -0.65085155 -0.6708387 -0.6295767 -0.63015294 -0.6396154
-0.63951606 -0.6143214 -0.6007086 -0.669104 -0.6371532 -0.6222836 -0.6471112 -0.64207244
-0.60780066 -0.73830813 -0.7098824 -0.7032726 -0.59914654 -0.64903295 -0.6342414 -0.62521994
-0.6362304 -0.6383274 -0.6493528 -0.62642246 -0.6302485 -0.63529176 -0.61165833 -0.6288804
-0.6062758 -0.61978745 -0.60961026 -0.6385912 -0.6854165 -0.64245284 -0.6719656 -0.6481367
-0.6401294 -0.6340088 -0.63336885 -0.6740777 -0.6476683 -0.66517705 -0.61660993 -0.59752434
-0.59604394 -0.75138634 -0.59452 -0.6233477 -0.6081081 -0.713657 -0.79016584 -0.77273035
-0.7244932 -0.75815 -0.6138515 -0.6495371 -0.7423343 -0.73570436 -0.67917323 -0.75138426
-0.73964816 -0.7210165 -0.6779633 -0.7196584 -0.73992497 -0.65923387 -0.7018552 -0.696278
-0.68225807 -0.68698156 -0.65231097 -0.6933534 -0.6780224 -0.68854725 -0.65238905 -0.693071
-0.63200694 -0.7927635 -0.58348906 -0.56844157 -0.5820707 -0.6617904 -0.69610494 -0.7240582
-0.7263178 -0.7090577 -0.6870737 -0.7073519 -0.72686404 -0.6691317 -0.72178423 -0.66810644
-0.73388416 -0.7168641 -0.7130539 -0.7205858 -0.6946888 -0.7022925 -0.7104362 -0.7090709
-0.7253158 -0.6954269 -0.6700627 -0.6629805 -0.68599546 -0.7180283 -0.7060276 -0.7358598
-0.68377346 -0.53930885 -0.60499495 -0.70560443 -0.72841394 -0.73572654 -0.721152 -0.7367399
-0.7063133 -0.71711475 -0.7094837 -0.7064001 -0.6417363 -0.7107843 -0.6720133 -0.72043854
-0.7093065 -0.69217217 -0.6764777 -0.66899407 -0.68529415 -0.6799995 -0.67748004 -0.69232833
-0.6831021 -0.7172126 -0.6589519 -0.6497259 -0.70307267 -0.66829365 -0.642714 -0.7243123
-0.58113676 -0.7203229 -0.8052571 -0.7791814 -0.716498 -0.6600184 -0.7801902 -0.7435239
-0.69924426 -0.6916813 -0.662734 -0.69240004 -0.6568657 -0.6781478 -0.65144885 -0.67012674
-0.6849589 -0.664298 -0.6665194 -0.67341125 -0.646687 -0.658313 -0.68707925 -0.68557286
-0.6653249 -0.6719129 -0.67767453 -0.70193493 -0.65778375 -0.70011765 -0.6865466 -0.6925654

A_imag f4 [128, 32]
00000000: 6602 11bd 0eff 4540 ff24 c440 b936 1441
00000010: 49ca 4541 8b55 7641 2dff 9241 ca52 ac41
00000020: b9ec c441 1fa4 dd41 4c29 f641 9d4d 0742
00000030: 0208 1442 de40 2042 c742 2c42 69ce 3842
00000040: 3f54 4542 5c3a 5142 f9e5 5d42 d61d 6a42
00000050: 0f8c 7642 b563 8142 eb75 8742 91b0 8d42
00000060: 95c5 9342 fa0c 9a42 1429 a042 b23e a642
00000070: 7e75 ac42 c1b7 b242 c4da b842 2700 bf42
00000080: 97b7 c13d c14a 4b40 a932 c740 fd5f 1241
00000090: 1a44 4541 2d2c 7841 14a8 9441 d00f ac41
000000a0: 9d03 c541 868e dd41 2cd7 f641 73e3 0742
000000b0: eed6 1342 b359 2042 0baa 2c42 df0a 3942
000000c0: 3921 4542 c1dc 5142 c3f2 5d42 ec24 6a42
000000d0: b770 7642 4868 8142 499b 8742 63e1 8d42
000000e0: 50be 9342 c007 9a42 0415 a042 7c51 a642
000000f0: a76b ac42 54c2 b242 8ed1 b842 b90f bf42
00000100: ff9b 213d 6248 5240 af07 c040 0f79 1241
00000110: f5ea 4541 7823 7641 235f 9341 0d2d ac41
00000120: 2a90 c541 cc37 de41 6ac9 f641 139f 0742
00000130: b714 1442 f222 2042 157b 2c42 2cb8 3842
00000140: c922 4542 246c 5142 c900 5e42 be2b 6a42
00000150: 2a7d 7642 5a6c 8142 bf8d 8742 dab5 8d42
00000160: d3d7 9342 9b13 9a42 8f4e a042 314f a642
00000170: 6c93 ac42 b2b3 b242 9dcc b842 eae3 be42
00000180: 3859 8dbd 83d8 4040 d44d c340 624f 1541
00000190: 4ff6 4341 ed31 7541 c39c 9341 3687 ac41
000001a0: 3e37 c541 2b1b de41 7a04 f741 a4c1 0742
000001b0: aded 1342 43fc 1f42 b989 2c42 0323 3942
000001c0: 0429 4542 db52 5142 7992 5d42 733d 6a42
000001d0: 6471 7642 717d 8142 237f 8742 c9cb 8d42
000001e0: aacc 9342 62fd 9942 652d a042 3b51 a642
000001f0: f28a ac42 3cb3 b242 26da b842 15f6 be42
00000200: 7a0e 76bd 196b 4140 2147 c640 5b57 1441
00000210: 33a0 4541 5823 7741 cec1 9341 4c85 ac41
00000220: d2d3 c541 e0d0 dd41 9f6f f641 cd4f 0742
00000230: 68c3 1342 d83b 2042 7a97 2c42 01d3 3842
00000240: 5a44 4542 a846 5142 cdbc 5d42 1f12 6a42
00000250: adb5 7642 8264 8142 9175 8742 8bbc 8d42
00000260: 99d6 9342 540c 9a42 0931 a042 bb58 a642
00000270: 9d8a ac42 e9b6 b242 08d7 b842 19fa be42
00000280: 672d 37bd 96c8 4740 4797 c640 dd78 1441
00000290: f23b 4541 27cd 7741 3adf 9341 c7e5 ab41
000002a0: bff8 c441 4329 de41 3a7f f641 e95f 0742
000002b0: 7eae 1342 653b 2042 2164 2c42 cdce 3842
000002c0: b250 4542 2660 5142 5ced 5d42 6f2a 6a42
000002d0: 424a 7642 ed75 8142 9f9f 8742 38af 8d42
000002e0: 99db 9342 b603 9a42 292c a042 aa68 a642
000002f0: 927f ac42 74ad b242 bad8 b842 f80b bf42
00000300: bbe3 0cbc c967 3a40 fb1b c840 35fc 1341
00000310: 3aa6 4441 0583 7641 3aa9 9341 a8a8 ac41
00000320: 599b c541 75d8 dd41 11e6 f641 5154 0742
00000330: 24b1 1342 df4b 2042 4693 2c42 dfd1 3842
00000340: 1f34 4542 1c5b 5142 275c 5d42 c442 6a42
00000350: a26a 7642 e869 8142 218f 8742 769c 8d42
00000360: 58e5 9342 c936 9a42 6629 a042 7473 a642
00000370: 767c ac42 8cac b242 96ce b842 5005 bf42
00000380: aef4 d0bd 6da4 4240 d435 c440 96ce 1541
00000390: 5e0f 4441 1c2f 7741 c366 9341 13ee ab41
000003a0: f7df c441 5514 de41 8a4f f641 ada4 0742
000003b0: 93b6 1342 462e 2042 d96c 2c42 f1bd 3842
000003c0: 1626 4542 a077 5142 9ecf 5d42 8a1b 6a42
000003d0: e885 7642 6d55 8142 7986 8742 04b6 8d42
000003e0: ffd7 9342 3805 9a42 df29 a042 1e4f a642
000003f0: 5684 ac42 3da6 b242 5fc8 b842 7f06 bf42
-0.035402678 3.0936923 6.129516 9.26336 12.361886 15.3958845 18.374598 21.540424
24.615587 27.705137 30.770164 33.825794 37.00782 40.063347 43.065212 46.201572
49.33227 52.30699 55.474583 58.529137 61.636776 64.69474 67.73031 70.84486
73.8859 77.025345 80.08023 83.12245 86.22948 89.358894 92.42728 95.5003
0.09458845 3.1764376 6.224934 9.148435 12.329126 15.510785 18.58207 21.50772
24.626764 27.694592 30.855064 33.97212 36.959892 40.087597 43.166058 46.260616
49.282444 52.46558 55.487072 58.536057 61.610073 64.703674 67.80329 70.94021
73.871704 77.01514 80.041046 83.15915 86.21026 89.37955 92.40929 95.53071
0.03945541 3.285668 6.000938 9.154555 12.369863 15.383659 18.421453 21.521997
24.695393 27.777245 30.848347 33.905346 37.02023 40.034126 43.120197 46.179855
49.28397 52.355606 55.500767 58.542717 61.62223 64.711624 67.77685 70.85518
73.92153 77.03829 80.153435 83.15467 86.28793 89.35097 92.399635 95.445145
-0.06901783 3.0132148 6.1032505 9.331881 12.247634 15.324689 18.451544 21.566021
24.651974 27.763266 30.877186 33.939102 36.982105 39.99635 43.134495 46.28419
49.290054 52.330914 55.39304 58.56001 61.610733 64.745 67.748314 70.89802
73.899734 76.99489 80.08866 83.15865 86.27138 89.35007 92.42607 95.48063
-0.0600724 3.0221617 6.1961827 9.271327 12.351611 15.446129 18.469631 21.565086
24.728428 27.72699 30.804502 33.82793 36.940826 40.05844 43.147926 46.20606
49.31675 52.319 55.434376 58.517696 61.677418 64.696304 67.72962 70.86825
73.919136 77.02408 80.09577 83.1733 86.27073 89.35725 92.41998 95.48847
-0.044721033 3.1216178 6.2059665 9.279508 12.327135 15.487586 18.483997 21.487196
24.621458 27.770147 30.812122 33.843662 36.920403 40.058002 43.097782 46.201954
49.328804 52.343895 55.481796 58.54144 61.572517 64.73032 67.81176 70.842224
73.9289 77.00725 80.08625 83.20442 86.24916 89.338776 92.423294 95.52338
-0.008599217 2.9125845 6.2534156 9.249074 12.290583 15.406987 18.45763 21.582352
24.700853 27.730692 30.862337 33.83234 36.92299 40.074093 43.14382 46.204952
49.3009 52.338974 55.339993 58.5652 61.604134 64.70685 67.77955 70.80559
73.94794 77.107 80.08086 83.225494 86.24309 89.337006 92.40349 95.510376
-0.10202919 3.0412858 6.131571 9.362936 12.253752 15.449001 18.425177 21.491247
24.609358 27.759928 30.788837 33.910816 36.928295 40.04519 43.106297 46.18549
49.287193 52.36682 55.45275 58.526894 61.630768 64.66685 67.76264 70.8555
73.92187 77.01019 80.08178 83.154526 86.25847 89.324684 92.39135 95.51269

weight f4 [256, 128, 1]
00000000: 1131 71bc 9156 a33d c51f df3c 7019 86bd
00000010: 7354 acbc 7c95 963c 3fa2 80bd 2e73 bbbc
00000020: 3667 1cbc e70e 66bd 5225 803d f608 23bd
00000030: e069 fe3d 461f 87bd c9aa ae3d 0310 b23c
00000040: 3ff0 25be 6373 2f3d 537e 2fbd 332b 6d3d
00000050: 0619 723c 0a45 8cbc a452 bebd ffff c9bd
00000060: 6ace 183d 99af 05bd 6261 6ebd a06d f83d
00000070: 1f1d 663d 7ed9 4b3d 5c1c 0e3e fb63 8fbd
00000080: a073 e93b 0710 ad3b d07d 9b3d e51a 46bd
00000090: c2b3 0d3d 1ddc 423d 3afd 05bc 3d49 34bd
000000a0: ed97 58bd 82c6 cdbc 225a 9a3c ef59 203d
000000b0: b200 033c 98cd 623d 18dd 313d 01fd bfbc
000000c0: b8ac 21bc 9b44 e63d ffc3 613d af65 7fbc
000000d0: 24a3 0f3d 1834 3c3d ed2a 863d b890 463c
000000e0: ed9e 37bd 9950 89bd f7cb 173c 7693 033d
000000f0: b00c 393e e5f8 143e 776b da3c d7c2 1b3d
00000100: 0d1a 153d a687 593d 6e79 88bd 8abf aebd
00000110: 369c 0dbd 6af4 75bd 2595 203d 2fc1 cbbc
00000120: e6f0 0f3d 1aea 53bd baa3 f53d d60a 403d
00000130: ffb5 9fbd 88a6 90bd 5040 69bd 658d d63c
00000140: a0a7 053d 5318 643d d63c c03d ebae a3bb
00000150: 16ed 8f3e ff43 82bd 7170 573d 749d dc3c
00000160: 055b 123d ec07 153d 57a5 0e3c e157 80bd
00000170: 8f59 65bc 00f0 05bd 107c 193e c613 42bc
00000180: 0374 d63d 08fb 313c 4f67 9a3c ba7b 81bd
00000190: f6c0 cbbd c846 babd b20a 613d 5bc5 c9bd
000001a0: 2e1f 313d ceba 9f3d aa2a 5ebb 4fa3 62bc
000001b0: 0806 153e f7b2 b1bd 0c2e afbd 1fbb d43b
000001c0: 6a24 f43d de1f 463e 45d0 adbb 7b3a 543d
000001d0: e5c7 ef3c 2a7d 003d 3499 983d 1840 583c
000001e0: f369 783b 7e68 373d 1c75 e93b a6cd c2bc
000001f0: 01d9 4f3d cc72 a6bd 373c a7bd 388c 52bd
00000200: 675b 673d 72df 71bd 602c 8d3d e811 6fbd
00000210: 7fe9 473d 3124 b83d 1f99 883d 3ae1 803d
00000220: 9178 383d cc56 9fba 89cf 0f3d 1306 713c
00000230: 3ef5 09bd 2824 663d a44f 88bd b48e 833d
00000240: 91d0 063d ca6e 3a3e 7575 93ba 394c 733d
00000250: 6806 003e cb9d c2bd da9e 633d 1383 fe3b
00000260: 91d0 aebd ebd6 49bd 94b6 1e3c 7b8d 4d3e
00000270: bc60 83bd 5af8 013d 03b1 0a3d 1057 f8bd
00000280: 2f21 343d ee4c 19bd 8b0d ee3c 7747 04bd
00000290: 192c 1d3e 3eba 44bd f129 2b3d a408 4dbd
000002a0: d5e2 623d 3b36 d13c 0c7f 81bd 1db9 2abd
000002b0: 194a ee3c 9d3b fa3c b4ce 4ebd 2dbc 953d
000002c0: 0f51 01bd 7394 b93c 2495 693d 77d6 d93d
000002d0: 3c51 4f3c bbe4 2a3d 02c3 9fbd 6334 b33c
000002e0: 35dd 733d 01b6 c53c 13d2 eb3b a6c4 723d
000002f0: 73ca 553d b339 173e edbc 153d 1bf2 df3d
00000300: f2ea 543d 795c 663d 2a16 8bbd b01c 6a3b
00000310: 1c0b 99bc 24a8 aebc 15ca 993c bd32 05bd
00000320: 52bf eebc 2394 e73d 30a8 81bc e9ad 283d
00000330: 4701 9cbd 32c3 aabb 053a 1dbd f121 a53d
00000340: 8c5f cabd 7d81 8ebd 7cda 0bbd f362 72bc
00000350: 5808 3d3e b610 333d 306c 783c 3eb8 bcbd
00000360: 2f1a 35bd 8483 8c3d 4ce2 51bd 2e9e 7ebd
00000370: 9a6c af3c 5382 8d3d 1902 dfbc 9c20 c33d
00000380: b6a3 063e 330f 8e3c 5066 813d f321 193d
00000390: c565 843c b5f5 573d 178b e6bd c785 383d
000003a0: a141 e63d 1e45 f93c 587f ab3b dca9 35bc
000003b0: 58f2 ad3d 2fa2 c63c 5563 243d 3399 b93c
000003c0: d466 b63d 52cf a73d 945b a63d a1e2 53bd
000003d0: 16ce 42bd 6042 03bd f1d2 37bd 4ccb 423b
000003e0: 2046 36bc 4874 ba3c ba2a e7bd 181d 06bd
000003f0: a5bd ac3c 795b c1bc 6c01 033e e57b 80bd
-0.014721171 0.079754956 0.027236829 -0.065478206 -0.021036362 0.018381827 -0.06280946 -0.02288207
-0.009546092 -0.056166556 0.06257118 -0.039803468 0.12422538 -0.06597762 0.085286684 0.02173615
-0.16204928 0.04283465 -0.04284508 0.057902526 0.014776474 -0.017122764 -0.09293106 -0.098632805
0.037306227 -0.032638166 -0.05819834 0.12130284 0.056180116 0.049767964 0.13878006 -0.07001492
0.0071243793 0.0052814516 0.07592356 -0.048365492 0.03459526 0.047573198 -0.00817805 -0.044015158
-0.052879263 -0.02511907 0.018841807 0.039148267 0.007995771 0.05537185 0.043423742 -0.023436071
-0.0098678395 0.11243554 0.055118557 -0.015588208 0.035067692 0.045948118 0.06551156 0.012119465
-0.044829298 -0.06704826 0.009264938 0.03212305 0.18071246 0.1454807 0.026662571 0.03802761
0.036401797 0.05310788 -0.06663786 -0.08532627 -0.034572802 -0.060047545 0.039204735 -0.02487239
0.035141848 -0.05173693 0.11994119 0.046885334 -0.07798385 -0.07063013 -0.0569461 0.026190469
0.032630563 0.05568726 0.093866035 -0.004995217 0.2811057 -0.063606255 0.052597467 0.026930548
0.035731334 0.036384508 0.008706412 -0.062667616 -0.013998403 -0.032699585 0.14988732 -0.011845535
0.10471346 0.010863073 0.01884809 -0.06322427 -0.09948914 -0.09095532 0.05494184 -0.09852096
0.043242626 0.07799302 -0.0033899941 -0.013832881 0.14553082 -0.08676713 -0.085537046 0.006492033
0.11921008 0.19348094 -0.0053043687 0.051813584 0.029270122 0.031369366 0.07451096 0.013198875
0.0037904948 0.044777386 0.007124556 -0.023779701 0.05074406 -0.081273645 -0.08165782 -0.051403254
0.056483652 -0.059050985 0.068932295 -0.058366686 0.048806664 0.08991278 0.066698305 0.062929586
0.045036856 -0.0012156605 0.03511003 0.014710921 -0.033681147 0.056186825 -0.06655815 0.06423703
0.03291375 0.18206325 -0.0011250215 0.059398863 0.12502444 -0.09502753 0.055571415 0.00776709
-0.08535875 -0.049277227 0.009687085 0.20073502 -0.06414935 0.031730987 0.033860218 -0.12125981
0.04397696 -0.03742688 0.029059192 -0.032294717 0.15348853 -0.048029177 0.041788045 -0.05005707
0.055392105 0.025538554 -0.063230604 -0.041680444 0.029088067 0.030546004 -0.050490096 0.07311282
-0.031571444 0.022653794 0.057026997 0.10636609 0.012653645 0.04172204 -0.07800867 0.021875566
0.05953713 0.024134638 0.0071966737 0.05926957 0.052195024 0.14768104 0.036557127 0.1093485
0.051981874 0.056240533 -0.06791337 0.0035722665 -0.018682055 -0.02132041 0.018773118 -0.03251909
-0.029143963 0.11307552 -0.015827268 0.04118148 -0.07617431 -0.0052112574 -0.03838541 0.080631144
-0.09881505 -0.06958292 -0.03414391 -0.014794099 0.18460214 0.04371711 0.015162513 -0.09214829
-0.044214424 0.06861022 -0.051241204 -0.06216257 0.02141409 0.06909623 -0.02722268 0.09527704
0.13148388 0.017341232 0.06318343 0.037385892 0.016161809 0.05272456 -0.11256998 0.045049455
0.112429865 0.030428465 0.0052336864 -0.011087861 0.08493489 0.024247257 0.040133793 0.022656059
0.08906332 0.0819384 0.08122936 -0.051729802 -0.04755982 -0.032045722 -0.044878904 0.0029723225
-0.011125118 0.022760525 -0.11287446 -0.03274259 0.021086523 -0.023603188 0.12793511 -0.06273631

bias f4 [256]
00000000: 4a08 fe3c 9e9a 05bd 97d5 383b 9e11 c73d
00000010: 3e05 203d d4df 7e3d beec 3cbd 766a b13c
00000020: bd2e 8ebd 610f 4e3d 4f35 ab3d 2fd1 2cbd
00000030: 8d8e 3dbd 51b6 4cbc a883 993d 9260 9dbd
00000040: e604 91bc 0380 4abd f9fc e4bb d6b9 5b3b
00000050: 10b1 423c ae34 d03c bf06 07bd a672 01ba
00000060: 3497 0ebd 36be 6bbd 6f27 5dbd df21 2fbc
00000070: 3c2e 8b3d 390b c53d c5ba 9bbd 4fdb ef3c
00000080: 5cd8 a9bd c332 8b3d 61dc 443d d0bd bcbc
00000090: df48 c8bc 1568 1d3d 1efa 78bd 32e0 703d
000000a0: 6af3 ff3a 7ec9 f4bb 0ab0 d6bd 4fe1 89bd
000000b0: dd05 47bc fce6 89bb 10d1 1c3d 409d 263d
000000c0: 8510 923d 27a8 c13c 91e9 253d 4826 ec3c
000000d0: 76a9 663d c2a3 fabd 84fe 3d3d af96 453c
000000e0: 25a5 10bd 37fe f63b 9133 e6bc 6c2c 24bd
000000f0: 9a94 033d a80b 8a3c aed3 4a3c 4afb 833d
00000100: c25c 8cbd 9ec9 a33d 69c0 67bc c2d9 b1bd
00000110: 5561 bcbb 432a 583d f45c cfbd 9965 cbba
00000120: 1f0a 8f3d 03e0 a63b 033b 913d 05d7 24bd
00000130: 2e48 903d 71de bf3c 1fdf e03d daef b53d
00000140: dcb6 0fbd 7c83 5ebd 231f 22bc 78dd 87bd
00000150: eabb e1bb 8b96 743d 267c 13bd ca45 1fbd
00000160: 9817 a6bd a343 e0ba 1351 723d fdf9 12bd
00000170: 9c29 f03c edd2 333b 0181 92bd 0c6a 3d3d
00000180: bc56 a83d a835 553d 83c9 d4bc 5bf5 3e3d
00000190: f0af 663d 4016 e8bb bbbc c7bd afd3 683c
000001a0: 2b0e 31bc e229 553d 2828 15bc 6c54 8c3c
000001b0: 4c9b 11bd 6052 843d fa58 cfbd 888f 6e3d
000001c0: f28d bdbd d21a 213e 94a5 bfbd f8bd d63c
000001d0: b2a7 29bd b57a 01bd e093 75bb aa11 78bd
000001e0: c6f6 92bd 2639 3f3d 1d49 4c3a dcb6 31bd
000001f0: af12 a6bd 8941 edbd f92e 90bd 948d 463d
00000200: ddf4 46bd 1221 983d 7f51 d53d b94e 1cbc
00000210: 351f 22bd c60a 803c d395 ab3b 9dda 22bc
00000220: daaa 2e3d bbad 9a3d ab16 953d 2e33 0d3e
00000230: 4585 0dbd b82f 2abd 9b69 a73d b215 57bb
00000240: 88ea a8bd 4ca1 753c 261f d2bc a738 533d
00000250: 72a1 94bd b5c5 d7bc c2b8 7337 90c1 6cbc
00000260: 6d88 65bd 4330 203d 1b1f 453d 6dc8 a1bd
00000270: 04ac 5f3d 5d07 273d 57cf 3cbd 19af 64bd
00000280: be71 a2bd 2521 633d e05d 273c 4122 a03c
00000290: 8cef b8bd c7f4 afbc 16f9 ac3a d1a9 433b
000002a0: 448c 9e3c 82de 77bd 075d 05be 5811 7f3d
000002b0: 8f80 c53d 7f4b dfbb 96d3 543d 753a 053d
000002c0: 23c3 4b3b 9806 afbc 2ec7 1cbc 51e5 b83d
000002d0: 8096 ec3c 85d6 23bc 87bb 903d 5c19 c8bd
000002e0: 27c2 11bd 6773 1d3c 6da5 7ebb 98b9 523c
000002f0: e428 55bd 04f6 ac3b 5cd3 873d b5cf cd3d
00000300: 9c7f 733d ff7d a13d fce9 9c3d 5367 6c3d
00000310: cb46 08bd 20dc b73b e5af 1abe 877d 4ebd
00000320: 7c89 973d 8883 97bd d3a7 2abd 626e 4f3d
00000330: e3e7 793c fd04 9d3d 81b9 1a3d d10a 38bd
00000340: d638 58bb def8 9b3d 90d2 c9bd adab f43c
00000350: e00a 363d 2ac3 3a3c 4675 bcbd cc09 7c3d
00000360: d59f a53d ce7c 463d 46b8 b23d d2bd ac3d
00000370: d4d6 733d eb60 66bd f2aa d43b 8ef2 063c
00000380: ab22 8b3d ec31 36bc 7daa c23d 8fc9 0dbe
00000390: 1429 d5bd 74b1 68bd 4cdb e73c b300 273d
000003a0: 0deb c03d 1c38 ebbc a361 43bd 4ef6 a53c
000003b0: 35b5 0c3d 5601 9d3d 6cf3 32bc ee01 17bd
000003c0: eff0 363e ad8f 923c aa60 2dbd d0b7 bebd
000003d0: 25eb d43c f36d 83bd acf6 5ebd 03e0 3f3c
000003e0: 88e9 30bd 80b6 1f3c 15a6 73bd 427c fd3c
000003f0: 9327 b8bd 1a7a 463c 0793 96bd b892 edbd
0.031009812 -0.032618158 0.0028203481 0.09720157 0.0390675 0.062225178 -0.046124212 0.02165721
-0.06942508 0.050307635 0.08359777 -0.04219168 -0.046278525 -0.0124946395 0.074958146 -0.07684435
-0.017702531 -0.049438488 -0.0069881645 0.0033527515 0.011883035 0.025415745 -0.032965418 -0.00049380434
-0.034812167 -0.057554446 -0.053992685 -0.010689228 0.06795928 0.09621281 -0.07603983 0.02927938
-0.082932204 0.067967914 0.048061732 -0.023039728 -0.02444881 0.03842934 -0.060785405 0.05880756
0.0019527499 -0.007470309 -0.104827955 -0.06732427 -0.012147394 -0.0042084437 0.038285315 0.04067731
0.07132057 0.023639752 0.04050595 0.028826848 0.056313954 -0.122382656 0.046385303 0.012059852
-0.035313744 0.007537629 -0.02810076 -0.040081427 0.03212414 0.016851261 0.01237957 0.06444414
-0.0685363 0.0799744 -0.014144995 -0.08684112 -0.0057489076 0.05277468 -0.10125151 -0.0015517949
0.06984352 0.0050926222 0.07091334 -0.04024412 0.07045017 0.023421498 0.10980057 0.08883639
-0.035086498 -0.054324612 -0.009895119 -0.06634039 -0.006888856 0.05971388 -0.03600707 -0.038884915
-0.08109969 -0.0017110001 0.05915935 -0.03588294 0.029316716 0.0027438954 -0.07153512 0.046243712
0.08219668 0.052053124 -0.025974995 0.046620708 0.05632013 -0.0070827305 -0.09752794 0.014210626
-0.010806601 0.052041896 -0.009103812 0.0171301 -0.035548493 0.06461024 -0.10124393 0.05824235
-0.092555895 0.15732887 -0.093577534 0.026213631 -0.041419692 -0.031611163 -0.0037472174 -0.06056372
-0.071759745 0.04668536 0.0007792877 -0.04338728 -0.08109032 -0.115847655 -0.07040209 0.048474863
-0.048573364 0.07428183 0.10415935 -0.009540253 -0.039580543 0.015630137 0.0052363663 -0.009939817
0.042643405 0.07552668 0.07279714 0.13789055 -0.034550924 -0.041549414 0.081744395 -0.0032819328
-0.08247858 0.014992069 -0.025649618 0.0515677 -0.07257356 -0.026339391 1.4526946e-05 -0.014450446
-0.05603831 0.039108526 0.048125368 -0.07899556 0.054607406 0.040778507 -0.046096172 -0.05583105
-0.07931851 0.05545153 0.010215253 0.019547584 -0.09030065 -0.021479024 0.0013196792 0.0029855857
0.019353993 -0.060514934 -0.13023768 0.0622724 0.09643661 -0.0068144198 0.051959597 0.032526452
0.0031091652 -0.021365449 -0.0095689725 0.09028114 0.028880358 -0.009999876 0.07067018 -0.09770462
-0.03558555 0.009610034 -0.0038855926 0.012861632 -0.05204095 0.005278351 0.066321105 0.100493826
0.05944787 0.0788536 0.076618165 0.057715725 -0.03327064 0.0056109577 -0.15106161 -0.05041268
0.0739927 -0.073981345 -0.041663956 0.05064238 0.01525304 0.07666967 0.037774567 -0.04493219
-0.0032992861 0.07615827 -0.09854615 0.029867018 0.044443965 0.01139907 -0.09202056 0.06153278
0.08087126 0.048458867 0.087265536 0.08434643 0.059531048 -0.056244772 0.006490105 0.0082365405
0.06793722 -0.011120301 0.09505174 -0.1384642 -0.10408226 -0.056809857 0.028302811 0.04077215
0.094198324 -0.028713278 -0.047700536 0.020259049 0.0343525 0.076662704 -0.010922294 -0.036867075
0.17865346 0.017890776 -0.042328514 -0.09312403 0.025991032 -0.064174555 -0.054434463 0.011711123
-0.043191463 0.009748101 -0.05948456 0.03094304 -0.08991923 0.012114072 -0.07352262 -0.1160025

D f4 [128]
00000000: 7287 a3be 61d0 aebf 24e0 523e 150d 0c3f
00000010: b14b 9fbf 14f1 8cbf d857 0c40 57ec 823f
00000020: ac4c 41c0 1b83 653b 6598 06c0 a94e bb3e
00000030: a722 b1be 2f0b f1bd ab2f a33f 0f51 b4be
00000040: 722d 0a3e 33d7 74be 34bf ba3e 08cb 8bbf
00000050: 8cf3 9e3f 093c 0e40 97fa 6f3e 5a09 a1bf
00000060: 55be dcbe 1bef 84bf aad5 51be dd8b e5bd
00000070: 03cb 243d cf4d 38bf 3415 83bf f86c 5ebd
00000080: 7531 fcbf a024 e43e 9c9b 823f 70cd 40bd
00000090: 2d11 99bd aff8 49bd b00b 3cbf 2564 ae3f
000000a0: 738d 3bbf d934 53bf 2b71 463f 9ced b83d
000000b0: ff63 85bf caac 9cbf cc80 4c3f 91ca 6f3f
000000c0: 9178 fb3e a67d 673f b74d 9abe d396 863f
000000d0: 9bfe 08c0 487a bc3f b903 cebf 2267 88be
000000e0: 312b b1bd 939e 3dbe 720f 343f f87b 4b3f
000000f0: c45c 42bf 5c64 bebe 41ac f63e c944 2640
00000100: 5d49 083f 379f bcbf 60a8 4bbd 690c a43f
00000110: f97a 253d ab80 53bf d5e3 e53e 21c8 fa3f
00000120: 4b5e 05bf 70e3 81bf e7a0 f33e 7f12 333f
00000130: 4c44 853e 44e5 e83f 18b1 9dbe 0f45 0d3f
00000140: 8a32 1abf b73c 6d3f af5e c9be 15a7 82bf
00000150: 4538 3d3d 420e 69bf 6b48 2bbf cc86 853f
00000160: bd53 623d aa6e acbf 7e4b 4340 8fc2 b33e
00000170: 34fe a5bf 652b dc3c 7022 05be 351f 17bf
00000180: a305 7fbe e3c0 9d3d e8bd 05bf 0750 1cbf
00000190: 4ac6 223d e984 40be 7286 1ebf 84f0 d4bf
000001a0: 3e2b 13bf 008b bfbe 7de5 773f 8d9f c1bd
000001b0: 8764 323f b3d8 1a3f 9d79 a1be af47 34bd
000001c0: 23d6 193f 0790 22be 44af f43f b976 e9bc
000001d0: b535 77bf f76e cabe d53d 0e3f 3fcf c13d
000001e0: 95b5 1c3f f2c8 ca3f 81a9 893e 6c36 793f
000001f0: 0cd8 4f3f 9c35 c03e 335b 683f 0ee1 50bf
-0.31939274 -1.3657342 0.20593315 0.5470746 -1.2444974 -1.1011071 2.1928616 1.0228375
-3.0203047 0.0035020772 -2.1030514 0.3658345 -0.3459675 -0.11769711 1.2748922 -0.35218093
0.13493899 -0.23910217 0.36474 -1.0921335 1.2418075 2.2224143 0.23435436 -1.2580979
-0.43113962 -1.0385469 -0.20491663 -0.112083174 0.04023267 -0.71993726 -1.0240846 -0.05430314
-1.9702593 0.44559193 1.0203738 -0.04707092 -0.07473979 -0.04930943 -0.73455334 1.3624312
-0.7326271 -0.82502514 0.7751643 0.090296954 -1.0421141 -1.2240231 0.7988403 0.93668467
0.49115422 0.904261 -0.30137417 1.0514778 -2.14054 1.4724817 -1.6094886 -0.26641184
-0.08650816 -0.18517523 0.7033607 0.79486036 -0.759228 -0.37185943 0.48178294 2.5979483
0.53236943 -1.4736089 -0.04972112 1.2816287 0.04040048 -0.82618207 0.44900385 1.9592324
-0.52097005 -1.0147533 0.47583696 0.699501 0.2602867 1.8194966 -0.30799174 0.551835
-0.60233366 0.9267077 -0.3933005 -1.0207239 0.04619624 -0.9103738 -0.66907376 1.0431762
0.05525564 -1.3471272 3.0514827 0.35109374 -1.2968202 0.02687616 -0.13001418 -0.59031993
-0.24904494 0.07702806 -0.522429 -0.6105961 0.039739884 -0.18800701 -0.619239 -1.66359
-0.5748786 -0.37410736 0.96834546 -0.0945426 0.6968464 0.60486907 -0.31538096 -0.044013675
0.6009237 -0.15875255 1.9115987 -0.028498994 -0.96566325 -0.39537784 0.555631 0.09463357
0.6121457 1.5842574 0.26887134 0.97348666 0.81189036 0.375409 0.9076416 -0.81593406
