gwak/output/S4_SimCLR_multiSignalAndBkg_NF_onlyBkg/model.pt (torch, 732063 bytes, 73 tensors)

weight f4 [64, 8]
0	0x3e53a391	0.20667864
1	0x3e3a1182	0.18170741
2	0x3c693e65	0.014236067
3	0xbdae2803	-0.085037254
4	0xbe8ff1bf	-0.28114125
5	0xbe9f2a07	-0.31086752
6	0xbea30577	-0.31840107
7	0xbd4c2ba7	-0.049846318
8	0x3e567280	0.20942116
9	0x3e61629c	0.22010273
10	0xbd2229d7	-0.039590683
11	0x3a9b8d6d	0.001186771
12	0xbb9caefc	-0.004781602
13	0x3dfb9b87	0.12285524
14	0xbdd32df5	-0.103115
15	0x3c8e0f35	0.017341236
16	0xbe2e22b6	-0.17005429
17	0xbe057251	-0.1303189
18	0xbeaeeef4	-0.34166682
19	0x3d989f62	0.07452275
20	0x3ccb64f5	0.024828414
21	0xbe32de14	-0.17467529
22	0xbdf5ed4c	-0.120081514
23	0x3e44e591	0.19228198
24	0xbd6db350	-0.058032334
25	0xbd030f7d	-0.031997193
26	0x3ec244dc	0.3794316
27	0x3e441237	0.19147573
28	0x3c660560	0.014039367
29	0xbe3766ad	-0.17910261
30	0x3eace8c2	0.3377133
31	0x3da1075a	0.0786273
32	0x3e84ab5a	0.2591198
33	0x3deab30c	0.11459932
34	0x3e56bc90	0.20970368
35	0xbe279577	-0.1636561
36	0x3eacd83c	0.33758724
37	0x3b5fbf2f	0.0034141054
38	0x3e9de69f	0.30840012
39	0x3e85eada	0.2615574
40	0x3ddfd10c	0.109285444
41	0x3e8c8f22	0.27452952
42	0xbe732592	-0.237448
43	0x3ea2b1dc	0.3177632
44	0x3dc13193	0.09433284
45	0xbd6f9659	-0.058492992
46	0xbe1b8d59	-0.15190639
47	0xbd0dd2aa	-0.034624733
48	0x3e17d041	0.14825536
49	0xbea7005b	-0.3261746
50	0xbeb80fef	-0.35949656
51	0x3c90e769	0.01768847
52	0xbee5e0e1	-0.4489813
53	0xbe5fde12	-0.21862057
54	0x3e046bae	0.12931702
55	0xbe440ab7	-0.19144712
56	0x3e16c378	0.14723003
57	0xbea6effb	-0.32604966
58	0xbc173ced	-0.009230834
59	0x3cbd25e0	0.02308935
60	0x3e6c5022	0.23077443
61	0xbc52195f	-0.012823432
62	0x3d4b04ca	0.049565114
63	0x3e957507	0.29190847
64	0xbddc8c7f	-0.10768985
65	0x3e917bec	0.28414857
66	0x3de4994e	0.11162053
67	0xbdf94e33	-0.121731184
68	0xbe0237ff	-0.12716673
69	0xbe927e4f	-0.2861199
70	0xbd2fa825	-0.042884964
71	0x3c16571d	0.009176043
72	0x3e73c97a	0.23807326
73	0xbdde45c2	-0.10853149
74	0x3b6d9ede	0.0036258022
75	0xbe8f4a87	-0.27986547
76	0x3dcdffe4	0.10058573
77	0xbe327c44	-0.17430216
78	0xbdd49c16	-0.103813335
79	0xbe0bde2f	-0.13658975
80	0xbe41fdec	-0.1894452
81	0x3d4109de	0.04712855
82	0xbe8e084b	-0.27740702
83	0x3e278906	0.16360864
84	0x3e9b4d6f	0.30332515
85	0xbe27864d	-0.16359825
86	0xbea57374	-0.32314646
87	0xbd2def71	-0.042464677
88	0xbe28bc73	-0.16478138
89	0xbed59894	-0.4171797
90	0x3e16afba	0.14715472
91	0x3dbb22ea	0.09137519
92	0x3d47e5c5	0.04880311
93	0x3e9cef3e	0.30651277
94	0xbe929e76	-0.2863652
95	0x3d802a7c	0.06258103
96	0xbdba5aaf	-0.09099328
97	0xbe040b97	-0.12895046
98	0x3e923ea9	0.2856343
99	0x3ea13ca3	0.31491575
100	0x3e41b4b3	0.18916588
101	0xbe531d71	-0.206167
102	0xbe597cdc	-0.21239036
103	0xbe8350e4	-0.25647652
104	0xbe248b6b	-0.16068809
105	0xbe6ad1dd	-0.22931619
106	0xbe108563	-0.14113383
107	0x3e13f0ee	0.14447376
108	0x3d6080a6	0.05481019
109	0x3e7842d9	0.2424425
110	0xbe9be341	-0.30446818
111	0xbe151c11	-0.14561488
112	0xbe4fa9aa	-0.20279565
113	0x3eaa2cbd	0.33237258
114	0x3c637d7e	0.0138849
115	0x3e6c6c8d	0.23088284
116	0x3ea5e3f0	0.32400465
117	0x3e2ba3bf	0.16761683
118	0xbe4121a8	-0.18860495
119	0x3e999d77	0.3000295
120	0xbe90ce4f	-0.282824
121	0xbed4e5c7	-0.41581556
122	0xbc09d2af	-0.008412047
123	0x3eaa3f07	0.3325121
124	0xbea8a482	-0.3293801
125	0xbd7a8af6	-0.06116768
126	0x3eac5ba5	0.3366367
127	0xbe517906	-0.20456323
128	0x3d0c9216	0.034319006
129	0x3e2b3244	0.16718394
130	0xbdf9115c	-0.12161514
131	0x3d36e8b3	0.044655513
132	0xbe8c01c4	-0.27345097
133	0x3d6919e4	0.056909457
134	0x3e050092	0.12988499
135	0x3dee397c	0.11632058
136	0x3eb8d3b1	0.36099008
137	0xbed8060e	-0.4219212
138	0xbe86adca	-0.26304466
139	0x3ecd7775	0.401302
140	0xbe009c3a	-0.12559596
141	0xbde631bf	-0.11239957
142	0x3e9196e5	0.28435436
143	0xbe089f28	-0.13341963
144	0xbe9cbe54	-0.3061396
145	0xbe19514a	-0.14972416
146	0x3e8d2f28	0.2757504
147	0x3e045d33	0.12926178
148	0xbd9bf693	-0.0761539
149	0xbea74ff7	-0.32678196
150	0xbeb4f1c1	-0.35340694
151	0x3d1098b0	0.035301864
152	0xbd2c0f92	-0.042007037
153	0x3e7c6cda	0.24650899
154	0x3e149c5f	0.14512776
155	0xbe6983f2	-0.2280424
156	0xbca1f394	-0.019769467
157	0xbec9b8f3	-0.39398918
158	0xbdcd088f	-0.10011398
159	0xbe9ee622	-0.31034952
160	0xbde3949b	-0.111123286
161	0xbe45ff9b	-0.19335787
162	0x3aa348d9	0.0012457623
163	0x3ec03fed	0.37548772
164	0x3e1c831d	0.15284391
165	0xbe9634e4	-0.29337227
166	0xbe77a100	-0.2418251
167	0x3de45446	0.111488864
168	0x3ea39b0e	0.31954235
169	0xbe365a89	-0.17807974
170	0xbea812df	-0.32826898
171	0x3ea20d19	0.31650618
172	0xbea193fd	-0.3155822
173	0xbd00c2e3	-0.03143586
174	0xbd6077a6	-0.054801606
175	0xbda2e1e9	-0.07953245
176	0xbe83d134	-0.25745547
177	0x3d824f34	0.06362763
178	0xbd4e746e	-0.050404005
179	0xbe84aa69	-0.25911263
180	0xbe4a95fc	-0.19783777
181	0x3ea05133	0.3131195
182	0xbea66cf2	-0.32504994
183	0xbe94e953	-0.29084262
184	0x3e0750ff	0.13214491
185	0xbe664fc4	-0.22491366
186	0x3e5e1deb	0.216911
187	0x3e381957	0.17978416
188	0xbe88834e	-0.26662678
189	0x3e6acced	0.22929735
190	0x3d3c9984	0.04604484
191	0xbe1d6c4a	-0.1537334
192	0xbde86c0d	-0.11348734
193	0x3db8fb32	0.09032287
194	0x3da2d2d2	0.07950367
195	0xbe231b58	-0.159284
196	0xbe628754	-0.22121936
197	0xbd9ce662	-0.076611295
198	0x3e63bd49	0.22240175
199	0xbe7a5ff5	-0.24450667
200	0xbd94404e	-0.07238828
201	0x3e1d3aff	0.15354536
202	0x3ea35ab1	0.3190513
203	0xbe4fb98e	-0.20285627
204	0x3e1bf1fe	0.15229031
205	0x3e900a5c	0.28132904
206	0xbe5e9403	-0.2173615
207	0x3eada684	0.33916104
208	0x3c0b7a64	0.008513067
209	0xbdd0f350	-0.10202658
210	0x3e96a3a9	0.29421738
211	0xbd22cc5e	-0.03974568
212	0x3eba7f15	0.3642508
213	0xbe307f22	-0.17235997
214	0xbda8d099	-0.08242912
215	0xbea247ff	-0.31695554
216	0x3e1a7319	0.15082969
217	0xbe9de640	-0.3083973
218	0xbeae4fae	-0.34045166
219	0xbd8afb4a	-0.06786211
220	0xbed9fee7	-0.42577288
221	0xbeabbb39	-0.33541277
222	0x3cee7284	0.02910734
223	0xbc868eb5	-0.01642547
224	0x3e1ee7cf	0.15518115
225	0xbe6c05f7	-0.2304915
226	0xbeb26183	-0.3484002
227	0x3cf47f3c	0.029845826
228	0xbe0838ea	-0.13302961
229	0x3e9b92fe	0.30385584
230	0x3d283fd1	0.041076485
231	0x3e4c1ced	0.1993291
232	0x3d932f35	0.071867384
233	0x3ed4afbe	0.4154033
234	0x3e7ff5ac	0.2499606
235	0xbd82db62	-0.063895
236	0xbe2cf457	-0.16890083
237	0x3e04b278	0.12958705
238	0x3ea14f80	0.31505966
239	0xbe8e9dd0	-0.27854776
240	0x3e7269cb	0.2367317
241	0x3eaed7eb	0.34149107
242	0xbecb15f8	-0.39665198
243	0x3e59cce8	0.21269572
244	0x3e1eb4e6	0.15498695
245	0x3e94b15c	0.29041564
246	0x3e6199d4	0.22031337
247	0x3e582d5c	0.21111053
248	0xbe6f2e69	-0.23357548
249	0xbdeeae05	-0.11654285
250	0x3ea9383e	0.33050722
251	0xbe9de3f7	-0.30837986
252	0xbddd7416	-0.10813157
253	0xbdd74611	-0.10511411
254	0xbe782dbb	-0.24236195
255	0x3e69d7c8	0.2283622

bias f4 [64]
0	0xbd826996	-0.06367795
1	0xbe188c02	-0.14897159
2	0xbc6dc642	-0.0145126
3	0x3e2687b4	0.16262704
4	0x3d692960	0.056924224
5	0xbeaba3dd	-0.33523455
6	0x3e950a43	0.29109392
7	0xbbace138	-0.0052758716
8	0x3dc56b00	0.09639549
9	0x3ead7dd9	0.33885077
10	0xbdc7d604	-0.09757617
11	0x3e46ea9c	0.19425434
12	0xbd93ad6b	-0.07210811
13	0xbe510d7f	-0.20415305
14	0x3e7bb4ee	0.24580738
15	0xbdfb6941	-0.12275935
16	0x3e4b908f	0.19879363
17	0xbd8411f4	-0.06448737
18	0xbd31f9b2	-0.04345102
19	0x3d81b22e	0.06332813
20	0x3e5a539e	0.2132096
21	0xbdeaa82a	-0.11457856
22	0x3ecb9f4c	0.3976997
23	0xbe641efb	-0.22277443
24	0x3dc3a090	0.09552109
25	0x3dcd9ed1	0.100400575
26	0xbe4f2893	-0.20230322
27	0xbdecd0c5	-0.11563257
28	0xbe873ec9	-0.2641509
29	0x3d99cfc2	0.0751033
30	0x3cc7afec	0.024375878
31	0xbe6205da	-0.22072545
32	0xbcf619dd	-0.03004163
33	0xbe2b0e75	-0.16704734
34	0xbc170893	-0.009218353
35	0x3ce7f4ab	0.028314909
36	0x3c90ebe5	0.017690608
37	0xbde4f701	-0.11179925
38	0x3e9b5994	0.3034178
39	0x3e1ff987	0.15622531
40	0x3ea8de04	0.32981884
41	0xbe9ba6bc	-0.30400646
42	0x3db8a031	0.09014929
43	0x3eae25bf	0.34013173
44	0x3cc292dc	0.023751669
45	0xbe1281b4	-0.1430729
46	0xbe5a4237	-0.21314321
47	0x3d60bf5e	0.054870002
48	0x3dfcc468	0.12342149
49	0xbe2a6cbf	-0.16643046
50	0x3ec68b3f	0.3877811
51	0xbead5dbc	-0.33860576
52	0x3e8f0b06	0.27938098
53	0x3cf13cea	0.029447991
54	0xbd04eab5	-0.032450397
55	0xbe04a363	-0.12952952
56	0xbda9e5f2	-0.08295812
57	0xbe96b125	-0.29432026
58	0x3cf15194	0.029457845
59	0x3e443db4	0.19164163
60	0xbe99c6c7	-0.30034468
61	0xbe0fc13d	-0.14038558
62	0x3e7ec37d	0.2487926
63	0x3dc82cae	0.09774147

mask f4 [64, 8]
0	0x3f800000	1.0
1	0x00000000	0.0
2	0x00000000	0.0
3	0x00000000	0.0
4	0x00000000	0.0
5	0x00000000	0.0
6	0x00000000	0.0
7	0x00000000	0.0
8	0x3f800000	1.0
9	0x3f800000	1.0
10	0x00000000	0.0
11	0x00000000	0.0
12	0x00000000	0.0
13	0x00000000	0.0
14	0x00000000	0.0
15	0x00000000	0.0
16	0x3f800000	1.0
17	0x3f800000	1.0
18	0x3f800000	1.0
19	0x00000000	0.0
20	0x00000000	0.0
21	0x00000000	0.0
22	0x00000000	0.0
23	0x00000000	0.0
24	0x3f800000	1.0
25	0x3f800000	1.0
26	0x3f800000	1.0
27	0x3f800000	1.0
28	0x00000000	0.0
29	0x00000000	0.0
30	0x00000000	0.0
31	0x00000000	0.0
32	0x3f800000	1.0
33	0x3f800000	1.0
34	0x3f800000	1.0
35	0x3f800000	1.0
36	0x3f800000	1.0
37	0x00000000	0.0
38	0x00000000	0.0
39	0x00000000	0.0
40	0x3f800000	1.0
41	0x3f800000	1.0
42	0x3f800000	1.0
43	0x3f800000	1.0
44	0x3f800000	1.0
45	0x3f800000	1.0
46	0x00000000	0.0
47	0x00000000	0.0
48	0x3f800000	1.0
49	0x3f800000	1.0
50	0x3f800000	1.0
51	0x3f800000	1.0
52	0x3f800000	1.0
53	0x3f800000	1.0
54	0x3f800000	1.0
55	0x00000000	0.0
56	0x3f800000	1.0
57	0x00000000	0.0
58	0x00000000	0.0
59	0x00000000	0.0
60	0x00000000	0.0
61	0x00000000	0.0
62	0x00000000	0.0
63	0x00000000	0.0
64	0x3f800000	1.0
65	0x3f800000	1.0
66	0x00000000	0.0
67	0x00000000	0.0
68	0x00000000	0.0
69	0x00000000	0.0
70	0x00000000	0.0
71	0x00000000	0.0
72	0x3f800000	1.0
73	0x3f800000	1.0
74	0x3f800000	1.0
75	0x00000000	0.0
76	0x00000000	0.0
77	0x00000000	0.0
78	0x00000000	0.0
79	0x00000000	0.0
80	0x3f800000	1.0
81	0x3f800000	1.0
82	0x3f800000	1.0
83	0x3f800000	1.0
84	0x00000000	0.0
85	0x00000000	0.0
86	0x00000000	0.0
87	0x00000000	0.0
88	0x3f800000	1.0
89	0x3f800000	1.0
90	0x3f800000	1.0
91	0x3f800000	1.0
92	0x3f800000	1.0
93	0x00000000	0.0
94	0x00000000	0.0
95	0x00000000	0.0
96	0x3f800000	1.0
97	0x3f800000	1.0
98	0x3f800000	1.0
99	0x3f800000	1.0
100	0x3f800000	1.0
101	0x3f800000	1.0
102	0x00000000	0.0
103	0x00000000	0.0
104	0x3f800000	1.0
105	0x3f800000	1.0
106	0x3f800000	1.0
107	0x3f800000	1.0
108	0x3f800000	1.0
109	0x3f800000	1.0
110	0x3f800000	1.0
111	0x00000000	0.0
112	0x3f800000	1.0
113	0x00000000	0.0
114	0x00000000	0.0
115	0x00000000	0.0
116	0x00000000	0.0
117	0x00000000	0.0
118	0x00000000	0.0
119	0x00000000	0.0
120	0x3f800000	1.0
121	0x3f800000	1.0
122	0x00000000	0.0
123	0x00000000	0.0
124	0x00000000	0.0
125	0x00000000	0.0
126	0x00000000	0.0
127	0x00000000	0.0
128	0x3f800000	1.0
129	0x3f800000	1.0
130	0x3f800000	1.0
131	0x00000000	0.0
132	0x00000000	0.0
133	0x00000000	0.0
134	0x00000000	0.0
135	0x00000000	0.0
136	0x3f800000	1.0
137	0x3f800000	1.0
138	0x3f800000	1.0
139	0x3f800000	1.0
140	0x00000000	0.0
141	0x00000000	0.0
142	0x00000000	0.0
143	0x00000000	0.0
144	0x3f800000	1.0
145	0x3f800000	1.0
146	0x3f800000	1.0
147	0x3f800000	1.0
148	0x3f800000	1.0
149	0x00000000	0.0
150	0x00000000	0.0
151	0x00000000	0.0
152	0x3f800000	1.0
153	0x3f800000	1.0
154	0x3f800000	1.0
155	0x3f800000	1.0
156	0x3f800000	1.0
157	0x3f800000	1.0
158	0x00000000	0.0
159	0x00000000	0.0
160	0x3f800000	1.0
161	0x3f800000	1.0
162	0x3f800000	1.0
163	0x3f800000	1.0
164	0x3f800000	1.0
165	0x3f800000	1.0
166	0x3f800000	1.0
167	0x00000000	0.0
168	0x3f800000	1.0
169	0x00000000	0.0
170	0x00000000	0.0
171	0x00000000	0.0
172	0x00000000	0.0
173	0x00000000	0.0
174	0x00000000	0.0
175	0x00000000	0.0
176	0x3f800000	1.0
177	0x3f800000	1.0
178	0x00000000	0.0
179	0x00000000	0.0
180	0x00000000	0.0
181	0x00000000	0.0
182	0x00000000	0.0
183	0x00000000	0.0
184	0x3f800000	1.0
185	0x3f800000	1.0
186	0x3f800000	1.0
187	0x00000000	0.0
188	0x00000000	0.0
189	0x00000000	0.0
190	0x00000000	0.0
191	0x00000000	0.0
192	0x3f800000	1.0
193	0x3f800000	1.0
194	0x3f800000	1.0
195	0x3f800000	1.0
196	0x00000000	0.0
197	0x00000000	0.0
198	0x00000000	0.0
199	0x00000000	0.0
200	0x3f800000	1.0
201	0x3f800000	1.0
202	0x3f800000	1.0
203	0x3f800000	1.0
204	0x3f800000	1.0
205	0x00000000	0.0
206	0x00000000	0.0
207	0x00000000	0.0
208	0x3f800000	1.0
209	0x3f800000	1.0
210	0x3f800000	1.0
211	0x3f800000	1.0
212	0x3f800000	1.0
213	0x3f800000	1.0
214	0x00000000	0.0
215	0x00000000	0.0
216	0x3f800000	1.0
217	0x3f800000	1.0
218	0x3f800000	1.0
219	0x3f800000	1.0
220	0x3f800000	1.0
221	0x3f800000	1.0
222	0x3f800000	1.0
223	0x00000000	0.0
224	0x3f800000	1.0
225	0x00000000	0.0
226	0x00000000	0.0
227	0x00000000	0.0
228	0x00000000	0.0
229	0x00000000	0.0
230	0x00000000	0.0
231	0x00000000	0.0
232	0x3f800000	1.0
233	0x3f800000	1.0
234	0x00000000	0.0
235	0x00000000	0.0
236	0x00000000	0.0
237	0x00000000	0.0
238	0x00000000	0.0
239	0x00000000	0.0
240	0x3f800000	1.0
241	0x3f800000	1.0
242	0x3f800000	1.0
243	0x00000000	0.0
244	0x00000000	0.0
245	0x00000000	0.0
246	0x00000000	0.0
247	0x00000000	0.0
248	0x3f800000	1.0
249	0x3f800000	1.0
250	0x3f800000	1.0
251	0x3f800000	1.0
252	0x00000000	0.0
253	0x00000000	0.0
254	0x00000000	0.0
255	0x00000000	0.0

weight f4 [64, 64]
0	0x3d389860	0.04506719
1	0x3d41570c	0.047202155
2	0x3dcdb794	0.100447804
3	0x3dd2031e	0.10254501
4	0xbd520698	-0.05127582
5	0xbd682480	-0.056675434
6	0x3c110920	0.008852273
7	0xbd1f1600	-0.03883934
8	0x3df1659c	0.117869586
9	0xbd069590	-0.032857478
10	0xbd92a790	-0.07160866
11	0x3c91b8e8	0.017788365
12	0xbcfa9090	-0.03058651
13	0xbdc91d98	-0.09820098
14	0x3d14ad39	0.03629801
15	0xbd5c1c24	-0.053737774
16	0xbdee63ba	-0.11640115
17	0xbc55a110	-0.013038889
18	0x3c66ade0	0.014079541
19	0xbd074eb0	-0.033034027
20	0x3df34e7a	0.118802026
21	0x3db5c83e	0.08876084
22	0xbc43e2c0	-0.011955917
23	0x3dd9505a	0.10611029
24	0x3da56ca0	0.08077359
25	0x3dd5bf38	0.10436863
26	0x3df0bd70	0.11754882
27	0xbdc28722	-0.09498431
28	0xbd75f440	-0.060047388
29	0xbc86edf8	-0.016470894
30	0xbddbdc3a	-0.10735364
31	0xbdf848f6	-0.12123291
32	0xbd941caa	-0.0723203
33	0x3dc181a0	0.09448552
34	0xbd6bd504	-0.057576194
35	0x3d9af0a5	0.075654306
36	0xbc6db840	-0.014509261
37	0x3db18fea	0.086700276
38	0xbdf070ce	-0.11740266
39	0x3dc9a7c0	0.09846449
40	0xbc47d2f0	-0.0121962875
41	0x3ddbcd1a	0.107324794
42	0x3d116793	0.035499167
43	0xbcd10ff8	-0.02552031
44	0xbde295f6	-0.11063759
45	0x3d5c13ec	0.053729936
46	0x3d960604	0.07325366
47	0xbdf8d99a	-0.12150879
48	0x3de3bd2a	0.111200646
49	0x3d2994ff	0.04140186
50	0xbdb58cec	-0.08864769
51	0xbd80f2be	-0.062962994
52	0xbd4ca770	-0.04996437
53	0x3dbeba1e	0.09312843
54	0xbd68c000	-0.05682373
55	0x3dc8cd8e	0.098048314
56	0x3dfc5aa4	0.12321976
57	0x3dcb2bec	0.09920487
58	0xbde9e098	-0.11419791
59	0xbdc836b2	-0.09776057
60	0xbc0a19d0	-0.008429006
61	0x3a657e00	0.0008754432
62	0xbda860c8	-0.082215846
63	0x3be7a676	0.0070694042
64	0x3cff6bc0	0.031179309
65	0x3c06d1a0	0.008228689
66	0x3da5f9cc	0.081042856
67	0xbc1df410	-0.009640709
68	0x3df048b4	0.11732617
69	0xbd948c78	-0.07253355
70	0xbcad2238	-0.02113448
71	0xbdb2ebe6	-0.087364
72	0x3dab6cf2	0.08370389
73	0x3dcdeecc	0.100553125
74	0x3df9f91c	0.12205717
75	0x3dc2c9e8	0.09511167
76	0xb8fa9000	-0.00011947751
77	0xbd94a1c0	-0.07257414
78	0x3bddf8e0	0.006774053
79	0xbb92e440	-0.004482776
80	0x3dc36f3c	0.09542701
81	0xbd4ad158	-0.049516052
82	0x3d5864fc	0.05283068
83	0xbd9e306e	-0.07724081
84	0xbdeed37c	-0.11661431
85	0xbd00157c	-0.03127049
86	0xbd7680e0	-0.0601815
87	0xbd4da248	-0.05020359
88	0x3dcb4f68	0.09927255
89	0xbd2ea660	-0.042639136
90	0xbd635a54	-0.055506065
91	0x3d1b24c8	0.037876874
92	0x3d450194	0.04809721
93	0x3beae060	0.007167861
94	0x3db94528	0.09046394
95	0xbd63dfa8	-0.055633217
96	0xbdbb79f8	-0.09154123
97	0x3db09a94	0.086232334
98	0x3d5a98f0	0.05336851
99	0x3db48bca	0.08815725
100	0x3dd0709e	0.1017773
101	0xbdf1fa8e	-0.11815368
102	0xbcb93090	-0.022606164
103	0xbcd89130	-0.026436418
104	0x3d6370f8	0.055527657
105	0x3d5cc08c	0.053894565
106	0x3c330220	0.0109258
107	0xbd838b7a	-0.064230874
108	0x3de753bc	0.11295268
109	0x3d4718fc	0.04860781
110	0xbcf43500	-0.029810429
111	0x3d9053be	0.070472226
112	0x3d9829d6	0.074298546
113	0x3d430b78	0.04761836
114	0xbd8448aa	-0.06459172
115	0x3de3938c	0.11112127
116	0x3b8d9220	0.004320398
117	0xbd17f940	-0.037102938
118	0x3d8fc29a	0.07019539
119	0xbd82efd8	-0.06393403
120	0xbdd40b32	-0.10353698
121	0x3bcfff00	0.006347537
122	0xbd94a54c	-0.072580904
123	0xbd15aae4	-0.036539927
124	0x3dab21d6	0.08356063
125	0xbd1184e4	-0.035527125
126	0x3d8d77b6	0.06907599
127	0xbd52bfbc	-0.051452383
128	0x3d29c4fc	0.041447625
129	0x3d9da6d6	0.07697837
130	0xbda5ec70	-0.081017375
131	0x3d794398	0.060855478
132	0x3caeb870	0.021328181
133	0x3d9b9492	0.07596697
134	0x3b76a640	0.0037635714
135	0x3c3214e0	0.010869235
136	0xbd2320a0	-0.039826035
137	0xbd903a2a	-0.07042344
138	0x3d457b2c	0.04821317
139	0xbdea2bde	-0.11434148
140	0xbd57e59c	-0.052709207
141	0x3dac7490	0.0842067
142	0xbd2430f8	-0.040085763
143	0xbd8f20c2	-0.0698867
144	0x3caa99b0	0.020825237
145	0xbdf91e80	-0.121640205
146	0x3c836018	0.016037032
147	0x3dfa1916	0.12211816
148	0x3cf28600	0.029604912
149	0x3d5ad6e4	0.053427592
150	0xbdecc8b2	-0.11561717
151	0xbd416544	-0.047215715
152	0x3dcf7bde	0.10131048
153	0x3c0c6560	0.008569092
154	0xbd245f70	-0.04013008
155	0xbc0c21b0	-0.008552954
156	0x3df74cb4	0.12075177
157	0x3dc6776e	0.09690748
158	0x3d98cebc	0.074613065
159	0x3d8b9d6a	0.06817134
160	0x3dc2edb0	0.095179915
161	0xbdfdd0ea	-0.12393363
162	0xbda5dd02	-0.080987945
163	0xbd610de8	-0.054944903
164	0xbd1ca850	-0.038246453
165	0x3b65f740	0.003509
166	0x3d72d7a8	0.059287697
167	0xbd94d97e	-0.07268046
168	0x3d994de4	0.074855596
169	0x3d8678ee	0.06566034
170	0x3d942ffa	0.07235713
171	0x3de9e9f6	0.11421578
172	0x3d68be74	0.056822255
173	0x3dddb7c4	0.10826066
174	0xbd5f0a60	-0.054453254
175	0x3d072844	0.032997385
176	0x3dccb6b6	0.09995787
177	0x3d28db10	0.04122454
178	0xbd4b0610	-0.04956633
179	0x3de5b124	0.112154275
180	0x3daa0172	0.08301057
181	0xbd3cc63c	-0.04608749
182	0xbde102f2	-0.1098689
183	0x3dedcc1e	0.11611198
184	0x3cf76108	0.030197635
185	0xbd55b470	-0.05217403
186	0xbdeca3ae	-0.11554657
187	0xbb337980	-0.0027385652
188	0xbdf0a646	-0.11750464
189	0x3d22a3c4	0.03970696
190	0xbc7a7b80	-0.015288234
191	0x3dea67ce	0.114455804
192	0x3dcd4aa2	0.10024001
193	0x3cf76c98	0.030203149
194	0xbd339be7	-0.043849852
195	0xbcd73d38	-0.026274309
196	0xbd55d21c	-0.05220233
197	0x3dbbec36	0.09175913
198	0xbd73724c	-0.059435174
199	0xbd5be238	-0.053682536
200	0x3d9e8fdc	0.07742283
201	0xbd0b4d7c	-0.03400944
202	0xbd0a6a8c	-0.033793017
203	0xbcd55bd8	-0.026044771
204	0x3d2092d4	0.039202526
205	0x3d443dc0	0.047910452
206	0x3c0b1829	0.008489647
207	0xbdafa597	-0.08576506
208	0x3e27e76b	0.16396873
209	0xbbb923fd	-0.005650042
210	0x3d9fc3c6	0.07801013
211	0xbd0f3d34	-0.034970477
212	0xbd50abec	-0.050945207
213	0xbd90e46e	-0.070748195
214	0x3da89eb0	0.08233392
215	0xbdf25594	-0.11832729
216	0x3e11cdb9	0.14238633
217	0xbdc817c2	-0.097701564
218	0x3ddd2bee	0.107993945
219	0x3dfe950c	0.12430772
220	0xbd765c74	-0.060146764
221	0xbda9652c	-0.0827125
222	0x3e33c51b	0.17555659
223	0xbbabcb65	-0.0052427524
224	0xbc808268	-0.015687183
225	0xbbbcd680	-0.005762875
226	0xbc5833c0	-0.013195932
227	0x3e0db8e7	0.13840066
228	0xbbcb7802	-0.0062093744
229	0xbd8cb95c	-0.06871292
230	0x3daced38	0.084436834
231	0xbd446b30	-0.047953784
232	0xbce663c8	-0.028123751
233	0xbdb0279c	-0.08601305
234	0x3da81016	0.08206193
235	0x3e2c569c	0.16829914
236	0x3d58539e	0.05281412
237	0x3d12fa31	0.035883132
238	0xbdd30f68	-0.10305673
239	0xbc17a400	-0.009255409
240	0xbd81a458	-0.06330174
241	0xbde6fd62	-0.11278798
242	0x3dcf1009	0.1011048
243	0x3dc90110	0.09814656
244	0x3e348eed	0.17632647
245	0x3b86d120	0.004114285
246	0xbc264520	-0.010148317
247	0x3da87d4c	0.082270235
248	0xb9b6b693	-0.00034849774
249	0x3cc7e130	0.02439937
250	0x3e15e26a	0.14637151
251	0x3d8eb105	0.069673575
252	0xbdd21410	-0.10257733
253	0xbdb597fa	-0.08866878
254	0xbd27d480	-0.04097414
255	0xbd7e22cd	-0.062044907

bias f4 [64]
0	0xbd46838f	-0.048465308
1	0xbd58848c	-0.05286078
2	0xbdf79cb6	-0.12090437
3	0x3c3ea99c	0.011637118
4	0xbd2c9d18	-0.042142004
5	0xbd900d6e	-0.070338115
6	0xbd12fa3f	-0.035883185
7	0x3dfee107	0.12445264
8	0x3dc408f9	0.09572024
9	0x3ce40294	0.02783326
10	0xbc728b29	-0.014803686
11	0xbd86f5a5	-0.06589822
12	0xbde6362c	-0.11240801
13	0xbd196237	-0.03744718
14	0x3dd03e20	0.101680994
15	0x3e1a5225	0.15070398
16	0x3d238b9e	0.03992807
17	0x3e1ab7c7	0.15109168
18	0x3dba38ef	0.090928905
19	0xbd468a54	-0.048471764
20	0xbda6b9e2	-0.08140923
21	0x3e1468f8	0.14493167
22	0x3d9bed81	0.0761366
23	0x3d52568a	0.05135206
24	0x3d9d8936	0.076921865
25	0xbdf78efe	-0.120878205
26	0x3d391fa0	0.045196176
27	0x3cafe3b3	0.02147088
28	0x3df37651	0.118878014
29	0xbd1275dc	-0.03575693
30	0xbd4a0dc4	-0.049329534
31	0xbdfb7a6a	-0.12279208
32	0xbdaccb44	-0.08437207
33	0xbd978c9c	-0.07399866
34	0x3d65a85d	0.056068767
35	0xbbb2e720	-0.005459681
36	0x3bd241ac	0.00641652
37	0x3e2800ba	0.16406527
38	0x3d94a40a	0.072578505
39	0x3d47ff6c	0.048827574
40	0xbdf57c2e	-0.11986576
41	0x3df7ad96	0.12093656
42	0xbcd70d1d	-0.02625137
43	0x3d8cbea5	0.068723
44	0xbd458f18	-0.048232168
45	0xbd314178	-0.043275326
46	0x3c7b0c1e	0.015322713
47	0x3de6aed3	0.11263814
48	0xbda6717e	-0.08127116
49	0x3d94a62e	0.07258259
50	0xbd5010cb	-0.050797265
51	0x3d5b17c0	0.053489447
52	0xbd7bb39e	-0.061450593
53	0xbd330e86	-0.043715023
54	0x3b1c7500	0.0023873448
55	0xbd438ca1	-0.047741536
56	0xbdc07d0c	-0.09398851
57	0x3dcfe6c0	0.10151434
58	0x3dbc3964	0.09190634
59	0xbdcb37b6	-0.099227354
60	0xbd682e5c	-0.056684837
61	0xbde39826	-0.111130044
62	0x3d2a539a	0.041583635
63	0xbd78fce4	-0.06078805

mask f4 [64, 64]
0	0x3f800000	1.0
1	0x00000000	0.0
2	0x00000000	0.0
3	0x00000000	0.0
4	0x00000000	0.0
5	0x00000000	0.0
6	0x00000000	0.0
7	0x3f800000	1.0
8	0x00000000	0.0
9	0x00000000	0.0
10	0x00000000	0.0
11	0x00000000	0.0
12	0x00000000	0.0
13	0x00000000	0.0
14	0x3f800000	1.0
15	0x00000000	0.0
16	0x00000000	0.0
17	0x00000000	0.0
18	0x00000000	0.0
19	0x00000000	0.0
20	0x00000000	0.0
21	0x3f800000	1.0
22	0x00000000	0.0
23	0x00000000	0.0
24	0x00000000	0.0
25	0x00000000	0.0
26	0x00000000	0.0
27	0x00000000	0.0
28	0x3f800000	1.0
29	0x00000000	0.0
30	0x00000000	0.0
31	0x00000000	0.0
32	0x00000000	0.0
33	0x00000000	0.0
34	0x00000000	0.0
35	0x3f800000	1.0
36	0x00000000	0.0
37	0x00000000	0.0
38	0x00000000	0.0
39	0x00000000	0.0
40	0x00000000	0.0
41	0x00000000	0.0
42	0x3f800000	1.0
43	0x00000000	0.0
44	0x00000000	0.0
45	0x00000000	0.0
46	0x00000000	0.0
47	0x00000000	0.0
48	0x00000000	0.0
49	0x3f800000	1.0
50	0x00000000	0.0
51	0x00000000	0.0
52	0x00000000	0.0
53	0x00000000	0.0
54	0x00000000	0.0
55	0x00000000	0.0
56	0x3f800000	1.0
57	0x00000000	0.0
58	0x00000000	0.0
59	0x00000000	0.0
60	0x00000000	0.0
61	0x00000000	0.0
62	0x00000000	0.0
63	0x3f800000	1.0
64	0x3f800000	1.0
65	0x3f800000	1.0
66	0x00000000	0.0
67	0x00000000	0.0
68	0x00000000	0.0
69	0x00000000	0.0
70	0x00000000	0.0
71	0x3f800000	1.0
72	0x3f800000	1.0
73	0x00000000	0.0
74	0x00000000	0.0
75	0x00000000	0.0
76	0x00000000	0.0
77	0x00000000	0.0
78	0x3f800000	1.0
79	0x3f800000	1.0
80	0x00000000	0.0
81	0x00000000	0.0
82	0x00000000	0.0
83	0x00000000	0.0
84	0x00000000	0.0
85	0x3f800000	1.0
86	0x3f800000	1.0
87	0x00000000	0.0
88	0x00000000	0.0
89	0x00000000	0.0
90	0x00000000	0.0
91	0x00000000	0.0
92	0x3f800000	1.0
93	0x3f800000	1.0
94	0x00000000	0.0
95	0x00000000	0.0
96	0x00000000	0.0
97	0x00000000	0.0
98	0x00000000	0.0
99	0x3f800000	1.0
100	0x3f800000	1.0
101	0x00000000	0.0
102	0x00000000	0.0
103	0x00000000	0.0
104	0x00000000	0.0
105	0x00000000	0.0
106	0x3f800000	1.0
107	0x3f800000	1.0
108	0x00000000	0.0
109	0x00000000	0.0
110	0x00000000	0.0
111	0x00000000	0.0
112	0x00000000	0.0
113	0x3f800000	1.0
114	0x3f800000	1.0
115	0x00000000	0.0
116	0x00000000	0.0
117	0x00000000	0.0
118	0x00000000	0.0
119	0x00000000	0.0
120	0x3f800000	1.0
121	0x3f800000	1.0
122	0x00000000	0.0
123	0x00000000	0.0
124	0x00000000	0.0
125	0x00000000	0.0
126	0x00000000	0.0
127	0x3f800000	1.0
128	0x3f800000	1.0
129	0x3f800000	1.0
130	0x3f800000	1.0
131	0x00000000	0.0
132	0x00000000	0.0
133	0x00000000	0.0
134	0x00000000	0.0
135	0x3f800000	1.0
136	0x3f800000	1.0
137	0x3f800000	1.0
138	0x00000000	0.0
139	0x00000000	0.0
140	0x00000000	0.0
141	0x00000000	0.0
142	0x3f800000	1.0
143	0x3f800000	1.0
144	0x3f800000	1.0
145	0x00000000	0.0
146	0x00000000	0.0
147	0x00000000	0.0
148	0x00000000	0.0
149	0x3f800000	1.0
150	0x3f800000	1.0
151	0x3f800000	1.0
152	0x00000000	0.0
153	0x00000000	0.0
154	0x00000000	0.0
155	0x00000000	0.0
156	0x3f800000	1.0
157	0x3f800000	1.0
158	0x3f800000	1.0
159	0x00000000	0.0
160	0x00000000	0.0
161	0x00000000	0.0
162	0x00000000	0.0
163	0x3f800000	1.0
164	0x3f800000	1.0
165	0x3f800000	1.0
166	0x00000000	0.0
167	0x00000000	0.0
168	0x00000000	0.0
169	0x00000000	0.0
170	0x3f800000	1.0
171	0x3f800000	1.0
172	0x3f800000	1.0
173	0x00000000	0.0
174	0x00000000	0.0
175	0x00000000	0.0
176	0x00000000	0.0
177	0x3f800000	1.0
178	0x3f800000	1.0
179	0x3f800000	1.0
180	0x00000000	0.0
181	0x00000000	0.0
182	0x00000000	0.0
183	0x00000000	0.0
184	0x3f800000	1.0
185	0x3f800000	1.0
186	0x3f800000	1.0
187	0x00000000	0.0
188	0x00000000	0.0
189	0x00000000	0.0
190	0x00000000	0.0
191	0x3f800000	1.0
192	0x3f800000	1.0
193	0x3f800000	1.0
194	0x3f800000	1.0
195	0x3f800000	1.0
196	0x00000000	0.0
197	0x00000000	0.0
198	0x00000000	0.0
199	0x3f800000	1.0
200	0x3f800000	1.0
201	0x3f800000	1.0
202	0x3f800000	1.0
203	0x00000000	0.0
204	0x00000000	0.0
205	0x00000000	0.0
206	0x3f800000	1.0
207	0x3f800000	1.0
208	0x3f800000	1.0
209	0x3f800000	1.0
210	0x00000000	0.0
211	0x00000000	0.0
212	0x00000000	0.0
213	0x3f800000	1.0
214	0x3f800000	1.0
215	0x3f800000	1.0
216	0x3f800000	1.0
217	0x00000000	0.0
218	0x00000000	0.0
219	0x00000000	0.0
220	0x3f800000	1.0
221	0x3f800000	1.0
222	0x3f800000	1.0
223	0x3f800000	1.0
224	0x00000000	0.0
225	0x00000000	0.0
226	0x00000000	0.0
227	0x3f800000	1.0
228	0x3f800000	1.0
229	0x3f800000	1.0
230	0x3f800000	1.0
231	0x00000000	0.0
232	0x00000000	0.0
233	0x00000000	0.0
234	0x3f800000	1.0
235	0x3f800000	1.0
236	0x3f800000	1.0
237	0x3f800000	1.0
238	0x00000000	0.0
239	0x00000000	0.0
240	0x00000000	0.0
241	0x3f800000	1.0
242	0x3f800000	1.0
243	0x3f800000	1.0
244	0x3f800000	1.0
245	0x00000000	0.0
246	0x00000000	0.0
247	0x00000000	0.0
248	0x3f800000	1.0
249	0x3f800000	1.0
250	0x3f800000	1.0
251	0x3f800000	1.0
252	0x00000000	0.0
253	0x00000000	0.0
254	0x00000000	0.0
255	0x3f800000	1.0

weight f4 [64, 64]
0	0x3c39d351	0.011341886
1	0x3a52475d	0.0008021498
2	0x3a5cd8ec	0.0008424658
3	0x3a7955d2	0.00095113844
4	0x3a52a628	0.00080356235
5	0x3a2bd884	0.00065553957
6	0xb9dcd7f0	-0.00042122556
7	0xbd192f7d	-0.037398804
8	0x3a5dffc3	0.00084685924
9	0xba18bd11	-0.0005826513
10	0x39be8ef6	0.00036346138
11	0xb9d274d2	-0.0004014136
12	0x39a5f4c5	0.0003165362
13	0x3986fd0f	0.00025747015
14	0xbd1793a2	-0.037006028
15	0xb96ecec1	-0.0002277447
16	0x3908aafa	0.00013033664
17	0x3a2b74d6	0.0006540542
18	0xb94a2dab	-0.00019281234
19	0xba475ac9	-0.00076047756
20	0x3a5ebb30	0.0008496521
21	0xbd0578c6	-0.03258588
22	0xb90720ee	-0.0001288687
23	0xba639e8e	-0.0008682989
24	0x3a5bebc1	0.0008389317
25	0xb9b8e2b9	-0.00035264136
26	0x388317ae	6.2509775e-05
27	0xba4497cf	-0.0007499428
28	0xbca7e505	-0.020494947
29	0x39b1c1a6	0.0003390435
30	0xb8f380d6	-0.000116111405
31	0x39aa6809	0.0003250244
32	0xb993bbf4	-0.0002817806
33	0x39b4eacd	0.00034507216
34	0x39f6f5bb	0.0004710386
35	0x39737cbd	0.00023220755
36	0x38753a3e	5.8466794e-05
37	0x3a15c90b	0.00057138567
38	0xb9b4fa67	-0.0003451884
39	0x3a31d7bb	0.00067841605
40	0x3a32a930	0.0006815372
41	0x3a50cfee	0.0007965554
42	0xbbb430d1	-0.0054989834
43	0xba8056ed	-0.0009791531
44	0x39cb8a25	0.00038822103
45	0xb9fcf70f	-0.00048249259
46	0xba5682cd	-0.0008182943
47	0xba708abd	-0.0009175947
48	0x3a43305f	0.00074458675
49	0xbd2ba1f3	-0.041902494
50	0x3a29e780	0.00064813346
51	0x38aa1f6d	8.112085e-05
52	0xb9cb2f34	-0.00038754346
53	0xba093dec	-0.00052353623
54	0x399c1ede	0.00029777637
55	0x39e5a540	0.00043801405
56	0x3a376fe2	0.0006997568
57	0xb999ad44	-0.00029311527
58	0xb9cdebc3	-0.00039276303
59	0x39d2b171	0.00040186525
60	0x3a1b3056	0.00059199834
61	0xb871b22e	-5.762482e-05
62	0x3a1ad17b	0.0005905849
63	0xba79f480	-0.00095350295
64	0x3d2a52d9	0.041582916
65	0xb9171171	-0.0001440698
66	0x39e21324	0.0004312034
67	0x3a43bf3e	0.0007467157
68	0x39d9ee2a	0.0004156691
69	0xb98537cb	-0.00025409306
70	0xb934a02a	-0.00017225803
71	0xbd5a0e38	-0.053236216
72	0xbd6913ac	-0.056903526
73	0xb98151b7	-0.0002466568
74	0x39b51fb7	0.0003454664
75	0x3a06bc29	0.00051397324
76	0x38babbb7	8.904136e-05
77	0xb89c7b44	-7.46162e-05
78	0xbd8b50b2	-0.06802501
79	0xbd5cb317	-0.05388173
80	0x3a39661b	0.0007072405
81	0x3a202542	0.00061090675
82	0x3a116981	0.00055470323
83	0x3a686f96	0.0008866725
84	0x3a697bda	0.00089067
85	0xbd9af709	-0.075666495
86	0xbd387eb0	-0.045042694
87	0x39b639a2	0.00034756685
88	0xb8ed07d0	-0.00011302496
89	0x3946c011	0.00018954302
90	0x3a8061d4	0.000979478
91	0x39bab23a	0.00035609474
92	0xbdbea104	-0.09308055
93	0x391c21dc	0.00014889933
94	0xba16d2ec	-0.00057534757
95	0x3a242615	0.0006261778
96	0x39c89c3a	0.0003826337
97	0xb9b6e7a6	-0.00034886337
98	0x3a10f409	0.0005529528
99	0xb9dd81d4	-0.00042249134
100	0x3c9e3543	0.019312507
101	0x3a4fb1ee	0.0007922937
102	0xb9b3f236	-0.00034322002
103	0xba0e168a	-0.00054202287
104	0x3a256401	0.0006309152
105	0x3a0d4f3e	0.0005390531
106	0xbb8cf5c9	-0.004301761
107	0xbd490aa4	-0.049082413
108	0xba7e40b9	-0.00096989755
109	0xba2ea338	-0.0006661895
110	0x3a37aa90	0.0007006312
111	0xb9dd41d0	-0.0004220144
112	0xb8d7fb23	-0.00010298777
113	0xbd44b980	-0.04802847
114	0x3b4b0bda	0.0030982406
115	0x39a96371	0.00032308282
116	0x3a457088	0.0007531722
117	0x398636fa	0.00025599432
118	0xba31503a	-0.0006763969
119	0x3a4d708e	0.00078369013
120	0xba2b39f0	-0.00065317657
121	0xbd4d0806	-0.05005648
122	0xb7b48d0f	-2.1523358e-05
123	0xba659b11	-0.00087587634
124	0x38f080b5	0.00011468065
125	0xba817689	-0.0009877245
126	0x3a1a71dc	0.00058916
127	0x3a6e188c	0.0009082637
128	0xbd84344b	-0.064552866
129	0xb9a4ed96	-0.00031457533
130	0x3986a9fc	0.0002568512
131	0xba042d21	-0.0005042125
132	0x3a759a69	0.0009369017
133	0x3913f463	0.00014110054
134	0x368ebf7d	4.254222e-06
135	0x3d3c796b	0.04601423
136	0x3d417e82	0.047239788
137	0x3d1d7996	0.03844603
138	0xba6e42d0	-0.00090889353
139	0xba7364a7	-0.0009284713
140	0xb945b44a	-0.00018854547
141	0xba2084cb	-0.00061233033
142	0x3d60fbd7	0.054927673
143	0x3d3c6d75	0.046002824
144	0x3d4fa128	0.0506908
145	0xba0dc10f	-0.0005407491
146	0x38ff0ff0	0.00012162316
147	0xb8e6ddc3	-0.00011008561
148	0xb9a52513	-0.00031498875
149	0x3d6a4ec5	0.057204027
150	0x3d2b32dc	0.04179655
151	0x3d27e20d	0.040987063
152	0x3a193311	0.00058440963
153	0xb96a1161	-0.00022322453
154	0xba3841ab	-0.0007028828
155	0xba7f06f2	-0.0009728513
156	0x3d82d45e	0.06388162
157	0xb93647bf	-0.000173836
158	0xb7aa7b65	-2.032304e-05
159	0x38e4e386	0.00010914267
160	0x3a2d6c3a	0.0006615553
161	0x3a397938	0.0007075253
162	0x3a30d282	0.00067452353
163	0xb96579c3	-0.00021884502
164	0xbbb05af8	-0.005381938
165	0x3d47aad9	0.048746917
166	0x3994b78e	0.0002836552
167	0x3981ff96	0.00024795224
168	0xb9c60621	-0.0003777007
169	0xb9d5d873	-0.00040787793
170	0x3b9e871a	0.0048378827
171	0x3d31e423	0.04343046
172	0xba0359cd	-0.0005010635
173	0x39b13e8c	0.00033806672
174	0x3a470a98	0.0007592826
175	0xb94fd18a	-0.00019819118
176	0xb9a89bb7	-0.00032159474
177	0x3d30e959	0.043191288
178	0xbb9d554c	-0.004801428
179	0x3d3b9082	0.04579211
180	0x3a101d11	0.00054974953
181	0xba6e185d	-0.000908261
182	0x3a08b8ea	0.00052155426
183	0x3a77d903	0.00094546395
184	0x39d1fde8	0.0004005276
185	0x3d2ea035	0.042633254
186	0x3c8dd38c	0.017312787
187	0x390ca5c3	0.00013413191
188	0x3a0528b9	0.00050796155
189	0xba03da73	-0.0005029805
190	0x3a792c24	0.00095051737
191	0x3a322ae6	0.00067965535
192	0x3cd12f60	0.025535285
193	0xb8e8944a	-0.00011090243
194	0xb9e6b913	-0.0004400691
195	0xbd3e4b33	-0.046458434
196	0xb9fd64c1	-0.00048330988
197	0x3a59cff0	0.0008308878
198	0x398a9530	0.00026432564
199	0xbd47969c	-0.048727617
200	0xbd477f9b	-0.04870568
201	0xbd3ec81b	-0.046577554
202	0xbcc633f2	-0.024194691
203	0xba1d9c6d	-0.0006012384
204	0xba3a1bee	-0.0007099499
205	0x38dca24f	0.0001052065
206	0xbd4eed1d	-0.050519098
207	0xbd433d58	-0.047665924
208	0xbd4e3acf	-0.050349053
209	0xbd496108	-0.0491648
210	0xba0ad836	-0.00052965
211	0x3a17ffe0	0.0005798321
212	0xb979ce36	-0.0002382331
213	0xbd54c862	-0.051948912
214	0xbd47c96f	-0.048776086
215	0xbd46bedf	-0.048521873
216	0x3d1a0a0d	0.03760724
217	0xba5d4a9a	-0.00084415975
218	0xba4491bf	-0.00074985245
219	0xba7cde09	-0.0009646123
220	0xbd43d3bb	-0.047809344
221	0xba29e557	-0.00064810127
222	0x38fcb042	0.00012049127
223	0x38ef5138	0.00011411536
224	0xba28f4a6	-0.0006445147
225	0xb979dd8a	-0.0002382902
226	0x399ee3bf	0.00030305792
227	0x3a495d57	0.000768145
228	0xbc89cd13	-0.01682142
229	0xbd4eaab8	-0.05045578
230	0xbd3f7671	-0.046743814
231	0x39411646	0.00018414212
232	0xba4ce0f8	-0.00078155054
233	0xba2b6567	-0.00065382425
234	0xbb894054	-0.0041885767
235	0xbd463ef3	-0.048399877
236	0xb810b72b	-3.4502864e-05
237	0x3a149338	0.0005667689
238	0x39814f61	0.0002466394
239	0xba5c4f7a	-0.0008404177
240	0xba7a1942	-0.0009540507
241	0xbd4669af	-0.04844063
242	0x3b680a26	0.003540644
243	0xbd315e8e	-0.043303065
244	0x3baece7f	0.005334675
245	0xba67761f	-0.0008829552
246	0xb882b094	-6.231773e-05
247	0xba561601	-0.0008166731
248	0x3a29d53a	0.00064786116
249	0xbd471806	-0.048606895
250	0x3bef3605	0.007300141
251	0x3c1a1de8	0.009406544
252	0x39cc12b5	0.0003892385
253	0xba0cf42d	-0.0005376961
254	0xba6b4680	-0.0008975044
255	0x3a7196ee	0.00092159107

bias f4 [64]
0	0xbd0b1637	-0.033956733
1	0xbd83460f	-0.06409847
2	0x3d5419c4	0.051782385
3	0xbd45c105	-0.04827978
4	0x3d5075da	0.050893642
5	0xbd1c81e5	-0.038209815
6	0x3d17cb4e	0.03705912
7	0xbd2bc8dd	-0.041939605
8	0x3be41c33	0.0069613694
9	0x3d3e4cde	0.046460025
10	0xbce27bf7	-0.027647002
11	0xbd46facb	-0.04857902
12	0x3d048fba	0.03236363
13	0x3c54b994	0.012983698
14	0xbca59812	-0.020214114
15	0xbd40325e	-0.046923034
16	0xbc11dbc2	-0.008902492
17	0xbd1b83c4	-0.03796746
18	0x3d4bfcf3	0.049801778
19	0x3d5b2c69	0.05350915
20	0xbd3b2287	-0.045687225
21	0xbd37dd1c	-0.0448886
22	0x3d661529	0.056172524
23	0x3d1992d6	0.03749355
24	0x3d523675	0.051321466
25	0x3d16b337	0.036792006
26	0xbd576e22	-0.052595265
27	0x3d431364	0.047625914
28	0x3cda2e12	0.026633296
29	0xbc66e085	-0.014091616
30	0x3d1ce31c	0.038302526
31	0xbca5e2da	-0.020249773
32	0x3d225ae7	0.039637472
33	0xbd0ffc20	-0.035152555
34	0xbd2b115b	-0.0417646
35	0x3d541059	0.051773403
36	0x3d98b899	0.07457084
37	0xbc9b75cb	-0.018977067
38	0xbcee51c8	-0.02909173
39	0xbc1fcedc	-0.009753909
40	0x3cc7005f	0.02429217
41	0xbd1a357f	-0.037648674
42	0x3d47e8c0	0.048805952
43	0x3d27f897	0.041008558
44	0xbb6e889c	-0.0036397344
45	0x3b8fab23	0.0043844148
46	0xbd6b660c	-0.057470366
47	0xbd315c56	-0.04330095
48	0xbc98dfea	-0.018661458
49	0x3d36df0a	0.0446463
50	0x3d35ecf8	0.044415444
51	0x39d92aae	0.00041421264
52	0x3cb54659	0.022128271
53	0x3d642d14	0.055707052
54	0x3d1e907f	0.03871202
55	0x3d40a3b4	0.04703112
56	0x3d55d6ec	0.05220692
57	0xbcf81a1b	-0.030285886
58	0xbcabf649	-0.020991461
59	0xbd261335	-0.04054566
60	0x3d1f8b61	0.03895128
61	0x3cc06acd	0.023488427
62	0x3d32243e	0.043491594
63	0x3d3941e0	0.04522884

mask f4 [64, 64]
0	0x3f800000	1.0
1	0x00000000	0.0
2	0x00000000	0.0
3	0x00000000	0.0
4	0x00000000	0.0
5	0x00000000	0.0
6	0x00000000	0.0
7	0x3f800000	1.0
8	0x00000000	0.0
9	0x00000000	0.0
10	0x00000000	0.0
11	0x00000000	0.0
12	0x00000000	0.0
13	0x00000000	0.0
14	0x3f800000	1.0
15	0x00000000	0.0
16	0x00000000	0.0
17	0x00000000	0.0
18	0x00000000	0.0
19	0x00000000	0.0
20	0x00000000	0.0
21	0x3f800000	1.0
22	0x00000000	0.0
23	0x00000000	0.0
24	0x00000000	0.0
25	0x00000000	0.0
26	0x00000000	0.0
27	0x00000000	0.0
28	0x3f800000	1.0
29	0x00000000	0.0
30	0x00000000	0.0
31	0x00000000	0.0
32	0x00000000	0.0
33	0x00000000	0.0
34	0x00000000	0.0
35	0x3f800000	1.0
36	0x00000000	0.0
37	0x00000000	0.0
38	0x00000000	0.0
39	0x00000000	0.0
40	0x00000000	0.0
41	0x00000000	0.0
42	0x3f800000	1.0
43	0x00000000	0.0
44	0x00000000	0.0
45	0x00000000	0.0
46	0x00000000	0.0
47	0x00000000	0.0
48	0x00000000	0.0
49	0x3f800000	1.0
50	0x00000000	0.0
51	0x00000000	0.0
52	0x00000000	0.0
53	0x00000000	0.0
54	0x00000000	0.0
55	0x00000000	0.0
56	0x3f800000	1.0
57	0x00000000	0.0
58	0x00000000	0.0
59	0x00000000	0.0
60	0x00000000	0.0
61	0x00000000	0.0
62	0x00000000	0.0
63	0x3f800000	1.0
64	0x3f800000	1.0
65	0x3f800000	1.0
66	0x00000000	0.0
67	0x00000000	0.0
68	0x00000000	0.0
69	0x00000000	0.0
70	0x00000000	0.0
71	0x3f800000	1.0
72	0x3f800000	1.0
73	0x00000000	0.0
74	0x00000000	0.0
75	0x00000000	0.0
76	0x00000000	0.0
77	0x00000000	0.0
78	0x3f800000	1.0
79	0x3f800000	1.0
80	0x00000000	0.0
81	0x00000000	0.0
82	0x00000000	0.0
83	0x00000000	0.0
84	0x00000000	0.0
85	0x3f800000	1.0
86	0x3f800000	1.0
87	0x00000000	0.0
88	0x00000000	0.0
89	0x00000000	0.0
90	0x00000000	0.0
91	0x00000000	0.0
92	0x3f800000	1.0
93	0x3f800000	1.0
94	0x00000000	0.0
95	0x00000000	0.0
96	0x00000000	0.0
97	0x00000000	0.0
98	0x00000000	0.0
99	0x3f800000	1.0
100	0x3f800000	1.0
101	0x00000000	0.0
102	0x00000000	0.0
103	0x00000000	0.0
104	0x00000000	0.0
105	0x00000000	0.0
106	0x3f800000	1.0
107	0x3f800000	1.0
108	0x00000000	0.0
109	0x00000000	0.0
110	0x00000000	0.0
111	0x00000000	0.0
112	0x00000000	0.0
113	0x3f800000	1.0
114	0x3f800000	1.0
115	0x00000000	0.0
116	0x00000000	0.0
117	0x00000000	0.0
118	0x00000000	0.0
119	0x00000000	0.0
120	0x3f800000	1.0
121	0x3f800000	1.0
122	0x00000000	0.0
123	0x00000000	0.0
124	0x00000000	0.0
125	0x00000000	0.0
126	0x00000000	0.0
127	0x3f800000	1.0
128	0x3f800000	1.0
129	0x3f800000	1.0
130	0x3f800000	1.0
131	0x00000000	0.0
132	0x00000000	0.0
133	0x00000000	0.0
134	0x00000000	0.0
135	0x3f800000	1.0
136	0x3f800000	1.0
137	0x3f800000	1.0
138	0x00000000	0.0
139	0x00000000	0.0
140	0x00000000	0.0
141	0x00000000	0.0
142	0x3f800000	1.0
143	0x3f800000	1.0
144	0x3f800000	1.0
145	0x00000000	0.0
146	0x00000000	0.0
147	0x00000000	0.0
148	0x00000000	0.0
149	0x3f800000	1.0
150	0x3f800000	1.0
151	0x3f800000	1.0
152	0x00000000	0.0
153	0x00000000	0.0
154	0x00000000	0.0
155	0x00000000	0.0
156	0x3f800000	1.0
157	0x3f800000	1.0
158	0x3f800000	1.0
159	0x00000000	0.0
160	0x00000000	0.0
161	0x00000000	0.0
162	0x00000000	0.0
163	0x3f800000	1.0
164	0x3f800000	1.0
165	0x3f800000	1.0
166	0x00000000	0.0
167	0x00000000	0.0
168	0x00000000	0.0
169	0x00000000	0.0
170	0x3f800000	1.0
171	0x3f800000	1.0
172	0x3f800000	1.0
173	0x00000000	0.0
174	0x00000000	0.0
175	0x00000000	0.0
176	0x00000000	0.0
177	0x3f800000	1.0
178	0x3f800000	1.0
179	0x3f800000	1.0
180	0x00000000	0.0
181	0x00000000	0.0
182	0x00000000	0.0
183	0x00000000	0.0
184	0x3f800000	1.0
185	0x3f800000	1.0
186	0x3f800000	1.0
187	0x00000000	0.0
188	0x00000000	0.0
189	0x00000000	0.0
190	0x00000000	0.0
191	0x3f800000	1.0
192	0x3f800000	1.0
193	0x3f800000	1.0
194	0x3f800000	1.0
195	0x3f800000	1.0
196	0x00000000	0.0
197	0x00000000	0.0
198	0x00000000	0.0
199	0x3f800000	1.0
200	0x3f800000	1.0
201	0x3f800000	1.0
202	0x3f800000	1.0
203	0x00000000	0.0
204	0x00000000	0.0
205	0x00000000	0.0
206	0x3f800000	1.0
207	0x3f800000	1.0
208	0x3f800000	1.0
209	0x3f800000	1.0
210	0x00000000	0.0
211	0x00000000	0.0
212	0x00000000	0.0
213	0x3f800000	1.0
214	0x3f800000	1.0
215	0x3f800000	1.0
216	0x3f800000	1.0
217	0x00000000	0.0
218	0x00000000	0.0
219	0x00000000	0.0
220	0x3f800000	1.0
221	0x3f800000	1.0
222	0x3f800000	1.0
223	0x3f800000	1.0
224	0x00000000	0.0
225	0x00000000	0.0
226	0x00000000	0.0
227	0x3f800000	1.0
228	0x3f800000	1.0
229	0x3f800000	1.0
230	0x3f800000	1.0
231	0x00000000	0.0
232	0x00000000	0.0
233	0x00000000	0.0
234	0x3f800000	1.0
235	0x3f800000	1.0
236	0x3f800000	1.0
237	0x3f800000	1.0
238	0x00000000	0.0
239	0x00000000	0.0
240	0x00000000	0.0
241	0x3f800000	1.0
242	0x3f800000	1.0
243	0x3f800000	1.0
244	0x3f800000	1.0
245	0x00000000	0.0
246	0x00000000	0.0
247	0x00000000	0.0
248	0x3f800000	1.0
249	0x3f800000	1.0
250	0x3f800000	1.0
251	0x3f800000	1.0
252	0x00000000	0.0
253	0x00000000	0.0
254	0x00000000	0.0
255	0x3f800000	1.0

weight f4 [64, 64]
0	0x3be26700	0.006909251
1	0x3d08d4cc	0.033406064
2	0xbbb31440	-0.0054650605
3	0x3db48a04	0.08815387
4	0x3d2c2e1c	0.04203616
5	0xbca74908	-0.020420566
6	0x3dae68ca	0.08516081
7	0xbde220a2	-0.110413805
8	0xbd589bf0	-0.05288309
9	0xbdff43b6	-0.12464087
10	0xbddc1cf2	-0.107477084
11	0xbd0b6d1c	-0.0340396
12	0xbceb8e48	-0.028754368
13	0x3dac1222	0.08401896
14	0x3cbdd37b	0.02317213
15	0x3cb40998	0.02197723
16	0x3dbc7934	0.09202805
17	0xbdf90e18	-0.12160891
18	0x3da3ba68	0.079945385
19	0xbc9addc0	-0.018904567
20	0x3d4c59e0	0.0498904
21	0xbd933d36	-0.071894094
22	0x3d00a7a4	0.031409875
23	0xbd598f00	-0.05311489
24	0x3ca38728	0.019961908
25	0x3d984a44	0.0743604
26	0xbd970100	-0.073732376
27	0x3a5ad900	0.00083483756
28	0x3d5b3cac	0.053524658
29	0x3c8f0a38	0.017460927
30	0xbbfc3c00	-0.0076975822
31	0xbd6f4b94	-0.058421686
32	0xbd049db8	-0.032376975
33	0x3deed76a	0.11662181
34	0x3d8e2ab8	0.06941742
35	0xbe0489f7	-0.12943254
36	0x3de67d38	0.11254352
37	0xbd238468	-0.039921194
38	0xbd7e49f4	-0.062082246
39	0xbd7a3b48	-0.06109169
40	0x3a0d4200	0.0005388558
41	0x3dccc03e	0.09997605
42	0x3c7176a8	0.0147377625
43	0xbd09bdec	-0.03362839
44	0xbdfbf218	-0.12302035
45	0x3dcd0f70	0.1001271
46	0x3cb992b8	0.022652969
47	0x3cf228f8	0.029560551
48	0x3dc15f24	0.09441975
49	0x3dc7d45d	0.09757302
50	0xbdd3bf4e	-0.10339223
51	0xbcb47600	-0.022028923
52	0x3dd114e0	0.1020906
53	0x3c98fc88	0.018675104
54	0x3dbc5fbc	0.091979474
55	0xbd5764dc	-0.05258642
56	0xbd829c32	-0.06377448
57	0xbd8a31fe	-0.067478165
58	0xbd8b8306	-0.068121
59	0xbd8faf28	-0.0701583
60	0xbd76e2cc	-0.060274884
61	0xbdf2e89a	-0.118607715
62	0x3dd19af4	0.10234633
63	0x3dc8a886	0.09797768
64	0xbd307454	-0.04307969
65	0xbc7e9540	-0.015538514
66	0x3dd1a874	0.10237208
67	0xbd525cc0	-0.051357985
68	0xbdac48e4	-0.0841234
69	0xbda4efa4	-0.0805352
70	0xbd1a95c8	-0.0377405
71	0x3d836ba2	0.06417014
72	0x3d1775a3	0.03697742
73	0x39fac400	0.00047829747
74	0xbd15ba08	-0.036554366
75	0x3d8d85a0	0.069102526
76	0x3d231e80	0.03982401
77	0x3deea32c	0.11652216
78	0x3d8635e1	0.06553245
79	0xbcd71d3c	-0.026259057
80	0xbd43aaa4	-0.047770157
81	0xbdf2c2f0	-0.118535876
82	0x3d60da70	0.05489582
83	0x3dccf806	0.10008244
84	0x3d4ff1e4	0.050767794
85	0x3d0f5bd4	0.034999683
86	0x3d7457f5	0.059654195
87	0x3d732dfc	0.059370026
88	0x3dd30552	0.10303749
89	0xbdc03dd6	-0.09386794
90	0xbd015c9c	-0.03158246
91	0x3abc4580	0.0014363974
92	0xbd44254c	-0.04788713
93	0x3d1a6f69	0.037703905
94	0xbde6b4de	-0.112649664
95	0x3ce33a98	0.0277379
96	0xbc4123d0	-0.0117883235
97	0x3d8e5130	0.06949079
98	0xba4fcf00	-0.0007927269
99	0x3dd66976	0.10469334
100	0xbd9d8679	-0.07691664
101	0xbdb3bc7a	-0.087761834
102	0xbc379470	-0.011204824
103	0x3dd6ddb2	0.10491504
104	0xbdcdfbde	-0.100578055
105	0x3dbcb398	0.09213942
106	0x3d878a08	0.06618124
107	0x3dc73263	0.097264074
108	0xbd4ffe08	-0.050779372
109	0x3d86c440	0.065804005
110	0x3d1f28a0	0.038857102
111	0x3be2bfe0	0.006919846
112	0xbde093c0	-0.10965681
113	0x3c246ff1	0.010036455
114	0x3dad8818	0.084732234
115	0xbda21754	-0.07914606
116	0x3dbb8312	0.09155859
117	0x3d2a07c4	0.041511312
118	0x3d841d0a	0.06450851
119	0xbd578a28	-0.05262199
120	0xbd91cb0c	-0.07118806
121	0xbdcb4792	-0.0992576
122	0xbcdbc9f8	-0.026829705
123	0xbd2922a8	-0.041292816
124	0xbd09e474	-0.033665136
125	0x3d1c49d4	0.038156345
126	0xbd7d1fa4	-0.061797753
127	0xbd37b179	-0.044846985
128	0xbd8e9578	-0.06962103
129	0xbd8277c4	-0.063705
130	0x3b5f6300	0.0034086108
131	0xbdf0f456	-0.117653534
132	0x3df124ca	0.11774595
133	0xbd97f988	-0.07420641
134	0x3dd66858	0.10469121
135	0x3de69fce	0.11260949
136	0x3d9ec18a	0.077517584
137	0x3d3909a0	0.045175195
138	0xbdffccbe	-0.12490223
139	0x3d88c568	0.06678277
140	0x3d89aaca	0.067220286
141	0xbd54cb38	-0.051951617
142	0xbdd37e0a	-0.103267744
143	0xbdd1488a	-0.10218914
144	0xbca8f248	-0.020623341
145	0x3db801c6	0.08984713
146	0x3c95f260	0.01830405
147	0x3d6a99f4	0.057275727
148	0x3dbb2e98	0.091397464
149	0xbd83a94c	-0.06428775
150	0xbc9a4118	-0.018829867
151	0x3d00dbb8	0.03145954
152	0x3d80dd82	0.06292249
153	0x3d9a48c8	0.07533413
154	0xbde98fca	-0.11404379
155	0x3d3e93d4	0.0465277
156	0x3b7f0e80	0.0038918555
157	0xbd12b3fc	-0.035816178
158	0xbda3b406	-0.07993321
159	0x3bd1b2e0	0.0063994974
160	0x3d8513e8	0.064979374
161	0xb6be0000	-5.6624413e-06
162	0xbdb46ed0	-0.08810198
163	0x3d319198	0.04335174
164	0xbdef955a	-0.116984084
165	0x3c0b3ea0	0.008498818
166	0x3c12d6f0	0.008962378
167	0x3d97857c	0.07398507
168	0x3db2f602	0.087383285
169	0x3df96e80	0.12179279
170	0xbdc3cc7a	-0.09560485
171	0xbd3fa394	-0.04678686
172	0x3d5f6f2c	0.05454938
173	0xbd46a2a8	-0.048494965
174	0xbdb46aec	-0.08809456
175	0xbdd54e64	-0.104153425
176	0x3d1b1874	0.037865117
177	0xbd51195c	-0.051049575
178	0xbdb0ed62	-0.08639027
179	0x3d1bc76c	0.03803198
180	0xbdc05448	-0.093910754
181	0x3d86c1fa	0.06579967
182	0xbda0259a	-0.07819672
183	0x3d2d2b40	0.042277575
184	0xbcb803a8	-0.022462681
185	0x3dfb722a	0.122776344
186	0x3c8aef58	0.016959831
187	0xbd8ed550	-0.0697428
188	0xbda00994	-0.07814327
189	0xbd0f219c	-0.03494416
190	0x3a472300	0.0007596463
191	0xbd63c30c	-0.055605933
192	0x3dfcf98a	0.12352283
193	0xbd5236b0	-0.051321685
194	0xbc847aba	-0.016171802
195	0x3de72e96	0.112881824
196	0xbda78b20	-0.08180833
197	0xbd9504fc	-0.07276341
198	0xbcad74c8	-0.02117385
199	0xbc93fb40	-0.018064141
200	0x3e0ecd1c	0.1394543
201	0x3dab3886	0.0836039
202	0xbcd486a1	-0.025943102
203	0x3c2ac650	0.010423258
204	0xbd8cd56a	-0.06876643
205	0xbdb9a4dc	-0.090646476
206	0x3ddb449f	0.10706448
207	0xba842f72	-0.0010084941
208	0x3db78afd	0.08962057
209	0xbd9824a2	-0.07428862
210	0x3b8c57c0	0.0042829216
211	0xbd958254	-0.07300249
212	0xbc83ca68	-0.016087726
213	0x3d5ecfcc	0.05439739
214	0x3e2654ce	0.16243288
215	0x3bb57b23	0.0055383607
216	0x3e2fc2d3	0.17164163
217	0x3dd17cde	0.10228895
218	0xbd289d4c	-0.041165635
219	0x3df6e8ee	0.120561466
220	0xbd968680	-0.073498726
221	0xbe10b64b	-0.14132039
222	0xbd102d1f	-0.03519928
223	0x3d849a11	0.06474698
224	0xbc0c2250	-0.008553103
225	0x3da117dc	0.07865879
226	0xbdbcc0ce	-0.09216462
227	0xbbabbb4f	-0.005240835
228	0x3d4e73c0	0.050403357
229	0x3cf2d897	0.029644294
230	0x3db40af1	0.087911494
231	0x3d8df4e2	0.06931473
232	0x3d97d7b2	0.074141875
233	0xbb3c14c0	-0.0028698891
234	0x3c9993ac	0.018747173
235	0xbccc200e	-0.024917629
236	0xbd8a5873	-0.067551516
237	0x3e470238	0.1943444
238	0xbc99cb08	-0.01877357
239	0xbd67a2e0	-0.056551814
240	0xbd930992	-0.0717956
241	0xbd51ebeb	-0.05125038
242	0x3d9c3f44	0.076292545
243	0x3d04cfc0	0.03242469
244	0x3cadf254	0.021233715
245	0x3d33acf4	0.043866113
246	0xbd118088	-0.035522968
247	0x3cea3a50	0.028592259
248	0x3d3ea554	0.046544388
249	0xbd1a3de4	-0.03765668
250	0x3e1ab953	0.15109758
251	0xbdb4436e	-0.08801924
252	0x3d4c5cc0	0.04989314
253	0x3deb87b8	0.11500496
254	0x3d4f6370	0.05063194
255	0x3e02acd4	0.12761241

bias f4 [64]
0	0xbda69cd9	-0.08135385
1	0xbd2db067	-0.04240456
2	0xbdc694ee	-0.09696375
3	0xbd2cd187	-0.04219201
4	0x3e198be2	0.14994767
5	0xbdd64149	-0.10461671
6	0x3dfa39fa	0.122180894
7	0x3d891056	0.06692569
8	0x3dcce68b	0.1000491
9	0x3e2e626e	0.17029735
10	0x3e17b70f	0.14815925
11	0xbc9b7ae2	-0.018979494
12	0xbdd0f32c	-0.10202631
13	0x3d1f6e57	0.038923588
14	0x3d9d3565	0.076762
15	0x3e358268	0.17725527
16	0x3bf4ce18	0.0074708574
17	0x3dfc176d	0.123091556
18	0x3e2e4486	0.17018327
19	0x3d93ff25	0.07226399
20	0x3d9daa2a	0.07698472
21	0x3c89d873	0.016826844
22	0x3e1102ac	0.14161175
23	0x3d652ac4	0.055948988
24	0x3dc3288c	0.09529218
25	0x3dd54e56	0.10415332
26	0x3dfaf961	0.122545965
27	0x3e0e207e	0.13879582
28	0x3d91d9fb	0.071216546
29	0x3e0b476c	0.13601464
30	0x3cdcae7d	0.026938671
31	0xbdc5bdf3	-0.096553706
32	0xbd00e3d8	-0.03146729
33	0x3e238188	0.15967381
34	0xbbde1755	-0.0067776837
35	0x3e02856c	0.12746209
36	0xbd3153e6	-0.043292902
37	0x3d5b4f11	0.0535422
38	0x3e3081c0	0.17236996
39	0xbdc6f920	-0.097154856
40	0xbb381dfd	-0.0028094046
41	0xbb95b447	-0.00456861
42	0xbcf7fa98	-0.03027086
43	0x3e264596	0.16237482
44	0xbe00d1ed	-0.1258008
45	0x3e22566c	0.1585328
46	0x3dfeeb72	0.124472514
47	0xbd1f6a09	-0.038919482
48	0x3df01b04	0.11723903
49	0xbd0fb0c8	-0.0350807
50	0x3de07d2c	0.10961375
51	0xbd219d56	-0.039456688
52	0xbd9b4111	-0.0758077
53	0x3d585caa	0.052822746
54	0x3c438fd0	0.011936143
55	0xbd917cb9	-0.07103867
56	0x3de5dfc0	0.112243176
57	0x3e165aaf	0.1468303
58	0xbb87ef60	-0.004148409
59	0x3c394267	0.011307335
60	0x3d4f3d5a	0.05059562
61	0x3d371cbe	0.044705145
62	0xbd2b2a6e	-0.04178851
63	0xbd043070	-0.032272756
