gwak/output/S4_SimCLR_multiSignalAndBkg_HL/model_JIT.pt (torch, 770721 bytes, 40 tensors)

weight f4 [128, 2]
00000000: 1ad8 0dbe 22cf 233f b1dc 24bf 1605 18bf
00000010: f632 e2be b057 903e ed06 27bd e04b 043f
00000020: 35f0 6dbd e1f9 5c3e 3ef5 65be 6e97 d2bd
00000030: 817b 3ebf 80a6 ecbe ecd3 8ebe 6cd1 a13d
00000040: ab33 b13e 373a ec3e a9b1 e1be d9a4 92be
00000050: 2810 853e fc8f 1f3f c945 3dbe 449d 173f
00000060: 5b08 04be 1b09 4f3c c45d 373f 00b1 40bf
00000070: 4bf6 e7be 3ab0 38be 9596 c5be 43ac 253f
00000080: cdfc 0dbf 0cb9 afbe 6c63 2cbf e1e1 4abf
00000090: 5521 eebe 4c20 143f d4ac a33e afe9 ae3e
000000a0: 689a 7bbd 4121 b7be 8af5 8e3d 2ae5 21bf
000000b0: 0adb 00bf 6f34 afbe 403b 083f 238e c53e
000000c0: 8ee8 b1be 64cd d2bc 5145 d13e d389 2e3f
000000d0: 46a8 963e e916 053e cc44 f73e fb78 dcbe
000000e0: 1619 cc3e 41d4 29bf 62d2 1ebf 6f38 cbbe
000000f0: 0605 b23e 152f 903e 7190 d7be 7a8c 953e
00000100: bfc1 0a3f 4b72 fdbd 6a05 8abd ecf3 863e
00000110: 487b f13e 6144 1c3f 1eb6 18bf 68aa 42be
00000120: f50d fe3e 4080 453f 7564 223f 2bd0 153f
00000130: ad94 493e 6591 2cbf eb33 923d 64cb d6be
00000140: df3d 3fbf 9ca3 193f 470a 043f 405d 25bf
00000150: a37e 523e d266 91be c392 02be 59b7 81be
00000160: bfbe 843e 35fb c9be b856 d13e 0dba eb3e
00000170: ec27 f83e a8c5 9b3e d19d 35bf 642a ddbe
00000180: 1f85 ac3e c20a 953d 46dc 14bf 48b1 d4be
00000190: 2c51 493f 8a60 0a3f 6e53 c5be 8843 74be
000001a0: 4282 2ebf 0979 de3d a862 ebbe 56e3 00bf
000001b0: 346f 19bd bd33 873e 0968 ffbe 1ae2 213f
000001c0: e04f 0dbf cd27 293f c408 f63e 6424 1abf
000001d0: aa2f 99be 1146 7e3d f6db 2d3e 4d23 593e
000001e0: b7f2 803e 421b 133d 84e8 0cbf 41e7 1a3f
000001f0: d5ca 20bf 0404 ccbe 5126 48be 974f cdbe
00000200: 4688 81be 2fa7 01bf f9ec 05be 33c9 373e
00000210: 75cf eabe c799 b73c 1b54 fc3e fddb 68bd
00000220: e6a1 fcbc 460d 0dbe a73d 223e 7461 0a3f
00000230: f06d 253f d38e f13e a25d 243f 6628 f5bd
00000240: 024d 3cbf 5b07 b0be 3e5a d43e b430 b8bd
00000250: 50cb bebe 0aff 0bbf 2eee 2bbf 6293 1bbf
00000260: 64b3 fdbd 1536 be3e 8e51 b63e 965b 29bf
00000270: 52e7 d43e f68c 30bf dc35 09be 0869 88be
00000280: cc55 93bc bc1f 34be 02f6 4cbf 27a6 0dbf
00000290: 7094 44bd 719c 92bc 2ded 00bf 7795 a83e
000002a0: d003 23bf 9812 a9bd 3e71 183f 08d0 52be
000002b0: 9b5b 283f ff1d 513e 8ebb 24bf 740e d73e
000002c0: 2e8d 12be 3997 8dbe 340a 143f 9a1c 15bf
000002d0: 8482 6a3d 356e a6bd 3874 083f 7464 1b3e
000002e0: 1ef1 003f 8431 b13e e638 febd 3163 aabd
000002f0: 4ecc 20bf e0fd c23e 721e 163f 048b 033f
00000300: 13e1 02bf 3840 c33d 7cca 33bf 551c 09bf
00000310: 614f fbbe 9c8f 9f3e eab0 d6be 5d9d e8bb
00000320: e73a 0e3d 74c5 053f fd3c 02bf 78ae 01bf
00000330: 20b0 03bf 743e 053f ddd7 84be 32b3 1a3f
00000340: 85d5 ae3e 6a30 063e f7bc c3bc 0411 34be
00000350: a446 c23d 7c90 bbbd abe2 94bc 59ea e83d
00000360: f768 05bf 1492 bebe ee3c 0e3f 6795 0bbf
00000370: 7c8e 18be 7082 3a3f d8b5 a23e 0bb6 623d
00000380: 9b5f 1bbf 4a70 b03e 9385 1fbf f887 92be
00000390: 2486 91be 72ef 06be 9269 8bbd 74d7 3b3f
000003a0: 0ed9 983d 9cb6 143f 8b02 ee3e 04e5 cebe
000003b0: d193 d23e 99c9 09bf 9513 c1be f216 823e
000003c0: d5b8 cf3e 4e93 2a3f 29f5 81be a285 ecbd
000003d0: 9d79 c63e 3145 2fbf f2bf 023f 643a 1dbf
000003e0: 9eb5 573d 6a58 24be 0545 d3be e379 a43d
000003f0: b757 173f a17f 6cbe d65f f3be 919a 86be
-0.13851967 0.63987935 -0.6439925 -0.5938276 -0.44179505 0.281919 -0.04077809 0.51678276
-0.058090407 0.21579696 -0.22456834 -0.10282789 -0.744072 -0.4622078 -0.2789606 0.07901272
0.34609732 0.46138164 -0.44080856 -0.28641394 0.2598889 0.6232908 -0.18483652 0.59224343
-0.12893812 0.012636448 0.7162745 -0.7527008 -0.45305094 -0.18035975 -0.38591447 0.64715976
-0.5546387 -0.34320867 -0.67339206 -0.79250914 -0.46509805 0.5786178 0.31967795 0.3416266
-0.06142655 -0.35767558 0.069804266 -0.632403 -0.5033423 -0.3421969 0.5321541 0.38585004
-0.34747738 -0.025732704 0.40873197 0.68179053 0.29425257 0.12997021 0.48294675 -0.4306105
0.3986289 -0.663395 -0.6203977 -0.39691493 0.34769458 0.2816092 -0.42102388 0.29208738
0.54201883 -0.12375315 -0.06739314 0.26357973 0.4716437 0.6104184 -0.5965289 -0.19010317
0.49620023 0.7714882 0.63434535 0.58520764 0.19685622 -0.67409354 0.07138809 -0.4195205
-0.7470378 0.60015273 0.5157818 -0.64595413 0.2055612 -0.28398758 -0.12751298 -0.25335196
0.25926778 -0.39449468 0.40886474 0.46040383 0.48467958 0.30424237 -0.70943934 -0.43196404
0.33695313 0.072774425 -0.5814861 -0.41541505 0.78639483 0.54053557 -0.38540214 -0.23853886
-0.6816751 0.108629294 -0.45973706 -0.5034689 -0.037459567 0.2640666 -0.4988406 0.6323563
-0.55200005 0.66076356 0.48053563 -0.6021178 -0.29919177 0.06207854 0.1697844 0.21204872
0.25185177 0.035914667 -0.5504229 0.60509115 -0.628095 -0.39846814 -0.19545867 -0.40099785
-0.2529928 -0.50645727 -0.13078679 0.17947845 -0.45861402 0.022412194 0.49282917 -0.056850422
-0.030838918 -0.13774595 0.15843831 0.5405495 0.64620876 0.4717928 0.6420537 -0.11970596
-0.73555005 -0.34380612 0.414751 -0.089936644 -0.3726449 -0.54686034 -0.6716031 -0.60771763
-0.12387732 0.37150636 0.35609096 -0.66155374 0.41582733 -0.6896509 -0.13399452 -0.26642632
-0.017985247 -0.1759023 -0.8006288 -0.55331653 -0.047993124 -0.017896863 -0.503619 0.32926533
-0.6367769 -0.082554996 0.59547794 -0.2058717 0.6576478 0.20421599 -0.64348686 0.42003214
-0.14311668 -0.27654436 0.5782807 -0.5824677 0.057253376 -0.08126489 0.53302336 0.15175039
0.50367916 0.3460809 -0.12413196 -0.083197005 -0.62811744 0.38084316 0.58640206 0.51383996
-0.51124686 0.09533733 -0.7023084 -0.53558856 -0.49084 0.31164253 -0.4193185 -0.0070988373
0.034724142 0.52254415 -0.5087431 -0.50656843 -0.5144062 0.5204842 -0.2594594 0.6042968
0.34147277 0.13104406 -0.023893816 -0.17584616 0.0948613 -0.091584176 -0.01817449 0.11372823
-0.5211329 -0.37220824 0.5556172 -0.54524845 -0.14898103 0.7285528 0.3177936 0.05534939
-0.6069276 0.3446067 -0.62313193 -0.2861936 -0.28422654 -0.13177279 -0.06807245 0.7337563
0.07463275 0.5809114 0.46486315 -0.404091 0.411284 -0.5382324 -0.37710252 0.2540813
0.40570703 0.6663102 -0.25382355 -0.11548926 0.3876466 -0.6846495 0.51074135 -0.6141722
0.052663438 -0.16049352 -0.41263595 0.080310605 0.5911822 -0.23095562 -0.47534055 -0.262898

bias f4 [128]
00000000: 7f50 2bbf 62d6 8e3e e707 73be 6af8 e6be
00000010: b6bb d8be 325f d03e 4bcd 9d3e 43f1 d83e
00000020: bc58 763e a3f3 71be 59da 4bbe 6210 363e
00000030: 1ac7 0c3f 451a 633e 5e69 acbe 1386 92be
00000040: 7b0b 1ebf 9592 713e 58b6 acbe 6f64 21bf
00000050: 1acd 273f 1458 dbbe df06 c7bd dc4f 3e3e
00000060: ef47 9f3c 3dc8 e4be b701 11bf 953e 053f
00000070: 0ec0 fb3d 2626 0b3f acb6 6cbe 09b9 253e
00000080: aca4 19be c376 2cbd 09fa c2be a425 633e
00000090: 6e74 2e3e caf7 27ba b93f 22be 60d7 dfbe
000000a0: ce05 e43e 79f3 06bf ac46 753e 41b5 89be
000000b0: 8bc1 acbe 511a e93d fb1f babe 45e9 313e
000000c0: ed90 083e e247 01bf d0ce 7d3d 5257 8c3e
000000d0: 713b 803e a301 90bd f2a3 03bf b9a0 99bd
000000e0: 4ee9 703e 14b8 53be 28da 7e3e 5bcb d53e
000000f0: 5feb c1be 465f 263d 90ab 873e cc62 4a3d
00000100: e78b 8b3d b5de 8c3e 4ab7 0dbf 8572 463d
00000110: ffcc cb3e 6737 263f 82a5 d83e b42b a13d
00000120: 668e a53e 1bf5 babe 9e1a 27bf f91a 15bf
00000130: bdff 2d3f fe4d d73e b6c2 edbe 52bd a33e
00000140: 30a5 0b3f 955e 2d3f 4d6b 1c3f f284 0e3f
00000150: 06b6 36be be94 74be cdd9 113f 7531 c43e
00000160: c6b6 dabe 8be2 133f 92ae b13e ff82 bc3e
00000170: 012a e5be aaeb 5f3e f0eb 58be 608d 073f
00000180: 5217 babd 9f6e 773e 3e0b 073e ac71 9b3e
00000190: 2d09 64be 5594 c33e 05c4 ecbe f04e 083e
000001a0: c561 fdbe 3c0a 2dbf 7697 0fbf 5048 0a3f
000001b0: bb7a b03e 9a9d 103f 11d4 0d3f 34a5 1abf
000001c0: ad98 f0be 293e fcbd db0e ddbe 0fc3 e93e
000001d0: bc44 10bf 35c5 a3be dcb5 29bf 94f1 cdbe
000001e0: 469e 083f 422f 193f 2240 013f 46dc 083f
000001f0: 12bb 143f 43fa 5abe 2471 9d3e abff 183f
-0.669197 0.27897936 -0.23733483 -0.451114 -0.42330712 0.40697628 0.3082069 0.42371568
0.24057287 -0.23628096 -0.19907512 0.17779687 0.54991305 0.2217799 -0.3367414 -0.28617916
-0.6173627 0.23591073 -0.33732867 -0.63043875 0.65547335 -0.42840636 -0.097181074 0.18585151
0.01944348 -0.4468402 -0.5664324 0.5204862 0.12292491 0.54355085 -0.23116559 0.16183867
-0.15004224 -0.042105448 -0.38081387 0.22182328 0.17036602 -0.0006407468 -0.15844621 -0.43719006
0.4453568 -0.5271526 0.2395274 -0.26896098 -0.33741412 0.113819726 -0.36352524 0.17374142
0.13336535 -0.5050031 0.06196481 0.2741037 0.2504535 -0.07031562 -0.51422036 -0.075013585
0.23526499 -0.20675689 0.24887908 0.4175671 -0.37874886 0.040618204 0.2649808 0.049410626
0.06813794 0.27513662 -0.553578 0.048449058 0.39804837 0.6492829 0.42313772 0.07869664
0.32335204 -0.36515126 -0.6527499 -0.5824428 0.6796835 0.4205169 -0.46437615 0.31980377
0.5454893 0.67722446 0.6110123 0.5567161 -0.17842874 -0.23884866 0.5697296 0.38318983
-0.4271757 0.5776755 0.347035 0.36818692 -0.4475861 0.21867242 -0.21183753 0.52950096
-0.09086479 0.24163292 0.13187882 0.30360162 -0.22269125 0.38199106 -0.462433 0.13311362
-0.49488655 -0.6759374 -0.56090486 0.5401659 0.34468636 0.5649048 0.5540171 -0.6040833
-0.46991482 -0.123165436 -0.43175396 0.4565663 -0.5635488 -0.31986395 -0.6629312 -0.40223372
0.53366506 0.59837735 0.50488484 0.5346111 0.58097947 -0.2138453 0.30750382 0.5976512

D f4 [128]
00000000: 73a2 553e d485 3f3f 24a6 813f ff44 483f
00000010: c4ca 193f cc27 c4bf 63a9 4c3e e93e 213f
00000020: 7ea3 bb3f 1d24 8240 7d80 923f 0b26 cdbf
00000030: b890 3bbf c7ab da3e 4be4 9d3f cf1a 13bf
00000040: 1579 33bf f0cd a73d 0e2c 503e c8c4 0dc0
00000050: 6c8e af3f f16a e6be c646 ce3f a1d7 66bf
00000060: e93c d03f ae7d 92bf 3f38 233f 3797 973f
00000070: d98e 0dbf e840 babd b6e5 0940 bed8 dd3f
00000080: f1ab 86bc 251d 903f 4a60 81bf fb73 db3f
00000090: 9243 9dbd 8d1e 84be 55c2 5a3f 9ea5 24bf
000000a0: f483 74bf 2db2 753e c1d6 283f a503 e93f
000000b0: 7107 9f3f f1c0 0bbf 927e 783f a9ce b7bf
000000c0: fd49 0c40 9218 983f d69c d6be 7fcb d93e
000000d0: da9b aa3f dd2d e13e 447f dbbe 8a5f 7f3d
000000e0: f61f 643e 4234 383e 7b52 d23e 5bb8 38bf
000000f0: add7 383e 59d9 08be f3ba c13f b6b6 bbbe
00000100: 84d6 8cbf 0ffc 273d af26 e63f 656e 86bf
00000110: a970 5440 aec6 bebe 3b44 1bbf e729 d83f
00000120: a6a4 01be e80e bebe 87fe 8e3f 04d9 ad3f
00000130: 3a49 723e 9547 c53f a6a2 bfbe bcc0 b03f
00000140: 8413 e03e 7f7e cabf 3b57 ddbe 9e22 133f
00000150: 3901 063f e8fa 86bd ca20 a73e 7ed7 5cbe
00000160: b247 b4bf 6b59 083f 1926 94bf 17ea 77bb
00000170: 9e68 5e3e ee96 5ebf a7e8 c53f e103 4ec0
00000180: 6336 0bbf b7ff 8abe df40 3bbe 4bc7 bebf
00000190: af05 1abd 4d22 9c3f ebd2 9d3f 1759 d5bf
000001a0: c037 a3bd d682 193f f1c8 8c3e 3af3 32bf
000001b0: e010 97bf cfdc c13f 6ebc 2abf 300d 143f
000001c0: eca0 c23e 354c d83c 63c2 a7bf c6ba 27bf
000001d0: c0be 1abe e6e2 62bf d430 83bf 7c1a 273f
000001e0: b320 febd edef 4e3f 0d93 f7bf 001a 1bc0
000001f0: 9f7d 253e f84b dabf 1d73 a73f 9ad5 cabf
0.2086275 0.7481358 1.0128827 0.7823028 0.6007502 -1.5324645 0.19986491 0.6298662
1.4659269 4.0669084 1.1445462 -1.6027235 -0.732677 0.4270918 1.2335294 -0.5746278
-0.7010663 0.08193576 0.20329306 -2.2151356 1.3715339 -0.45003465 1.6115348 -0.90172774
1.6268588 -1.1444604 0.637577 1.1843022 -0.55296093 -0.09094411 2.1546454 1.733177
-0.01643941 1.1258894 -1.010751 1.714477 -0.07678904 -0.25804558 0.8545278 -0.6431521
-0.95513844 0.2399375 0.6595269 1.8204237 1.2424146 -0.5459128 0.9706813 -1.4359943
2.192016 1.1882498 -0.4191653 0.42538068 1.3328812 0.43980303 -0.42870533 0.062346973
0.22277817 0.17988685 0.41078553 -0.72156304 0.18051024 -0.13364162 1.5135177 -0.36662835
-1.1002965 0.041011866 1.7980555 -1.050244 3.3193762 -0.37260956 -0.60650986 1.6887788
-0.12660465 -0.37120748 1.1171426 1.3581853 0.23660746 1.541247 -0.37428778 1.3808818
0.4376489 -1.5819854 -0.43230614 0.57474697 0.52345616 -0.06590825 0.32642204 -0.21566579
-1.408438 0.5326144 -1.1574126 -0.0037828737 0.21719596 -0.8694905 1.5461625 -3.2189867
-0.5437986 -0.2714822 -0.18286465 -1.4904569 -0.037603077 1.2197968 1.2329992 -1.6667813
-0.07969618 0.59965265 0.27497056 -0.69902384 -1.1802025 1.514551 -0.6669377 0.5783262
0.380134 0.026403526 -1.3106197 -0.6551937 -0.15111828 -0.8862747 -1.0249276 0.65274787
-0.12408581 0.8083485 -1.9341751 -2.423462 0.16161202 -1.7054434 1.3082005 -1.5846436

C f4 [128, 16, 2]
00000000: 0cbd a83e c8df 3bbf e4b7 4d3e be00 67be
00000010: 90e3 ad3e a252 8d3f 2d5a 5b3e 5510 7cbe
00000020: 1bcb 0d3d afd2 243f 8eb5 a8bf 9f74 703f
00000030: 633c 14bf 4fc4 e23f 1dc8 e33e 8dfa d83f
00000040: aa5f 2ebf d91a f13f 9e15 48be 9c6a 6d3f
00000050: 722e 03be b378 293f 1375 cc3f d88f 8dbe
00000060: ef21 07be e7c5 bbbe ca1b b13e e979 2bbf
00000070: 2196 1e3f c6f2 c3be aaef 7b3e d7da 293e
00000080: 578d 253f 7a77 f63e ee5d 88bf cc0f b9bf
00000090: 4fba 9bbe 0b41 e43e cd15 b1bf 5aa8 113f
000000a0: 6fe0 ffbd 9031 903f 91a0 f33e fad3 a03e
000000b0: 9ed0 ffbe 559c 24bf e022 413f 1097 b13e
000000c0: 67c8 4d3f e0c8 263f 48b4 26bf 8298 f1be
000000d0: ff9a c0bd 7376 78bf b356 493f 1c1d 48be
000000e0: 2ea0 6fbf c97e 2e3f 6006 3cbf 8e33 8dbe
000000f0: 3d88 9e3f ad75 dabf dfdd 833e a5ea f6bd
00000100: dc75 7c3e 92ba 6f3f e8ab ab3f ec7a b2bf
00000110: ccb2 85bf 62fa adbf 023b 073d 2965 153f
00000120: 7a02 dbbd 413e 5c3e 1f31 98be 4f2b 8d3f
00000130: ffc3 91be 4201 52bf 087c 47bf cca1 dabd
00000140: b8b0 983e fac5 f93d 3548 3fbf 7e98 d53e
00000150: a794 06bf f8d9 3fbf 8190 6a3f d3b2 bb3e
00000160: a9aa bbbf 1fd2 e93e 2a93 a63e 6cd7 50be
00000170: be7c 643e a7e1 38be 0921 b13f 5602 d0bb
00000180: 434f 78bd 0505 8f3e 620d 573f d86e 303d
00000190: 3bb8 b7be 83b0 25bf 49d9 a33f e156 4bbf
000001a0: 2a17 55bf 084f 77be 9338 60bf 6440 a23e
000001b0: 6412 45bd a481 263f 19f7 3e3f 184e 67bd
000001c0: 1204 9dbf 0999 d33e 203f 373f fe14 563f
000001d0: 6c93 c1be a4d1 483f a1a1 0bbf 04ec b53e
000001e0: 4916 3ebf e748 b0bf 2a5c 3c3e 3d4e 84be
000001f0: 3298 09bf 5288 8b3f 6a16 893e b7eb 2fbe
00000200: 1738 da3e 43c0 923e 1c7a 873f 6332 5c3e
00000210: 106f 9e3f 65de c73e 505c a1bf f189 efbe
00000220: f220 4d3d bc31 143f 8463 d7bd c7b2 7dbc
00000230: 51ed b33e e230 93bf e5ae febe 34c7 cfbd
00000240: f1be 1d3f 3654 d7be e4e7 90be 115f a1bd
00000250: 9444 aa3e 87db 013f 095d 31bf 03ba 68bf
00000260: 776a 013e 767f f1be 2614 353f 45ce 2f3d
00000270: 59cf 323f f794 363f 39af 973e 0f79 023f
00000280: 40e6 7dbf 54e2 0bbf 8c3e 9ebd cc2a 13be
00000290: a192 c0be ac8f 833f ca7a 06c0 5409 b5bd
000002a0: a5a4 debe fb66 51be 75d2 ca3f 3982 b03e
000002b0: 3285 33bf 773b b53f 39d0 9dbf ae1e ebbe
000002c0: 3000 11bf 47c3 adbf 2903 50bf 28fb d0be
000002d0: 3872 d9bf be56 24bf 1ea9 053f b7aa 09bf
000002e0: 56ac 7e3e e68e 4e3f 482e 22ba 0a32 883f
000002f0: 3a31 c5bf c7e9 84bd d084 8ebf 6bd0 cd3e
00000300: fae2 2fbf 1ff3 9a3e 6438 60be c918 d4be
00000310: 5e45 8dbe 7a2b efbe b3f9 fdbd 2d6f 3a3f
00000320: a6e9 0a3f cb7c 1cbf fa62 24be 278d 89bf
00000330: c4f8 7bbf 5197 c23e 46ef 34bf f044 3fbf
00000340: 0d75 6abf 106c bbbd 93d5 a13e 319d af3f
00000350: b0b8 5e3e f5b6 0a3f 1bf6 73bf d27c 8cbe
00000360: a36d d9bd 19b5 793f fb87 4fbf 76ef b23e
00000370: 0acf 27bf 95df b63d 5f58 45bf c620 2e3e
00000380: 17f6 0540 0a71 43bf dc9f 5abf 6e32 cfbe
00000390: be0d 193f 9229 883f 807f e43d 3e93 27bf
000003a0: df4b 9fbd 5158 f83b 58f7 9fbd 2d3c 38be
000003b0: a253 43bf 4832 f23c 6b4d 5d3f 4854 823e
000003c0: 2cf5 1fbf ccd4 963e 069a 6bbb 04ab eb3f
000003d0: db51 6bbf 0b10 543f 4f62 aebe 117c 873d
000003e0: 32cc 8fbe 7a96 883d 408f cf3e 31a7 06bf
000003f0: f4f9 78bf e062 5dbf 4f87 903f 82ea 6ebe
0.3295673 -0.7338834 0.2008968 -0.22558877 0.3396268 1.1040843 0.21421118 -0.24615605
0.034617525 0.6438398 -1.3180406 0.9392795 -0.5790464 1.7716159 0.44488612 1.6951462
-0.6811472 1.8836318 -0.19539496 0.927408 -0.12810686 0.661998 1.5973228 -0.27648807
-0.13196538 -0.36674425 0.34591514 -0.66982895 0.6194783 -0.3827116 0.24603143 0.16587387
0.6466879 0.48138028 -1.0653665 -1.4457946 -0.3041558 0.44580874 -1.3834778 0.5689751
-0.12493979 1.1265125 0.4758344 0.31411725 -0.4996385 -0.64301044 0.7544384 0.34685564
0.80383915 0.6515026 -0.6511884 -0.47186667 -0.09404563 -0.9705574 0.7864792 -0.19542354
-0.9360379 0.6816221 -0.7344723 -0.27578396 1.2385327 -1.7067162 0.25755212 -0.12056474
0.24654335 0.9364406 1.3411837 -1.3943763 -1.044519 -1.3592036 0.03301526 0.58357483
-0.10693832 0.21508123 -0.29724976 1.1028842 -0.28469846 -0.8203317 -0.7792363 -0.106753916
0.29822326 0.12195964 -0.74719554 0.41717905 -0.52570575 -0.7494197 0.91626745 0.3665987
-1.4661456 0.45668122 0.32534152 -0.20394677 0.2231321 -0.1805483 1.3838207 -0.0063479347
-0.060622465 0.27933517 0.84004796 0.04307446 -0.35882744 -0.6472246 1.2800685 -0.7942944
-0.8323847 -0.24151242 -0.87586325 0.3168975 -0.04811324 0.65041566 0.7459579 -0.05647096
-1.2266867 0.41327694 0.71580696 0.8362578 -0.37807786 0.78444886 -0.545435 0.35531628
-0.74252754 -1.3772248 0.18394533 -0.2584094 -0.53747857 1.0900977 0.26774913 -0.17179762
0.42620918 0.2866231 1.058414 0.21503596 1.2377644 0.3903686 -1.2606297 -0.46784928
0.050080247 0.5788839 -0.10517028 -0.015484518 0.35141996 -1.1499293 -0.4974281 -0.10145417
0.6161948 -0.42056435 -0.28301919 -0.078794606 0.33255446 0.507256 -0.69282585 -0.9090883
0.1263827 -0.47167557 0.7073387 0.042921323 0.6984764 0.7132105 0.29625872 0.5096597
-0.9917946 -0.54642224 -0.077267736 -0.14371794 -0.3761187 1.027822 -2.1012444 -0.0883967
-0.4348499 -0.2044944 1.5845476 0.34474352 -0.70125115 1.4158772 -1.232917 -0.45921844
-0.5664091 -1.3575219 -0.8125482 -0.40816617 -1.6987982 -0.6419486 0.5221118 -0.53776115
0.24870428 0.80686796 -0.0006186706 1.0640271 -1.5405648 -0.06489902 -1.1134281 0.40198073
-0.68705714 0.30263612 -0.21896511 -0.4142516 -0.27591985 -0.46712857 -0.12401142 0.7282589
0.5426277 -0.6112792 -0.16053382 -1.0746201 -0.9842646 0.3800607 -0.706776 -0.74714565
-0.91584855 -0.09151471 0.31608257 1.3719846 0.2175014 0.5418542 -0.952974 -0.2743898
-0.10616615 0.9754196 -0.81066865 0.3494832 -0.6555029 0.08929364 -0.7708797 0.1700469
2.0931451 -0.7634436 -0.85400176 -0.40468162 0.59786594 1.0637686 0.11157131 -0.6545905
-0.07778143 0.0075788875 -0.07810849 -0.17991705 -0.7629949 0.029564992 0.86446255 0.25454926
-0.6248348 0.29459226 -0.003594996 1.8411565 -0.91921777 0.8283698 -0.34059379 0.06615461
-0.28085476 0.06669326 0.4053898 -0.52598864 -0.972564 -0.86478996 1.1291293 -0.23331645

log_dt f4 [128]
00000000: b644 a6c0 1193 acc0 d440 77c0 93fe 6fc0
00000010: d5a0 b5c0 9490 8dc0 5e61 4fc0 874a 9cc0
00000020: 0347 7cc0 88d5 a4c0 5e33 70c0 b225 c8c0
00000030: 79cb bec0 50cd b8c0 0e20 1fc0 b8ab a7c0
00000040: be9f 92c0 6e2e b6c0 eacf 0dc0 7d56 14c0
00000050: eefc cac0 24d4 ccc0 5d29 c9c0 820b 95c0
00000060: 1f52 a6c0 016f c4c0 d0ac b0c0 1c58 84c0
00000070: a1de b8c0 eb34 82c0 1360 a1c0 f7bc b7c0
00000080: 7c3a 89c0 59fc 28c0 6ae6 c5c0 4948 91c0
00000090: e1ca adc0 f0ec 12c0 b976 d1c0 14f2 dbc0
000000a0: c4af 14c0 1141 c0c0 de1a 83c0 e26f 99c0
000000b0: 660a a3c0 5d6b a3c0 fe0d 4bc0 dcb5 90c0
000000c0: ea8a d9c0 c94f bec0 76f8 abc0 9091 59c0
000000d0: f0ed c0c0 3ea8 1bc0 5284 a3c0 0142 a0c0
000000e0: 3503 36c0 95d0 59c0 655f 26c0 e699 4fc0
000000f0: b28e a7c0 6630 c1c0 bf11 98c0 cdd2 2bc0
00000100: b836 acc0 6585 dac0 a370 6fc0 926f 16c0
00000110: 0d53 a8c0 3666 cbc0 d4b8 d5c0 7de1 81c0
00000120: 9867 97c0 185b b9c0 3de2 84c0 c167 6cc0
00000130: c2ab 2fc0 0a9f 36c0 ed9b 9bc0 7c12 d1c0
00000140: 1e89 d3c0 9e70 1fc0 94d6 70c0 f6af 61c0
00000150: 3856 d1c0 89b9 1cc0 6a70 1ac0 6336 24c0
00000160: e02f d1c0 a076 afc0 bba6 c4c0 6365 1ac0
00000170: 7155 b4c0 e6da b6c0 ceeb 5ac0 42af b3c0
00000180: 36e3 b5c0 8eee 99c0 9e5d 98c0 54b5 cbc0
00000190: 2f85 2cc0 a4e1 b1c0 e6f4 6fc0 451c 24c0
000001a0: b32b 59c0 6353 8cc0 b9e3 2bc0 dbe7 8ac0
000001b0: 8394 b4c0 4e7e 1bc0 e380 7ec0 48e4 d7c0
000001c0: cb16 a7c0 d85a c4c0 7b4e 23c0 b42d 9dc0
000001d0: 03ea d1c0 5ca1 96c0 2740 4ac0 65f6 7cc0
000001e0: 3fed 78c0 0a07 90c0 e5c9 70c0 e8d7 a2c0
000001f0: a53f b0c0 766c d9c0 69d4 cac0 be6f 65c0
-5.1958876 -5.3929524 -3.8633318 -3.749913 -5.675883 -4.4238987 -3.2403178 -4.8840976
-3.9418342 -5.151066 -3.7531352 -6.2546015 -5.962338 -5.7750626 -2.4863315 -5.2397118
-4.582 -5.6931677 -2.215815 -2.3177788 -6.343375 -6.400896 -6.286299 -4.657655
-5.1975245 -6.1385503 -5.5210953 -4.1357555 -5.7771764 -4.0689597 -5.042978 -5.741817
-4.288389 -2.640402 -6.1843767 -4.540074 -5.4310155 -2.2957115 -6.5457425 -6.8733006
-2.323228 -6.0079427 -4.0970297 -4.7949076 -5.0950193 -5.106856 -3.172729 -4.5221996
-6.7982073 -5.9472394 -5.3740797 -3.3995094 -6.029045 -2.4321437 -5.1099024 -5.008057
-2.8439457 -3.4033558 -2.5995724 -3.2437682 -5.236169 -6.037158 -4.7521663 -2.6847413
-5.3816795 -6.8287835 -3.7412498 -2.3505597 -5.260138 -6.356227 -6.678812 -4.0587754
-4.7313957 -5.79237 -4.152617 -3.6938326 -2.7448583 -2.853457 -4.862784 -6.5335064
-6.610488 -2.4912486 -3.7630968 -3.5263648 -6.5417747 -2.4488242 -2.4131112 -2.5658195
-6.537094 -5.4832306 -6.145353 -2.4124382 -5.63543 -5.714221 -3.4206424 -5.615144
-5.6839857 -4.8103704 -4.761428 -6.365885 -2.695629 -5.558794 -3.7493224 -2.5642254
-3.3932922 -4.385179 -2.685774 -4.3408027 -5.643129 -2.429584 -3.9766166 -6.7466164
-5.2215323 -6.1360893 -2.551665 -4.911829 -6.559816 -4.707197 -3.1601655 -3.9525387
-3.8894804 -4.5008593 -3.7623227 -5.0888557 -5.507769 -6.79449 -6.338429 -3.5849452

log_A_real f4 [128, 16]
00000000: bb55 21bf b2d3 74bf d858 64bf ae6d 17bf
00000010: f875 35bf dd36 76bf 9e0e 51bf 6b1a 4dbf
00000020: 47f2 29bf 5e97 22bf 0bd0 39bf 6651 40bf
00000030: a0aa 3ebf c489 28bf 7384 23bf ebfb 28bf
00000040: b98d 28bf e81e 30bf 3c50 06bf 471c 32bf
00000050: ef4d 55bf 1d73 14bf 7841 28bf 137a 3ebf
00000060: af1e 25bf 710d 31bf a3ca 49bf 0c47 27bf
00000070: e01c 31bf b8c8 26bf efc2 23bf d2a0 2bbf
00000080: 457e 2ebf 062d 85bf 02b5 91bf 5bdf 59bf
00000090: 2a89 3bbf 2a6b 1ebf 8bb4 0bbf 93a1 0bbf
000000a0: 0fdf 18bf 9fa9 fdbe 0a39 0bbf 8c6c 10bf
000000b0: d8dd 23bf 2435 2abf 4ad1 27bf 9fe6 1dbf
000000c0: e6e0 2ebf 1292 62bf 8203 8cbf 569a 43bf
000000d0: 90ae 30bf 614a 20bf b5d7 21bf 8886 16bf
000000e0: a679 16bf 3965 18bf 7e26 17bf eede 24bf
000000f0: ac05 17bf 5d52 26bf 791e 1bbf 13bd 21bf
00000100: 3419 4fbf 16de 2cbf 712b 36bf b586 51bf
00000110: d5e1 1abf aae2 33bf 5615 36bf 4b2a 4cbf
00000120: 55c0 46bf 4d5c 45bf b0d5 37bf 0aab 32bf
00000130: 0b97 2fbf d58c 3abf d368 2fbf 00b1 30bf
00000140: f4d0 39bf eeb5 26bf 60e7 2dbf 3e65 50bf
00000150: a83c 29bf 6e6c 3dbf 1a09 4bbf e31f 3dbf
00000160: cdb4 4cbf b508 41bf eac6 34bf fc93 41bf
00000170: 8021 3bbf 922e 3bbf 4cc1 2cbf 892b 35bf
00000180: 0809 1ebf 51e4 f5be 29d3 2fbf dbb4 46bf
00000190: ce77 42bf 2824 3dbf f9c3 46bf 0497 3dbf
000001a0: 0637 42bf 6939 36bf 0a35 37bf 68da 38bf
000001b0: c641 36bf 6ab5 3ebf 8260 47bf 2af0 4bbf
000001c0: 78cd 17bf c389 20bf 3968 52bf bd64 4dbf
000001d0: 25b6 02bf bb8b 43bf d836 40bf b044 40bf
000001e0: 6b21 1ebf e576 21bf dec7 2abf 5d62 2ebf
000001f0: 65f7 2fbf 10b4 3ebf b225 2abf 52e1 3fbf
00000200: e98d 2ebf 20d8 32bf 7b2b 3abf e881 10bf
00000210: f74f 2abf 0005 27bf 09fd 2bbf ce78 2fbf
00000220: 8f72 2cbf 965a 2cbf 6b47 3abf edbe 32bf
00000230: 59c4 2abf f78d 2bbf 001a 27bf 1174 2dbf
00000240: 9baf 33bf 7264 3dbf 4975 25bf 4e2a 32bf
00000250: acde 4abf 3991 49bf 13ff 40bf 1c25 37bf
00000260: cf68 28bf 0a48 2cbf 8d91 3fbf e391 39bf
00000270: f538 27bf 76cb 29bf c66e 2cbf 8361 36bf
00000280: bc2f 2ebf ee8a 41bf d3c1 1abf 7fc5 23bf
00000290: 0d52 1cbf 470f 37bf 02e0 33bf c154 30bf
000002a0: cb11 2cbf be95 32bf 128a 3dbf 55c9 2dbf
000002b0: 8f6e 2dbf d6db 29bf ee80 29bf 47e5 28bf
000002c0: 882e 27bf 37b1 43bf 09e8 40bf a09e 0ebf
000002d0: 4675 09bf eec0 00bf b2ba 60bf f055 3ebf
000002e0: 542e 27bf db85 38bf 87f1 2dbf aa2f 30bf
000002f0: aca0 07bf b233 1fbf b588 1abf 4b4c 2cbf
00000300: 4210 29bf 91b7 17bf 901a 35bf 7959 37bf
00000310: 68b9 50bf 5077 14bf 7e29 34bf 80f1 3cbf
00000320: 4a2d 25bf 1afa 28bf a386 39bf 34db 3bbf
00000330: 7d5a 3ebf ab69 2abf ddd7 22bf 23e6 28bf
00000340: ba70 2dbf d295 58bf e59c 18bf a7e5 3cbf
00000350: 5237 0fbf 269c 82bf 1c64 68bf 9afa 6cbf
00000360: e591 3dbf 3624 64bf 7ab1 62bf 8b97 67bf
00000370: 03de 66bf e2e8 4bbf 1322 44bf d1fb 46bf
00000380: f014 2fbf 2d44 5abf b559 1bbf 9cfa 13bf
00000390: 3526 27bf 3215 21bf dbaa 34bf 0178 1cbf
000003a0: 37cf 1cbf ca07 44bf d74f 1ebf ff28 19bf
000003b0: 0eb3 19bf 9b5e 2ebf 1bb5 1cbf 1de9 27bf
000003c0: 6a30 29bf 9b4e 2ebf fe3b 2fbf 9588 6cbf
000003d0: ef28 54bf bc0f 52bf 1489 4dbf 0379 4ebf
000003e0: 3e2a 2bbf 7ed5 3cbf 45db 2fbf ebd3 33bf
000003f0: c345 1abf 0cc6 26bf 1a36 26bf 73a7 1bbf
-0.6302144 -0.9563552 -0.89198065 -0.5915173 -0.7088313 -0.96177465 -0.8166293 -0.80118436
-0.6638531 -0.6351222 -0.72583073 -0.75124204 -0.74479103 -0.65835214 -0.63873976 -0.66009396
-0.6584125 -0.6879716 -0.5246618 -0.695744 -0.8332204 -0.5798815 -0.657249 -0.7440502
-0.64499944 -0.69161135 -0.78824824 -0.65342784 -0.69184685 -0.6515002 -0.6396932 -0.6704227
-0.6816142 -1.0404365 -1.1383364 -0.8510644 -0.7325617 -0.6188227 -0.5457236 -0.5454342
-0.5971536 -0.49543473 -0.5438391 -0.5641563 -0.6401038 -0.66487336 -0.65553725 -0.61680025
-0.6831192 -0.88504136 -1.093857 -0.7640737 -0.6901636 -0.62613493 -0.6321977 -0.5879903
-0.5877937 -0.59529454 -0.5904311 -0.64402664 -0.5899303 -0.64969426 -0.6059337 -0.6317913
-0.8089783 -0.67526376 -0.71160036 -0.8184617 -0.6050084 -0.70267737 -0.71126306 -0.79752034
-0.77637225 -0.77093965 -0.71810436 -0.69792235 -0.6858985 -0.7287114 -0.68519324 -0.6902008
-0.7258446 -0.6512135 -0.67931175 -0.81404483 -0.6610818 -0.73993576 -0.7931076 -0.7387678
-0.7996338 -0.7540391 -0.7061602 -0.7561643 -0.7309799 -0.73117936 -0.6748245 -0.70769554
-0.6173253 -0.48025754 -0.6868158 -0.77619714 -0.7596406 -0.73883295 -0.7764278 -0.74058557
-0.7586521 -0.7118135 -0.71565306 -0.7220826 -0.7119411 -0.74495566 -0.77881634 -0.79663336
-0.59297895 -0.6271021 -0.8219028 -0.8023184 -0.5105918 -0.76385087 -0.75083685 -0.7510481
-0.6176974 -0.63072044 -0.66711223 -0.6811884 -0.6873687 -0.74493504 -0.6646377 -0.74953187
-0.6818529 -0.6986103 -0.72722596 -0.5644822 -0.66528267 -0.65242004 -0.67182976 -0.6854371
-0.673623 -0.67325723 -0.72765225 -0.6982258 -0.6670585 -0.67013496 -0.6527405 -0.6775523
-0.7018983 -0.7398139 -0.6463209 -0.695958 -0.7924602 -0.7873722 -0.7538921 -0.71541
-0.65784925 -0.6729742 -0.7483147 -0.7248823 -0.65321285 -0.6632608 -0.67356527 -0.7124254
-0.68041587 -0.75602615 -0.60452 -0.6397323 -0.610627 -0.71507686 -0.70263684 -0.68879324
-0.6721465 -0.6975974 -0.74038804 -0.67885333 -0.67746824 -0.6635107 -0.66212356 -0.6597485
-0.65305376 -0.76442283 -0.7535406 -0.5571079 -0.5369457 -0.5029439 -0.87784874 -0.7434988
-0.65305066 -0.7207925 -0.67946666 -0.6882273 -0.5297954 -0.62188256 -0.6036485 -0.67303914
-0.6604043 -0.59264475 -0.70743656 -0.716209 -0.8153291 -0.57994556 -0.7037581 -0.73806
-0.6452223 -0.66006625 -0.72471064 -0.7338135 -0.74356824 -0.66567487 -0.6361063 -0.6597616
-0.6775013 -0.8460361 -0.596144 -0.7378792 -0.5594379 -1.0203903 -0.90777755 -0.9256989
-0.7405074 -0.89117754 -0.8855206 -0.9046561 -0.90182513 -0.79652226 -0.76614493 -0.7772799
-0.68391323 -0.8526028 -0.6068376 -0.57804275 -0.65292674 -0.62922966 -0.70573205 -0.6112061
-0.61253685 -0.76574385 -0.61840576 -0.5982818 -0.6003884 -0.68113106 -0.61213845 -0.6559008
-0.660895 -0.6808869 -0.68450916 -0.9239591 -0.8287496 -0.8205526 -0.8028729 -0.806534
-0.6686133 -0.73763263 -0.68693954 -0.70245236 -0.602627 -0.65145946 -0.649263 -0.6080238

A_imag f4 [128, 16]
00000000: 171e 5abd 5341 4940 187c c340 8994 1541
00000010: a4c1 4841 fb3a 7d41 c51c 9641 99d4 ad41
00000020: ce86 c841 0219 e041 e89b f941 a874 0942
00000030: 860b 1642 13a2 2242 0116 2f42 2272 3b42
00000040: a330 fe3c 3eae 4a40 a3d5 c340 689a 1841
00000050: 96c1 4441 b5b2 7b41 a5a4 9641 8f8d af41
00000060: c036 c741 42ff e041 2b01 fa41 2488 0942
00000070: 6ff6 1542 fea6 2242 ecd1 2e42 33c1 3b42
00000080: 1053 4a3e 43f3 5b40 738a bd40 cbf4 1541
00000090: 7d11 4941 a10e 7a41 0619 9641 aca0 af41
000000a0: 7526 c841 d0d9 e041 deec f941 da53 0942
000000b0: 2c52 1642 0273 2242 c622 2f42 bd7e 3b42
000000c0: 4f43 3fbb e479 4a40 9968 c840 e1cd 1541
000000d0: 5891 4641 574b 7a41 fb47 9641 3b67 af41
000000e0: c1a0 c741 5504 e141 de20 fa41 2499 0942
000000f0: 0216 1642 9496 2242 920e 2f42 308f 3b42
00000100: e012 d7bd fd25 4e40 c161 ca40 2999 1341
00000110: 5686 4741 dedb 7941 8277 9641 36f1 ae41
00000120: 1e59 c841 856d e141 6c72 fa41 795e 0942
00000130: 1785 1642 24ef 2142 75f7 2e42 1def 3b42
00000140: 6e47 14bd dbd4 4b40 94b8 c440 d20e 1541
00000150: 5f6d 4841 b6cb 7941 4b1a 9641 2c73 ae41
00000160: d61c c841 c3e1 e041 1810 fa41 727b 0942
00000170: ac44 1642 07a2 2242 bb06 2f42 6f88 3b42
00000180: 5c3d 91bd 8bfe 4e40 5f5f c640 daf6 1541
00000190: 5067 4841 0ad6 7941 1205 9641 964a ae41
000001a0: e813 c841 2f51 e141 d4a7 f941 987a 0942
000001b0: 2e07 1642 1cb4 2242 540d 2f42 2da7 3b42
000001c0: f95c dfbd fb34 4540 5267 c740 9693 1441
000001d0: 42ee 4841 b727 7b41 a48e 9541 efca ae41
000001e0: b75b c841 c7df e041 4bc4 f941 5cb7 0942
000001f0: bd1f 1642 4802 2342 54f6 2e42 fc82 3b42
00000200: 8b35 82bb df2b 3340 573d c640 97aa 1641
00000210: 1957 4841 a8cb 7841 a8ca 9541 79e5 af41
00000220: a362 c841 7724 e141 6ba2 f941 187a 0942
00000230: a3fb 1542 6c9d 2242 ed25 2f42 372a 3b42
00000240: 751c 4dbc ec72 4a40 d1b1 c740 2e57 1841
00000250: 6533 4641 9821 7d41 e217 9541 edbe ad41
00000260: 32e2 c741 033a e141 6cc9 f941 99a5 0942
00000270: f1e7 1542 038c 2242 02e1 2e42 5bcd 3b42
00000280: 4ccb 00bc 529b 4b40 fc53 c640 5e04 1641
00000290: 8875 4841 82fb 7a41 18a1 9541 329b ae41
000002a0: 7d47 c741 dea2 e141 7976 f941 3abb 0942
000002b0: 1cf8 1542 bfa3 2242 c7f8 2e42 3a91 3b42
000002c0: 01cb 16bd 6d7b 4440 19df c840 a06c 1441
000002d0: ca27 4641 adeb 7a41 9b84 9541 af9a af41
000002e0: dfb2 c841 1ec6 e141 7103 f941 aeac 0942
000002f0: f239 1642 c4ad 2242 359f 2f42 b0b9 3a42
00000300: 78fb 0e3d ffb9 3d40 2099 cc40 f5c8 1141
00000310: 8f8f 4941 fbc2 7b41 fce9 9541 9474 af41
00000320: 454f c841 06ff e041 52cf f941 9eac 0942
00000330: 0f19 1642 b95b 2242 bd1c 2f42 e061 3b42
00000340: 5622 f1bb cd20 5240 eb4a c040 b9a4 1641
00000350: a410 4641 7449 7941 3a57 9641 e00e b041
00000360: cc43 c641 74b6 df41 f0c8 f741 fe71 0a42
00000370: 4cc0 1642 7efe 2142 7069 2f42 5c3c 3b42
00000380: 6ce5 93bb b368 4340 c9c0 c740 68c9 1641
00000390: f25a 4841 789e 7941 f282 9641 7065 af41
000003a0: b1f4 c741 3dd2 e041 d8e1 f941 d672 0942
000003b0: a2e7 1542 b293 2242 e720 2f42 87a3 3b42
000003c0: faf8 eabc 8802 4140 b7e0 c540 c514 1741
000003d0: 79d4 4641 23bc 7b41 c79c 9441 f118 ae41
000003e0: ba76 c741 1e7a e141 2d9c f941 f75b 0942
000003f0: d416 1642 b255 2242 4f04 2f42 f39e 3b42
-0.053251352 3.144612 6.108898 9.348763 12.547276 15.8269 18.764048 21.728807
25.065823 28.01221 31.201126 34.363922 37.511253 40.658276 43.77149 46.861458
0.031029051 3.166885 6.1198287 9.537697 12.297262 15.73113 18.830393 21.94412
24.901733 28.124638 31.25057 34.38295 37.490658 40.66308 43.705 46.93867
0.19758248 3.4367225 5.9231505 9.372264 12.56677 15.6285715 18.762218 21.953453
25.018778 28.106354 31.240658 34.331886 37.580246 40.612312 43.78396 46.873768
-0.0029184406 3.1636896 6.2627683 9.362763 12.410484 15.6433935 18.785147 21.925406
24.953493 28.127115 31.266048 34.39955 37.521492 40.64705 43.76423 46.88983
-0.10501647 3.2210686 6.324433 9.224893 12.470297 15.6161785 18.808353 21.867779
25.043514 28.178476 31.30587 34.34226 37.62997 40.483536 43.741657 46.98351
-0.036200933 3.1848667 6.1475315 9.316118 12.526702 15.612234 18.762838 21.806236
25.01408 28.110235 31.257858 34.370552 37.567062 40.65823 43.756573 46.883236
-0.070917815 3.234286 6.199142 9.3727665 12.525223 15.614756 18.752476 21.786419
25.00972 28.16464 31.206947 34.36972 37.50701 40.675888 43.763016 46.913258
-0.10906405 3.0813587 6.2313623 9.286032 12.558168 15.697196 18.694649 21.849089
25.044783 28.109266 31.220846 34.42906 37.530994 40.752228 43.740555 46.877914
-0.003973668 2.7995527 6.194988 9.416648 12.521264 15.549721 18.723953 21.987047
25.048162 28.142805 31.204306 34.369232 37.49574 40.653732 43.787037 46.791225
-0.012518992 3.1632643 6.240456 9.521284 12.3875475 15.820702 18.636662 21.718225
24.985447 28.153326 31.22335 34.411716 37.476505 40.63673 43.719734 46.950542
-0.00786097 3.181355 6.197752 9.376066 12.528694 15.686403 18.70366 21.825779
24.909906 28.204525 31.182848 34.43284 37.492294 40.65991 43.742947 46.891823
-0.036814693 3.0700333 6.2772336 9.27652 12.384714 15.682538 18.689749 21.95053
25.08734 28.221737 31.12668 34.418633 37.556587 40.669693 43.905476 46.681335
0.034907788 2.9644773 6.393692 9.111562 12.5975485 15.735103 18.73925 21.931923
25.038706 28.124523 31.22623 34.41857 37.52447 40.589573 43.778065 46.84558
-0.0073588295 3.283252 6.0091453 9.4152155 12.379063 15.580433 18.792591 22.007263
24.783104 27.964088 30.973114 34.61132 37.68779 40.498528 43.852966 46.808945
-0.004513433 3.0532653 6.2422833 9.424171 12.522203 15.601189 18.813938 21.92453
24.994478 28.102655 31.235275 34.362144 37.476204 40.644234 43.78213 46.909695
-0.028683174 3.0157795 6.183681 9.442571 12.426873 15.733432 18.576551 21.762178
24.932972 28.184628 31.201258 34.33981 37.522293 40.583687 43.754208 46.905224

weight f4 [256, 128, 1]
00000000: 8227 9cbd 7824 f63c 8779 a5bd 2594 45bd
00000010: 0e36 96bc 8a7f 7dbd 29be 9b3b d633 373d
00000020: ac23 06bd 4f45 8a3d 2e3e 67bc 5153 3e3d
00000030: 5dc6 86bc 7d93 86bd 069a 22bd 6ae3 403c
00000040: 3e80 743d 5e4a 9ebb 5fb9 f3bb a9fe a33d
00000050: 07b3 3dbd 2ef7 5d3d 0e6d c33d 7363 06bd
00000060: f010 233c 2ce0 873d ff61 4d3d ffc2 80bd
00000070: d713 4cbd 18a4 63be 9214 b53d 0a3f 9d3d
00000080: 075a e3bd d1ce a43d d1b2 f13c 8f65 a6bd
00000090: d747 86bb 60b5 1db8 243d 423d f75a a73c
000000a0: d04b babb 3456 f43c f0d8 963d 903f 9f3c
000000b0: 8b2b 233d 3efb e2bd 833b 6f3d 4a31 ecba
000000c0: 9111 55bd ac15 903d 2c43 cdbc 78a3 a9bd
000000d0: 84c9 5d3d 0766 4a3d 5a5e 133d d2c7 09bd
000000e0: c0cb c8bd 1e5c 85bb c399 d83b b34c 25bd
000000f0: eb83 afbd 0c37 ccbc a2fa 613d 662f 093d
00000100: fb3c 203e bc4b 2a3d 11dd f03c 5cb3 18bd
00000110: 19a7 8cbd 0f9b 60bd b7c6 76bd 83e0 e8bc
00000120: 2fef 8fbd c01f 0fbd 8bb5 4bbd bf01 81bd
00000130: 1d4f 163d db46 5c3b d193 d43d ad0c a13c
00000140: 7194 023d 9f57 a13d e1d3 8e3c 1f2f 40bd
00000150: 0109 363d b021 de3d a8fb 5c3c 9e41 413d
00000160: ae90 ea3c b795 473d 5765 7c3c 4621 853c
00000170: dbbe 0cbe 229a 90bd 1ea7 873b ccf3 da3d
00000180: f834 34bc a6c0 2fbe 0554 36be c24f b43d
00000190: a277 f8bc be57 26bd c3ed e1bc f7a4 0a3e
000001a0: 4791 f1bd 0868 ccbd 8b73 0bbd c77d ae3d
000001b0: 003d 83bd eeac 833c 1402 003c b7c6 4bbd
000001c0: e4c3 5ebd 6c1c 18be fe59 543d bf1f d43d
000001d0: 38f0 69bd 934e a23d b337 183d 9250 14bd
000001e0: bb21 26be e078 463d 08e6 013c c077 bebb
000001f0: f466 0fbd 3002 b93d dc34 1b3e 3ee4 1cbd
00000200: f58a 08bd d1f5 9abd 8da3 d2bc 1f9f f73d
00000210: fcaa aa3d 3e76 243d 388d 823d ae82 2b3d
00000220: 6c5e 703d 352a 703d 9e71 1b3d 2c4e a03c
00000230: 9920 a13d a06c 433e 23a1 5dbd 390c 1e3c
00000240: 12a3 bd3c 24b8 1f3d aba6 b1bd 18f5 07bd
00000250: 37ff 6b3d 7d8e 2b3d 15e7 02bd a181 843c
00000260: f6b7 4fbc 3172 853d 89a5 d8bd 2e31 aebd
00000270: 97f3 fc3d fe71 293e 7122 903c 2264 3c3d
00000280: fe57 743d 69d8 6dbd 79b6 34bd 9371 45bd
00000290: a9e3 e33d babf a2bc e22b e03d 2345 66bc
000002a0: 86e7 213c b93a 9dbd 4626 a3bd 3dd8 0b3d
000002b0: c2be 003d 3dcb a03d 80f8 97bd b4df bbbd
000002c0: 679d 64bd 9e76 21bd 8d75 ab3c 3f2f a53a
000002d0: 64de 93bd 3609 c8bd 4235 113c ccfb 0e3e
000002e0: 5111 153d b3ab 64bd fb2e 5e3d 4e81 083d
000002f0: d8e8 7d3d 8a55 a13d 0de3 073d 4dd0 e0bd
00000300: de59 a03c 25b5 1d3e 518f 133d d8ad 72bd
00000310: 5df8 32bd 63c6 2abc ef13 013d 2331 55bd
00000320: d9e8 3a3d 7b2a 0e3c 0cb2 853c f639 223c
00000330: 72e2 0cbd b164 9cbd f9f3 5f3d 65f1 8a3d
00000340: 88c9 213e f251 2e3e 91bd c43d 005b 1abd
00000350: e551 213d 03e2 8fbd 4d65 913d df9e 73bc
00000360: c61b aebc c1de 543d 8fe2 c6bc 9553 98bc
00000370: a9ff a5bd 6a6f b7bc ba0e 413e baf5 8ebc
00000380: f0fd 243d 4363 243e 0493 9f3d 37c4 33bd
00000390: 7e9b 563d c81d 0ebc 24ab 13bd 66bb cabc
000003a0: 1990 833c 157e bb3c 6a48 763d 414c b0bd
000003b0: 01eb 583d 97c1 c6bd 1f03 a23d eb98 8ebc
000003c0: 02a2 36bd 17e4 a73d caa6 dbbd ae01 4a3d
000003d0: 44d9 9dbc eae7 933d 8bb3 b2bd 3367 503c
000003e0: f44d 253e 450f bebd 4d4b 023e 742a 8bbd
000003f0: 1f41 95bc 6bbd 9fbd d7e0 9c3a 8fb3 053c
-0.07624723 0.030046687 -0.0807982 -0.048236985 -0.018336322 -0.06188921 0.0047528935 0.04472717
-0.032748863 0.06751501 -0.014113946 0.046466175 -0.016452009 -0.065711 -0.03969767 0.01177297
0.059692614 -0.0048306426 -0.0074378694 0.08007557 -0.046313312 0.054190807 0.09542285 -0.032809686
0.009952769 0.06634554 0.050142284 -0.062871926 -0.04982361 -0.22230566 0.08841814 0.07678039
-0.11101156 0.080472596 0.029504212 -0.081248395 -0.0040979194 -3.7600636e-05 0.04742159 0.020429118
-0.005685307 0.029826261 0.07365596 0.019439489 0.039836448 -0.11083077 0.058406364 -0.001802006
-0.052018706 0.070353836 -0.025056444 -0.08283132 0.05414726 0.049413707 0.035978653 -0.03363783
-0.09804487 -0.004069819 0.0066101267 -0.04035635 -0.08570083 -0.024928592 0.055170663 0.03349247
0.15648262 0.041576132 0.029402288 -0.037280425 -0.06867809 -0.054835375 -0.060248103 -0.028427368
-0.070280425 -0.03494239 -0.04973368 -0.06299161 0.036696542 0.003361157 0.10379756 0.019659365
0.031879846 0.078780405 0.017435016 -0.04691994 0.04444218 0.10846269 0.013487734 0.047181718
0.028633442 0.048726764 0.015405021 0.016251218 -0.1374468 -0.070606485 0.004139795 0.10691032
-0.010998957 -0.17163333 -0.17805488 0.08804275 -0.030330483 -0.04061102 -0.027579194 0.13539492
-0.117952876 -0.0998078 -0.034045737 0.08520084 -0.06408119 0.01607367 0.007812995 -0.049750056
-0.054386035 -0.14854592 0.051843636 0.103576176 -0.057113856 0.07925143 0.037162494 -0.03620965
-0.16223805 0.04845512 0.007928379 -0.005812615 -0.035010293 0.0903362 0.15156883 -0.038303606
-0.033335645 -0.07566417 -0.025712753 0.12090897 0.08333394 0.040151827 0.063745916 0.041872673
0.058683798 0.058634 0.03795015 0.019568525 0.07867546 0.19084406 -0.05410875 0.009646469
0.023149047 0.03899397 -0.086743675 -0.033192724 0.05761644 0.041883934 -0.03195866 0.016175093
-0.012678137 0.06515921 -0.10578448 -0.08505474 0.123511486 0.16547391 0.017594548 0.04599393
0.05965423 -0.058067713 -0.044119332 -0.048204016 0.11127407 -0.019866813 0.1094587 -0.014054569
0.00988186 -0.07677216 -0.079662845 0.034141768 0.03143192 0.078512646 -0.074204445 -0.09173527
-0.055814173 -0.039419763 0.020930076 0.0012602581 -0.07220152 -0.09767382 0.008862795 0.1396324
0.036393467 -0.055827808 0.054244023 0.03332644 0.061989635 0.078776434 0.033175517 -0.1097723
0.019574102 0.15401132 0.03602535 -0.05924782 -0.04369389 -0.010423276 0.03151315 -0.052048814
0.045632217 0.00867712 0.01632025 0.009901514 -0.034395643 -0.07636393 0.05467603 0.067843236
0.15799534 0.17023447 0.096064694 -0.03768444 0.03938474 -0.0702553 0.070994 -0.014869421
-0.021253478 0.051970247 -0.024277953 -0.018594543 -0.08105404 -0.022391994 0.18853274 -0.017451156
0.040281236 0.1605349 0.07791713 -0.043888297 0.052394383 -0.008674093 -0.036051884 -0.024747562
0.016059922 0.022887269 0.060127653 -0.08608294 0.052958492 -0.09704893 0.079107516 -0.017406901
-0.044588096 0.081978016 -0.10725172 0.049318008 -0.01926864 0.072219685 -0.08725651 0.012719917
0.16143018 -0.09280256 0.12724037 -0.06795207 -0.018219529 -0.077998005 0.0011968863 0.008160486

bias f4 [256]
00000000: a860 4f3d 9dd3 3e3d ff6c adbd c288 cabc
00000010: c981 a9bd 94a3 833d 0727 c7bc 9828 693c
00000020: de6d 353d ace9 0bbd 84db 323d 459c 52bd
00000030: c136 663d ea22 6cbc 62fe 97bc 0407 a63d
00000040: b850 febc ab47 bbbc 1a00 503d d0bf b8bd
00000050: 8b9c ac3d 8fc4 083d 94d3 583c 5c71 8a3c
00000060: 6cb4 93bd 0bce a9bc ce98 9e3c 4406 5bbd
00000070: 9ef0 d6bc 2f53 33bd 7e0c 81bd d492 153d
00000080: 906f 97bd 0d6d 78bd 3e57 733c 4d6e 6bbc
00000090: 121b 5bbd 94cf 2d3d fac2 7bbd a089 833d
000000a0: 4c65 8a3d 01bd a13d 7e1e 993d 8ca5 8dbc
000000b0: 44b1 c83c dfef bebd ae52 023d bb51 23bd
000000c0: 53c4 4bbd 0f78 aabd eb09 0c3c 6c16 7f3d
000000d0: 5c7c 34bb b0bf be3c 28c2 01bd 237b 5f3c
000000e0: de63 b33d fc94 db3b b4eb b33c ed3c e0bc
000000f0: d2bc 56bd 7c4e 6abd ff0a e0b9 7c5d ab3b
00000100: 7217 c3bc 8c38 80bd 88fb 0dbd 3ae1 f73c
00000110: 1a23 68bd 45bc 2abd b4f5 75bd 3267 91bd
00000120: 3b6e 8a3d 4ba1 87bc 5487 a2bd 4b3e 33bd
00000130: 01fd 9d3d 4df7 98bd f47c db3c 31c0 93bc
00000140: 861d aebd cf10 3b3d 8d6d 533b 3811 ecbc
00000150: d44c 7e3c 8853 a0bb 9037 90bd 9a33 eb3b
00000160: bc5d 713c e6ba 923b 261a da3b 4164 7c3d
00000170: 332e 7b3b f49f 0a3c 549a a13d 22b4 62bc
00000180: f582 b83d 97f3 5fbc 8e0f 303d 6fa3 4f3d
00000190: e43c 9f3d 329e b43c 9a9b c23d ec71 6a3b
000001a0: 563a c7bb 482f 9dbd 1101 223d c1fe 433d
000001b0: 83f3 633d 33d5 203d 45a9 afbd 7a8c 9e3d
000001c0: 19fa 3a3d 8ecc 36bd 5841 c73d 172b 413d
000001d0: e0c3 e23c 301c 483d 2790 94bd 514d 153d
000001e0: 37fd 5dbd bdc1 4dbc 2db5 203d 2fd6 6fbd
000001f0: fd85 e03d 404e ae3c fe2e 253d e829 b6bd
00000200: e606 883c 3de2 f03b 7708 883d 102b 82bd
00000210: 8b4e e93c d75f 203e b70f 433c 79cb 793d
00000220: f947 69bb d4c6 30ba 7114 123d 9cf1 ab3d
00000230: d781 28bd cb64 74bc 3363 38bb 4dab 853d
00000240: cddd 953a 1566 c83c 0371 683d 309a c93d
00000250: 3ea6 5cbd 9f01 bc3c 9ca0 a63c a794 a43d
00000260: 3198 e83d d6e1 233d ad1c 8e3d 427d b9bc
00000270: 8661 39bd 422d 6bbc 1aad d73b a3a5 ba3d
00000280: d9b5 d4bc 4a6c 033d ff90 983d e51c a13d
00000290: 4b1b 81ba adc2 7dbd 2ad1 d9bd 0a47 33bd
000002a0: 9fc0 2f3d 9fad 21bd 412f 3f3d 6025 4d3d
000002b0: eb88 813d 8130 acbc df8c 823d cbf0 62bd
000002c0: c7c4 2cbd 6e4a 203d 55f5 823c 9261 4f3d
000002d0: c34b aa3b 822d 9e3c 8484 ae3d 8989 a23c
000002e0: 50c5 003d fdc9 9abd 10c2 2cbd 7248 533d
000002f0: acac 13bd 8bf6 a23d 18cf a43d bddb 5bbc
00000300: c71f c53d b489 11bd 952f b43d 8f01 84bc
00000310: 7fd3 8cbd d10f c73d 036f de3c fa85 75bd
00000320: 7966 943d 7370 09bd 8598 1a3d 18ba b33d
00000330: b64c b53d 5760 c2bc db9a bd3d 1572 a33d
00000340: caa4 24bd d848 eebc 1537 b73c 8181 fb3d
00000350: 104c 0d3d 70f2 4d3d 8402 cabd bb68 cc3d
00000360: 7655 683d e35d be3d 5480 283d 9f22 753d
00000370: de33 743d df89 333d 77e6 513d 3976 413c
00000380: df4a 6a3a e7ed 443c 7254 3d3d e00e 15bd
00000390: 102c 85bd c4b0 e13b 03da be3d 66a2 bd3d
000003a0: d5e7 063d 5022 5dbd 830d 893d 5aa1 153d
000003b0: 9aac c8bc ea72 9f3d 25b5 dfbb 96f6 92bc
000003c0: ba37 d33c 6e28 1cbd 6fc1 843b fb62 b1bd
000003d0: 2c87 c63d bff7 263e fafc c3bc 1aab 943d
000003e0: b410 85bc 257c a73d a61e d4bd 95ce d73d
000003f0: 62cd 053d ecbe 90bd 6c43 453d 52ef ff3c
0.050629288 0.04658853 -0.08468055 -0.024723414 -0.08276708 0.064276844 -0.024310602 0.01423087
0.04429423 -0.034158394 0.043666378 -0.05141856 0.05620456 -0.014412621 -0.018553916 0.08106807
-0.03104435 -0.022861322 0.050781347 -0.0902096 0.08428296 0.033390578 0.013234038 0.016899757
-0.07212147 -0.020728132 0.019359972 -0.053472772 -0.026237782 -0.043780502 -0.06301211 0.03651698
-0.07394326 -0.060650874 0.014852343 -0.0143695595 -0.053492613 0.04243429 -0.06146524 0.06422734
0.06757602 0.07897378 0.07476519 -0.017290853 0.02449859 -0.093230955 0.03181713 -0.039872866
-0.049747776 -0.083236806 0.0085472865 0.062277243 -0.0027539944 0.023284763 -0.031679302 0.013640198
0.087592825 0.00670111 0.021962978 -0.027372802 -0.052426167 -0.057203755 -0.00042732802 0.00522965
-0.02381489 -0.062607855 -0.034663707 0.030258764 -0.0566741 -0.041683454 -0.060048774 -0.07099761
0.06759306 -0.016556403 -0.07935968 -0.04376058 0.07714272 -0.07469044 0.02679298 -0.01803598
-0.08501725 0.045670327 0.0032261342 -0.028816804 0.015521247 -0.00489277 -0.07041848 0.0071777822
0.014731821 0.0044778464 0.006655949 0.061619047 0.0038327097 0.008460987 0.07890764 -0.013836892
0.09009353 -0.013668916 0.042983584 0.05069297 0.07775286 0.02204809 0.09502335 0.003577347
-0.006079952 -0.07675034 0.0395518 0.047850374 0.055652153 0.039265823 -0.085772075 0.077416375
0.045648668 -0.044628672 0.0972926 0.047160234 0.027681291 0.048855007 -0.072540574 0.036450688
-0.054196563 -0.012558398 0.039235283 -0.05855387 0.10963056 0.021277547 0.04032802 -0.08894712
0.016604852 0.0073511885 0.066422395 -0.0635587 0.028479835 0.1566156 0.011905602 0.060985062
-0.0035595878 -0.0006743495 0.035664026 0.08395693 -0.04113945 -0.014916609 -0.00281353 0.06526814
0.00114339 0.024462739 0.0567484 0.09843862 -0.05386948 0.022949992 0.020340256 0.08036166
0.11357153 0.040010296 0.06939063 -0.022642735 -0.04525902 -0.014354052 0.0065819146 0.09113624
-0.025965618 0.032085694 0.07449531 0.07866839 -0.0009850053 -0.061953235 -0.10635598 -0.04376892
0.042908307 -0.03947222 0.046675924 0.05008447 0.06324943 -0.021019222 0.06374525 -0.05540542
-0.04217985 0.03913348 0.015986124 0.05063016 0.00519702 0.01930881 0.08521369 0.019840972
0.031438172 -0.075580575 -0.04217726 0.05158276 -0.036053345 0.079571806 0.080473125 -0.013419089
0.09625202 -0.035531715 0.08798138 -0.016114024 -0.06876277 0.097198136 0.027152544 -0.059942223
0.072461076 -0.033554506 0.03774311 0.08775729 0.08852522 -0.023727579 0.09258052 0.07980744
-0.040196218 -0.029087469 0.022365132 0.1228056 0.034496367 0.050280035 -0.09863761 0.09980913
0.056722127 0.09295251 0.04113801 0.05984747 0.059619777 0.043832656 0.05124518 0.011807972
0.0008937548 0.012019611 0.04622311 -0.03639114 -0.06502545 0.006887527 0.09318926 0.09259491
0.032935936 -0.0539878 0.0669203 0.03653083 -0.024496365 0.0778559 -0.006827014 -0.017939847
0.025783408 -0.038124494 0.0040513794 -0.08661457 0.09693751 0.16305445 -0.02392434 0.072591975
-0.016243316 0.081779756 -0.10357408 0.10537449 0.03266657 -0.070676655 0.04816 0.031242047

D f4 [128]
00000000: 26ad e23f c840 d73c 7be7 d8be 6d9f 4e3f
00000010: f413 c23d 9b4a 53bf 0acb c5bf ffaa b93f
00000020: 1878 713f 1d85 353f b3b4 33bf 7323 b5be
00000030: f8a3 83bf 53ab 99bf 5e3c 5fbf 34d4 b13e
00000040: cd4c f6be de25 4e3f 7d56 0cbf 3a70 963f
00000050: 6049 813c b83b 6dbe cdfa 83be d297 49bf
00000060: 9e0a 39bf c912 e53f 9992 7d3f 1fae 96be
00000070: 99e8 2cbf ab98 b03f 5d21 6cbf d083 a73f
00000080: 7bfb 5b3d eeee 7e3d 862d 03bf 5277 f23e
00000090: 726a 8a3f d894 6c3f c702 7d3e 749b 90bf
000000a0: 6346 7fbf f8e3 ec3e 057b 643f d187 2d3f
000000b0: eac7 c03f a3e8 243f b03e 3abe 9bdf 26bf
000000c0: 2afe 5cbf a841 193e f8be 50bf 8a37 93bf
000000d0: 5752 98be 4dad debf 8279 aa3e b96c 0140
000000e0: 25a8 413f a0f0 e1bf 0bd9 81bf 3c57 62bf
000000f0: 9570 623e afeb 3b3f 99e0 82be eae3 6d3f
00000100: c664 3c3f 873f 9ebf 140e 1fbf 77de 933f
00000110: fc51 553f 1c4a 4b3f 004d e93f ad2e 44bf
00000120: 4ef5 20bf ac57 e93e c20a d9be 5e44 943f
00000130: d804 9a3e 8224 363f bf15 463e e170 e9bf
00000140: d5a0 493e c739 f4bd 3a3f ab3f 7023 c2be
00000150: 7422 99bf 274a 973f 9abe 1dbf da84 6d3f
00000160: 3d53 803f d3c6 623e ee18 903d d9d1 43bd
00000170: ee3d 713e 137e fc3e b525 a9bf bb91 57bf
00000180: 2a68 2340 4b89 23c0 2f2b 85bf 2c21 953e
00000190: c105 06bf 1476 60bf a2db 3bbf 4f3a a13f
000001a0: 828b e83e 7455 e2bf b0db f33e b2c9 023f
000001b0: 253c b93e ba43 833f 48cb bdbe 73f3 cc3d
000001c0: d24f 5e3f 2c8a 0940 6c95 c7be 29cd ddbe
000001d0: 3583 5cbf 4fef 5a3d 4ad5 c03d fbfd e3be
000001e0: 1545 39bf a61e 253e 66ba 413f 4ed3 2f3f
000001f0: 743e 11bf bd1a 90bf 02b6 f63e 7be5 4dbe
1.7709091 0.026276007 -0.42364106 0.80712014 0.09476462 -0.82535714 -1.5452588 1.4505309
0.94323874 0.7090624 -0.701976 -0.35378608 -1.0284414 -1.2005409 -0.8720149 0.3473221
-0.4810547 0.8052653 -0.5481947 1.1752999 0.015782058 -0.23167312 -0.25777283 -0.78747284
-0.72281826 1.7896358 0.99051815 -0.2942972 -0.67542416 1.379659 -0.9223841 1.3087101
0.053706627 0.06223958 -0.5124134 0.4735666 1.0813735 0.9241462 0.2470809 -1.129744
-0.99716777 0.46267676 0.8925021 0.67785364 1.5061009 0.64417475 -0.18187976 -0.65184945
-0.86325324 0.14966452 -0.81541395 -1.1501324 -0.2975032 -1.7396637 0.33295828 2.022261
0.75647193 -1.7651558 -1.0144361 -0.8841436 0.22113259 0.734065 -0.2556198 0.92925894
0.7359127 -1.2363137 -0.62130857 1.1552266 0.83328223 0.79409957 1.8226624 -0.7663372
-0.62874305 0.455747 -0.4239102 1.1583364 0.3008182 0.71149457 0.19344233 -1.8237573
0.19690259 -0.11925083 1.337867 -0.37917662 -1.1963639 1.1819504 -0.6161896 0.9278084
1.0025402 0.22146158 0.07036005 -0.04780755 0.2355878 0.49314937 -1.3214632 -0.8420674
2.5532327 -2.5552547 -1.0403804 0.2912687 -0.5235253 -0.8768017 -0.7338201 1.2595919
0.45418936 -1.7682328 0.47628546 0.5108901 0.361787 1.0255044 -0.37069154 0.10007372
0.86840546 2.1490583 -0.38981187 -0.43320587 -0.86137706 0.05345088 0.09415682 -0.4452971
-0.72371036 0.16124973 0.75675046 0.686818 -0.5673592 -1.125816 0.48185736 -0.20107071
