gwak/output/s4_kl1.0_bs256_NF_onlyBkg_HL/model_JIT.pt (torch, 752343 bytes, 73 tensors)

weight f4 [64, 10]
0.048831746 0.16963835 -0.26026973 -0.23272435 -0.1217965 0.084798805 -0.0062654777 0.25073367
-0.02806333 0.083677836 -0.18352959 -0.028501246 -0.30210772 -0.20943199 -0.13035639 0.011714206
0.12501596 0.18974386 -0.2143838 -0.13770543 0.123758286 0.21914297 -0.09172131 0.23663695
-0.05097065 0.033461355 0.28633672 -0.29335514 -0.19907737 -0.08005788 -0.14320254 0.2834736
-0.24540094 -0.1607553 -0.22092952 -0.2961666 -0.18459494 0.27182877 0.14110664 0.15326692
0.041278683 -0.17981945 0.00065721374 -0.25552577 -0.28639627 -0.1630249 0.1995201 0.18541105
-0.14024544 -0.011410252 0.18899955 0.29007402 0.107829444 0.018503709 0.23867564 -0.19610366
0.058927156 -0.24517313 -0.21917309 -0.16335806 0.18053398 0.13998811 -0.24893084 0.118754186
0.18890645 -0.0016582664 -0.013247314 0.07327146 0.1961803 0.30364004 -0.21167554 -0.12638776
0.08325091 0.26465598 0.29270038 0.3042577 0.09304925 -0.2511855 0.029090581 -0.19783378
-0.3041452 0.24322952 0.2586153 -0.36271235 0.039551873 -0.087426335 -0.059690554 -0.10838214
0.062495682 -0.18730281 0.10499831 0.15991893 0.22637847 0.11824109 -0.31298175 -0.20513597
0.15789728 0.0661869 -0.24668422 -0.1820901 0.35475007 0.23063439 -0.13788326 -0.07958972
-0.30123797 -0.0056839217 -0.23813814 -0.24392441 -0.017424025 0.047480036 -0.15985271 0.15970325
-0.18103828 0.28693563 0.21671085 -0.26666948 -0.07870413 0.014269026 0.046137974 0.07500109
0.12447523 0.019153262 -0.23487446 0.12648384 -0.30334112 -0.1874303 -0.07916125 -0.15403877
-0.110627025 -0.25918713 -0.05008458 0.05948913 -0.24800844 0.029324677 0.17943788 -0.032508295
0.00878867 -0.027280621 0.06399861 0.20107009 0.26850778 0.18989 0.323679 -0.04637133
-0.29401484 -0.19219501 0.21532114 -0.0020499409 -0.15717986 -0.24232906 -0.2870068 -0.3061907
-0.044677347 0.12536183 0.12654434 -0.34998468 0.2253297 -0.24745122 -0.0668538 -0.1282217
-0.08525628 -0.07165614 -0.31332666 -0.31551218 -0.10630474 -0.038620073 -0.085053094 0.11909551
-0.28462344 -0.021341339 0.26802418 -0.15586837 0.33565804 0.124525025 -0.30930382 0.15778756
-0.096315 -0.1123357 0.1718433 -0.25554213 0.067540936 -0.0662082 0.22582224 0.08827325
0.15194914 0.11167867 -0.076044776 -0.06650443 -0.26059744 0.17134616 0.2171199 0.26324144
-0.2230602 0.014103724 -0.22291975 -0.17407838 -0.18426766 0.10806926 -0.18844429 -0.006899207
0.025899824 0.1718675 -0.18979634 -0.21709423 -0.1836213 0.22133838 -0.113672815 0.26673454
0.11435035 0.04004266 0.041559465 -0.08064863 0.06852004 -0.081370294 -0.0022219536 0.040348463
-0.24735497 -0.1657449 0.25535163 -0.25663358 -0.027013961 0.33166453 0.15276878 0.08507546
-0.32151243 0.15665224 -0.22524294 -0.08976576 -0.10609958 -0.046829343 0.0075116386 0.2807637
0.11390744 0.3478923 0.18193214 -0.18181315 0.14182945 -0.22354016 -0.13402528 0.09300976
0.0842382 0.22532906 -0.033492457 -0.02906377 0.14394489 -0.32982928 0.24968056 -0.26149583
0.0043584094 -0.053764023 -0.18364298 0.050052624 0.15719509 -0.1472829 -0.17065635 -0.084380455
00000000: cc03 483d adb5 2d3e 1342 85be 4b4f 6ebe
00000010: 7270 f9bd ffaa ad3d a34e cdbb 2a60 803e
00000020: 12e5 e5bc 495f ab3d 2eef 3bbe 727b e9bc
00000030: ddad 9abe 5775 56be 257c 05be f1ec 3f3c
00000040: 2f04 003e 374c 423e 6d87 5bbe a702 0dbe
00000050: fc74 fd3d 0467 603e 62d8 bbbd f550 723e
00000060: 9ac6 50bd c60e 093d ba9a 923e a532 96be
00000070: f0da 4bbe 63f5 a3bd b0a3 12be 7423 913e
00000080: 624a 7bbe 0a9d 24be 593b 62be 26a3 97be
00000090: 7506 3dbe 242d 8b3e 427e 103e 01f2 1c3e
000000a0: d613 293d 9722 38be de48 2c3a 46d4 82be
000000b0: 88a2 92be 00f0 26be ff4e 4c3e 65dc 3d3e
000000c0: 809c 0fbe 11f2 3abc 1989 413e 9584 943e
000000d0: afd5 dc3d 1795 973c 6367 743e 66cf 48be
000000e0: 9a5d 713d aa0e 7bbe e96e 60be 5647 27be
000000f0: e6dd 383e 0b59 0f3e bae7 7ebe 6535 f33d
00000100: b170 413e 305a d9ba 430b 59bc 590f 963d
00000110: 7de3 483e b576 9b3e 79c1 58be cb6b 01be
00000120: 747f aa3d fd80 873e d3dc 953e aac7 9b3e
00000130: 9b90 be3d 639b 80be 5f4f ee3c f094 4abe
00000140: ebb8 9bbe 2911 793e 3969 843e 6fb5 b9be
00000150: 2501 223d 940c b3bd 157e 74bd 75f7 ddbd
00000160: 79fb 7f3d 4fcc 3fbe 5b09 d73d cac1 233e
00000170: c2cf 673e 6228 f23d 253f a0be 2a0f 52be
00000180: d3af 213e ff8c 873d ca9a 7cbe d475 3abe
00000190: cda1 b53e 6c2b 6c3e 4531 0dbe efff a2bd
000001a0: dd3b 9abe 3140 babb 7cda 73be 52c7 79be
000001b0: d4bc 8ebc 6d7a 423d 6eb0 23be 4089 233e
000001c0: 1962 39be 3ae9 923e 73e9 5d3e e788 88be
000001d0: a22f a1bd a2c8 693c 2cfb 3c3d 2c9a 993d
000001e0: dfec fe3d 4de7 9c3c ee82 70be fb84 013e
000001f0: 874f 9bbe bbed 3fbe 4b1f a2bd 57bc 1dbe
00000200: 6c90 e2bd 2db4 84be 7d25 4dbd e0aa 733d
00000210: edf5 7dbe 4e3a f03c 90be 373e 6b27 05bd
00000220: 5bfe 0f3c 9c7b dfbc b411 833d 51e5 4d3e
00000230: da79 893e 8672 423e 41b9 a53e ddef 3dbd
00000240: 1d89 96be c5ce 44be 257d 5c3e 4d58 06bb
00000250: c2f3 20be 1c25 78be 8ef2 92be 07c5 9cbe
00000260: 98ff 36bd da5e 003e d794 013e 3131 b3be
00000270: d4bc 663e da63 7dbe a5ea 88bd 8d4c 03be
00000280: d89a aebd 74c0 92bd 5a6c a0be d08a a1be
00000290: 4db6 d9bd 1530 1ebd 5130 aebd 59e8 f33d
000002a0: 2aba 91be 08d4 aebc 773a 893e f59b 1fbe
000002b0: 5fdb ab3e fa06 ff3d 125d 9ebe 1093 213e
000002c0: cc40 c5bd 4210 e6bd b1f7 2f3e 6bd6 82be
000002d0: e752 8a3d 2a98 87bd f23d 673e 9bc8 b43d
000002e0: 8e98 1b3e c9b7 e43d 5dbd 9bbd 7933 88bd
000002f0: 076d 85be 5e75 2f3e ae54 5e3e 95c7 863e
00000300: e569 64be 4e13 673c 1345 64be 9a41 32be
00000310: a9b0 3cbe 6b53 dd3d 8af7 40be be12 e2bb
00000320: de2b d43c 09fe 2f3e f959 42be f34d 5ebe
00000330: 3907 3cbe 87a6 623e 4bcd e8bd 6e91 883e
00000340: 8430 ea3d c603 243d 423a 2a3d 1c2b a5bd
00000350: 3c54 8c3d 78a5 a6bd 329e 11bb 6e44 253d
00000360: 9f4a 7dbe 08b9 29be 73bd 823e 7a65 83be
00000370: 624c ddbc efcf a93e 6b6f 1c3e 0b3c ae3d
00000380: 479d a4be 7269 203e 16a6 66be 1cd7 b7bd
00000390: bd4a d9bd 20d0 3fbd 3124 f63b 42c0 8f3e
000003a0: 4e48 e93d f11e b23e 6b4c 3a3e 3a2d 3abe
000003b0: bd3b 113e b6e7 64be ec3d 09be e77b be3d
000003c0: 1485 ac3d a9bc 663e 632f 09bd 2517 eebc
000003d0: 4a66 133e 62df a8be 43ac 7f3e c8e2 85be
000003e0: fdd0 8e3b aa37 5cbd e80c 3cbe fb03 4d3d
000003f0: c0f7 203e 54d1 16be 8ac0 2ebe a9cf acbd

bias f4 [64]
-0.16484241 0.04697948 0.05054848 0.02345449 -0.15806702 0.33195186 -0.24338256 0.22188407
-0.21137035 -0.07991484 0.13391493 -0.17678657 0.25054735 -0.17528678 -0.21470648 -0.09883277
0.08791368 0.34802663 -0.18471275 0.1523718 -0.0590234 -0.11088475 0.2731251 -0.24103513
0.071977794 0.24681215 0.012350069 0.29281533 -0.09594014 0.3115075 -0.33181757 -0.024235843
-0.0977013 0.050844714 0.106463015 0.19982632 -0.028849892 -0.05069998 0.24871083 -0.13037801
0.3023507 -0.1554251 -0.02266794 0.010509585 0.12941988 0.2614224 -0.0104721105 -0.28821114
0.2094447 0.122389495 0.1766127 -0.13876608 0.2510616 0.24297002 0.080147326 -0.26778117
0.24437189 -0.20632736 0.03845475 0.015736194 -0.18193607 0.060614716 -0.27731028 0.12758404
00000000: 73cc 28be 8e6d 403d ec0b 4f3d a123 c03c
00000010: 52dc 21be 98f5 a93e 4739 79be 9435 633e
00000020: 7871 58be 64aa a3bd ff20 093e 8a07 35be
00000030: be47 803e 617e 33be 04dc 5bbe d668 cabd
00000040: 160c b43d 8c30 b23e 5725 3dbe 5a07 1c3e
00000050: 85c2 71bd 8b17 e3bd 0ed7 8b3e ead1 76be
00000060: 1869 933d 53bc 7c3e f257 4a3c e4eb 953e
00000070: 447c c4bd e97d 9f3e fee3 a9be 3f8a c6bc
00000080: 9f17 c8bd 8c42 503d 4809 da3d 459f 4c3e
00000090: 9c56 ecbc c8aa 4fbd 0dae 7e3e d081 05be
000000a0: b6cd 9a3e c227 1fbe 1eb2 b9bc 6530 2c3c
000000b0: a586 043e 28d9 853e 3793 2bbc 6990 93be
000000c0: ac78 563e 58a7 fa3d f6d9 343e b218 0ebe
000000d0: 258b 803e 22cd 783e 4824 a43d 9d1a 89be
000000e0: a03c 7a3e 7b47 53be ba82 1d3d 31e9 803c
000000f0: 734d 3abe 2347 783d 9dfb 8dbe 64a5 023e

mask f4 [64, 10]
1.0 0.0 0.0 0.0 0.0 0.0 0.0 0.0
0.0 0.0 1.0 1.0 0.0 0.0 0.0 0.0
0.0 0.0 0.0 0.0 1.0 1.0 1.0 0.0
0.0 0.0 0.0 0.0 0.0 0.0 1.0 1.0
1.0 1.0 0.0 0.0 0.0 0.0 0.0 0.0
1.0 1.0 1.0 1.0 1.0 0.0 0.0 0.0
0.0 0.0 1.0 1.0 1.0 1.0 1.0 1.0
0.0 0.0 0.0 0.0 1.0 1.0 1.0 1.0
1.0 1.0 1.0 0.0 0.0 0.0 1.0 1.0
1.0 1.0 1.0 1.0 1.0 1.0 0.0 0.0
1.0 1.0 1.0 1.0 1.0 1.0 1.0 1.0
1.0 0.0 1.0 0.0 0.0 0.0 0.0 0.0
0.0 0.0 0.0 0.0 1.0 1.0 0.0 0.0
0.0 0.0 0.0 0.0 0.0 0.0 1.0 1.0
1.0 0.0 0.0 0.0 0.0 0.0 0.0 0.0
1.0 1.0 1.0 1.0 0.0 0.0 0.0 0.0
0.0 0.0 1.0 1.0 1.0 1.0 1.0 0.0
0.0 0.0 0.0 0.0 1.0 1.0 1.0 1.0
1.0 1.0 0.0 0.0 0.0 0.0 1.0 1.0
1.0 1.0 1.0 1.0 1.0 0.0 0.0 0.0
1.0 1.0 1.0 1.0 1.0 1.0 1.0 1.0
0.0 0.0 1.0 1.0 1.0 1.0 1.0 1.0
1.0 1.0 1.0 0.0 1.0 0.0 0.0 0.0
0.0 0.0 0.0 0.0 0.0 0.0 1.0 1.0
0.0 0.0 0.0 0.0 0.0 0.0 0.0 0.0
1.0 1.0 1.0 0.0 0.0 0.0 0.0 0.0
0.0 0.0 1.0 1.0 1.0 1.0 0.0 0.0
0.0 0.0 0.0 0.0 1.0 1.0 1.0 1.0
1.0 0.0 0.0 0.0 0.0 0.0 1.0 1.0
1.0 1.0 1.0 1.0 0.0 0.0 0.0 0.0
1.0 1.0 1.0 1.0 1.0 1.0 1.0 0.0
0.0 0.0 1.0 1.0 1.0 1.0 1.0 1.0
00000000: 0000 803f 0000 0000 0000 0000 0000 0000
00000010: 0000 0000 0000 0000 0000 0000 0000 0000
00000020: 0000 0000 0000 0000 0000 803f 0000 803f
00000030: 0000 0000 0000 0000 0000 0000 0000 0000
00000040: 0000 0000 0000 0000 0000 0000 0000 0000
00000050: 0000 803f 0000 803f 0000 803f 0000 0000
00000060: 0000 0000 0000 0000 0000 0000 0000 0000
00000070: 0000 0000 0000 0000 0000 803f 0000 803f
00000080: 0000 803f 0000 803f 0000 0000 0000 0000
00000090: 0000 0000 0000 0000 0000 0000 0000 0000
000000a0: 0000 803f 0000 803f 0000 803f 0000 803f
000000b0: 0000 803f 0000 0000 0000 0000 0000 0000
000000c0: 0000 0000 0000 0000 0000 803f 0000 803f
000000d0: 0000 803f 0000 803f 0000 803f 0000 803f
000000e0: 0000 0000 0000 0000 0000 0000 0000 0000
000000f0: 0000 803f 0000 803f 0000 803f 0000 803f
00000100: 0000 803f 0000 803f 0000 803f 0000 0000
00000110: 0000 0000 0000 0000 0000 803f 0000 803f
00000120: 0000 803f 0000 803f 0000 803f 0000 803f
00000130: 0000 803f 0000 803f 0000 0000 0000 0000
00000140: 0000 803f 0000 803f 0000 803f 0000 803f
00000150: 0000 803f 0000 803f 0000 803f 0000 803f
00000160: 0000 803f 0000 0000 0000 803f 0000 0000
00000170: 0000 0000 0000 0000 0000 0000 0000 0000
00000180: 0000 0000 0000 0000 0000 0000 0000 0000
00000190: 0000 803f 0000 803f 0000 0000 0000 0000
000001a0: 0000 0000 0000 0000 0000 0000 0000 0000
000001b0: 0000 0000 0000 0000 0000 803f 0000 803f
000001c0: 0000 803f 0000 0000 0000 0000 0000 0000
000001d0: 0000 0000 0000 0000 0000 0000 0000 0000
000001e0: 0000 803f 0000 803f 0000 803f 0000 803f
000001f0: 0000 0000 0000 0000 0000 0000 0000 0000
00000200: 0000 0000 0000 0000 0000 803f 0000 803f
00000210: 0000 803f 0000 803f 0000 803f 0000 0000
00000220: 0000 0000 0000 0000 0000 0000 0000 0000
00000230: 0000 803f 0000 803f 0000 803f 0000 803f
00000240: 0000 803f 0000 803f 0000 0000 0000 0000
00000250: 0000 0000 0000 0000 0000 803f 0000 803f
00000260: 0000 803f 0000 803f 0000 803f 0000 803f
00000270: 0000 803f 0000 0000 0000 0000 0000 0000
00000280: 0000 803f 0000 803f 0000 803f 0000 803f
00000290: 0000 803f 0000 803f 0000 803f 0000 803f
000002a0: 0000 0000 0000 0000 0000 803f 0000 803f
000002b0: 0000 803f 0000 803f 0000 803f 0000 803f
000002c0: 0000 803f 0000 803f 0000 803f 0000 0000
000002d0: 0000 803f 0000 0000 0000 0000 0000 0000
000002e0: 0000 0000 0000 0000 0000 0000 0000 0000
000002f0: 0000 0000 0000 0000 0000 803f 0000 803f
00000300: 0000 0000 0000 0000 0000 0000 0000 0000
00000310: 0000 0000 0000 0000 0000 0000 0000 0000
00000320: 0000 803f 0000 803f 0000 803f 0000 0000
00000330: 0000 0000 0000 0000 0000 0000 0000 0000
00000340: 0000 0000 0000 0000 0000 803f 0000 803f
00000350: 0000 803f 0000 803f 0000 0000 0000 0000
00000360: 0000 0000 0000 0000 0000 0000 0000 0000
00000370: 0000 803f 0000 803f 0000 803f 0000 803f
00000380: 0000 803f 0000 0000 0000 0000 0000 0000
00000390: 0000 0000 0000 0000 0000 803f 0000 803f
000003a0: 0000 803f 0000 803f 0000 803f 0000 803f
000003b0: 0000 0000 0000 0000 0000 0000 0000 0000
000003c0: 0000 803f 0000 803f 0000 803f 0000 803f
000003d0: 0000 803f 0000 803f 0000 803f 0000 0000
000003e0: 0000 0000 0000 0000 0000 803f 0000 803f
000003f0: 0000 803f 0000 803f 0000 803f 0000 803f

weight f4 [64, 64]
0.07344257 -0.013516709 0.016078606 0.106493056 -0.059640035 0.08007951 -0.015879229 -0.059365973
-0.10884996 -0.16156635 0.12207633 -0.031174943 0.0062436014 0.03388904 0.084966525 0.10668427
0.101377144 -0.09261039 -0.00937285 -0.0739672 -0.07141897 0.029650882 0.117331 -0.10013799
0.07565056 -0.06480834 -0.024346784 0.1772164 -0.028271288 0.011381969 -0.08737907 0.10640511
-0.01615873 -0.09142381 0.03660129 -0.08887717 -0.11527052 0.0076148957 0.09910545 -0.035373002
0.05883336 0.107415155 0.08290762 -0.06557013 -0.013702482 -0.025357718 -0.100515366 5.1647425e-05
0.094054386 0.10531445 0.0116625875 0.028390378 -0.054115206 0.0943553 -0.03103082 -0.0868316
0.019249186 0.07492317 -0.11269894 0.11299594 0.044966385 -0.0875766 -0.026925936 0.112340316
-0.095904335 0.075350724 0.040997535 -0.10951063 0.06852478 0.06506845 0.07752569 -0.07969339
0.124500126 -0.11353771 0.1416486 -0.11996131 -0.11137125 0.07677454 0.013064116 0.0072111636
-0.0692198 -0.05243443 0.061221004 0.029791301 0.0064960867 0.022107363 -0.00010582805 0.040366292
0.11860637 0.033235505 -0.045759052 0.06881456 -0.19677927 -0.08665235 -0.02013123 -0.022108197
0.05560781 -0.053429604 0.09965046 -0.08771002 0.03412015 -0.03368142 0.12429814 -0.07240778
0.02226612 0.014765337 -0.05860646 -0.04318686 0.03385675 -0.103344396 0.016782125 0.05409059
-0.04925877 0.103830144 -0.008226305 0.056714088 0.1237883 -0.038208544 0.33133027 -0.108240016
-0.018259123 -0.021183893 -0.000776574 -0.04722105 0.029298365 0.0047100484 0.079236224 -0.053094447
0.38494322 -0.047898863 -0.10033971 0.050583407 0.015994743 -0.050060466 -0.04226312 0.032690167
-0.022602111 0.039786045 0.029705781 0.019506043 0.05446203 -0.030670792 0.05408311 0.09224166
0.0057522953 0.024461612 -0.06371231 0.19858153 -0.09696166 -0.06644623 0.054469198 -0.108789265
0.0020040572 -0.057486385 0.0825042 -0.05643021 0.0077846465 0.2246095 0.025292516 -0.0083283335
0.12304373 -0.05341904 -0.010016695 -0.05473812 0.056376267 -0.11376489 0.028900916 -0.02360937
-0.12498008 0.0064005107 -0.0037027448 0.018804595 0.09578128 0.13646796 -0.1076057 -0.07166018
-0.050084203 -0.115205705 -0.09095739 0.117320135 0.07288264 0.06714389 0.17630398 -0.10336812
-0.04460568 0.116339326 -0.06976074 0.11119929 0.03285481 0.08794294 -0.053548455 0.065352686
-0.63228595 0.012943165 0.07344595 0.08418731 0.10460101 0.122832134 0.11371963 0.083924025
0.08788276 -0.020455113 -0.0663844 -0.035118904 0.05071693 -0.06754832 0.06389636 0.043878406
0.02016899 0.030195087 -0.23041898 -0.006839917 -0.05953374 -0.12799309 0.055093706 0.017034903
0.060961455 -0.12483999 -0.115358666 0.044188708 0.15925296 -0.16214718 0.025066655 -0.09760553
0.09466347 0.039223805 0.12359837 -0.123248994 -0.12503995 0.19869815 0.17615102 -0.05653498
0.08310373 -0.105283916 0.09047671 -0.11801839 0.027925208 -0.014466518 -0.014583653 0.068269566
-0.04778095 -0.019777864 -0.118478045 -0.117859155 0.048420385 -0.052909806 -0.1859429 -0.08184697
-0.05351222 -0.1432809 0.07479654 0.06353027 0.016650438 -0.068282455 0.04158762 0.07279505
00000000: 0f69 963d 3075 5dbc 48b7 833c 0819 da3d
00000010: 1c49 74bd ba00 a43d 2815 82bc bc29 73bd
00000020: baec debd a671 25be 2803 fa3d 9862 ffbc
00000030: 2097 cc3b 3ccf 0a3d ee02 ae3d 487d da3d
00000040: d29e cf3d 84aa bdbd 9590 19bc 1e7c 97bd
00000050: 1c44 92bd 68e6 f23c 3c4b f03d 2615 cdbd
00000060: aeee 9a3d 3cba 84bd e872 c7bc 3778 353e
00000070: 3099 e7bc 707b 3a3c ccf3 b2bd ecea d93d
00000080: 505f 84bc 683c bbbd 3ceb 153d 3c05 b6bd
00000090: f312 ecbd 6086 f93b ccf7 ca3d 48e3 10bd
000000a0: 40fb 703d 7afc db3d 78cb a93d a249 86bd
000000b0: 6080 60bc fdba cfbc 00db cdbd 00a0 5838
000000c0: 969f c03d 1aaf d73d 7014 3f3c f092 e83c
000000d0: e8a7 5dbd 5a3d c13d 5934 febc c4d4 b1bd
000000e0: 78b0 9d3c 5271 993d b4ce e6bd 6a6a e73d
000000f0: ac2e 383d 5c5b b3bd c893 dcbc ae12 e63d
00000100: 7e69 c4bd 7b51 9a3d 08ed 273d 1c47 e0bd
00000110: b856 8c3d 9c42 853d cac5 9e3d 4a36 a3bd
00000120: ecf9 fe3d 7586 e8bd 550c 113e 46ae f5bd
00000130: 9c16 e4bd f83b 9d3d e00a 563c a04b ec3b
00000140: 1cc3 8dbd 7cc5 56bd e0c2 7a3d e30c f43c
00000150: 20dd d43b 801a b53c 00f0 ddb8 2057 253d
00000160: e6e7 f23d f421 083d d86d 3bbd a6ee 8c3d
00000170: 8180 49be ca76 b1bd 40ea a4bc 401c b5bc
00000180: 04c5 633d 00d9 5abd 8a15 cc3d 50a1 b3bd
00000190: 92c1 0b3d 87f5 09bd 0690 fe3d 884a 94bd
000001a0: 7067 b63c 50ea 713c 540d 70bd b4e4 30bd
000001b0: 60ad 0a3d 3aa6 d3bd ab7a 893c 188e 5d3d
000001c0: 90c3 49bd e6a4 d43d a0c7 06bc 084d 683d
000001d0: b884 fd3d 9080 1cbd 1fa4 a93e f1ac ddbd
000001e0: 2894 95bc d889 adbc 0093 4bba dc6a 41bd
000001f0: 2003 f03c c056 9a3b 9a46 a23d 9079 59bd
00000200: 4717 c53e 9931 44bd e87e cdbd 8c30 4f3d
00000210: 6807 833c 340c 4dbd 181c 2dbd 20e6 053d
00000220: 1028 b9bc b1f6 223d 8a59 f33c 23cb 9f3c
00000230: 9413 5f3d 5041 fbbc 4086 5d3d 32e9 bc3d
00000240: c07d bc3b b863 c83c 997b 82bd f558 4b3e
00000250: d693 c6bd f614 88bd 181b 5f3d e8cc debd
00000260: 8056 033b d876 6bbd f6f7 a83d 5d23 67bd
00000270: 5916 ff3b 0800 663e 4032 cf3c 9073 08bc
00000280: 5afe fb3d eccd 5abd 101d 24bc 1435 60bd
00000290: cdea 663d 91fd e8bd 9dc1 ec3c 7068 c1bc
000002a0: 8ef5 ffbd 60bb d13b c0a9 72bb 180c 9a3c
000002b0: fa28 c43d 42be 0b3e 6160 dcbd 93c2 92bd
000002c0: 1825 4dbd f8f0 ebbd de47 babd 8a45 f03d
000002d0: 7e43 953d bc82 893d 0889 343e aab2 d3bd
000002e0: 72b4 36bd 5043 ee3d b8de 8ebd 74bc e33d
000002f0: c492 063d 6e1b b43d a055 5bbd a1d7 853d
00000300: 7edd 21bf 920f 543c d56a 963d 656a ac3d
00000310: 0e39 d63d 6a8f fb3d d6e5 e83d 5ce0 ab3d
00000320: e0fb b33d 7b91 a7bc 8bf4 87bd d7d8 0fbd
00000330: 8ebc 4f3d c656 8abd 18dc 823d d8b9 333d
00000340: 7039 a53c b05b f73c f4f2 6bbe 6221 e0bb
00000350: a7d9 73bd 9f10 03be f0a9 613d c88c 8b3c
00000360: b8b2 793d 1cac ffbd 2a41 ecbd 38ff 343d
00000370: 3513 233e e909 26be 9658 cd3c 68e5 c7bd
00000380: ecde c13d 24a9 203d 2421 fd3d f869 fcbd
00000390: 790a 00be 8777 4b3e ef60 343e 3991 67bd
000003a0: 4a32 aa3d 189f d7bd da4b b93d a0b3 f1bd
000003b0: 68c3 e43c f904 6dbc 46f0 6ebc ead0 8b3d
000003c0: f5b5 43bd 3005 a2bc 9ea4 f2bd 2460 f1bd
000003d0: 7454 463d f4b7 58bd d167 3ebe 629f a7bd
000003e0: a12f 5bbd 3ab8 12be ee2e 993d 281c 823d
000003f0: 8066 883c acd7 8bbd c857 2a3d 9215 953d

bias f4 [64]
0.16939296 0.0734009 0.09846151 0.0007890354 -0.108767554 0.012392248 0.003818974 -0.033201247
0.16890974 -0.020837821 -0.03042771 -0.04433821 0.1640735 0.0148986615 0.17468162 0.11689954
-0.021561017 0.118542634 0.10358265 -0.063623995 0.025244573 0.17694958 0.13374138 -0.09842702
0.02253504 0.12137606 0.11974569 0.058971927 0.01924342 -0.070188016 -0.0070397244 0.045958385
-0.05014231 -0.10451031 0.019008249 0.18197201 -0.048005678 -0.06414949 0.12772457 0.17666772
-0.14704302 -0.11537549 0.014689024 0.12462936 -0.07094456 0.010687441 0.14727944 -0.04621455
-0.041942634 -0.03284487 0.0047994405 0.17093557 0.10128134 0.14453648 -0.00828141 -0.019854814
0.023857692 0.12837054 0.038002305 -0.08894516 -0.04389353 0.09977422 0.12226844 -0.02272904
00000000: 5975 2d3e 3653 963d 30a6 c93d 45d7 4e3a
00000010: 86c1 debd db08 4b3c c047 7a3b 08fe 07bd
00000020: adf6 2c3e 14b4 aabc 8843 f9bc fc9b 35bd
00000030: e202 283e 8419 743c bddf 323e 0769 ef3d
00000040: bba0 b0bc 7bc6 f23d 2423 d43d 4c4d 82bd
00000050: b5cd ce3c 4532 353e 80f3 083e 1b94 c9bd
00000060: 679b b83c 0394 f83d 3a3d f53d 8c8c 713d
00000070: 60a4 9d3c bcbe 8fbd 7dad e6bb dc3e 3c3d
00000080: 0662 4dbd 8009 d6bd 30b7 9b3c df56 3a3e
00000090: 9aa1 44bd cf60 83bd 3bca 023e 62e8 343e
000000a0: 7292 16be fc49 ecbd 3baa 703c ae3d ff3d
000000b0: 624b 91bd 601a 2f3c 6cd0 163e 784b 3dbd
000000c0: 0acc 2bbd 5888 06bd a044 9d3b bc09 2f3e
000000d0: 976c cf3d 5f01 143e c0ae 07bc 90a6 a2bc
000000e0: 3571 c33c 9173 033e 4ea8 1b3d e128 b6bd
000000f0: b4c9 33bd 6d56 cc3d e067 fa3d 4032 babc

mask f4 [64, 64]
1.0 0.0 0.0 0.0 0.0 0.0 0.0 0.0
0.0 1.0 0.0 0.0 0.0 0.0 0.0 0.0
0.0 0.0 1.0 0.0 0.0 0.0 0.0 0.0
0.0 0.0 0.0 1.0 0.0 0.0 0.0 0.0
0.0 0.0 0.0 0.0 1.0 0.0 0.0 0.0
0.0 0.0 0.0 0.0 0.0 1.0 0.0 0.0
0.0 0.0 0.0 0.0 0.0 0.0 1.0 0.0
0.0 0.0 0.0 0.0 0.0 0.0 0.0 1.0
1.0 1.0 0.0 0.0 0.0 0.0 0.0 0.0
0.0 1.0 1.0 0.0 0.0 0.0 0.0 0.0
0.0 0.0 1.0 1.0 0.0 0.0 0.0 0.0
0.0 0.0 0.0 1.0 1.0 0.0 0.0 0.0
0.0 0.0 0.0 0.0 1.0 1.0 0.0 0.0
0.0 0.0 0.0 0.0 0.0 1.0 1.0 0.0
0.0 0.0 0.0 0.0 0.0 0.0 1.0 1.0
0.0 0.0 0.0 0.0 0.0 0.0 0.0 1.0
1.0 1.0 1.0 0.0 0.0 0.0 0.0 0.0
0.0 1.0 1.0 1.0 0.0 0.0 0.0 0.0
0.0 0.0 1.0 1.0 1.0 0.0 0.0 0.0
0.0 0.0 0.0 1.0 1.0 1.0 0.0 0.0
0.0 0.0 0.0 0.0 1.0 1.0 1.0 0.0
0.0 0.0 0.0 0.0 0.0 1.0 1.0 1.0
0.0 0.0 0.0 0.0 0.0 0.0 1.0 1.0
1.0 0.0 0.0 0.0 0.0 0.0 0.0 1.0
1.0 1.0 1.0 1.0 0.0 0.0 0.0 0.0
0.0 1.0 1.0 1.0 1.0 0.0 0.0 0.0
0.0 0.0 1.0 1.0 1.0 1.0 0.0 0.0
0.0 0.0 0.0 1.0 1.0 1.0 1.0 0.0
0.0 0.0 0.0 0.0 1.0 1.0 1.0 1.0
0.0 0.0 0.0 0.0 0.0 1.0 1.0 1.0
1.0 0.0 0.0 0.0 0.0 0.0 1.0 1.0
1.0 1.0 0.0 0.0 0.0 0.0 0.0 1.0
00000000: 0000 803f 0000 0000 0000 0000 0000 0000
00000010: 0000 0000 0000 0000 0000 0000 0000 0000
00000020: 0000 0000 0000 803f 0000 0000 0000 0000
00000030: 0000 0000 0000 0000 0000 0000 0000 0000
00000040: 0000 0000 0000 0000 0000 803f 0000 0000
00000050: 0000 0000 0000 0000 0000 0000 0000 0000
00000060: 0000 0000 0000 0000 0000 0000 0000 803f
00000070: 0000 0000 0000 0000 0000 0000 0000 0000
00000080: 0000 0000 0000 0000 0000 0000 0000 0000
00000090: 0000 803f 0000 0000 0000 0000 0000 0000
000000a0: 0000 0000 0000 0000 0000 0000 0000 0000
000000b0: 0000 0000 0000 803f 0000 0000 0000 0000
000000c0: 0000 0000 0000 0000 0000 0000 0000 0000
000000d0: 0000 0000 0000 0000 0000 803f 0000 0000
000000e0: 0000 0000 0000 0000 0000 0000 0000 0000
000000f0: 0000 0000 0000 0000 0000 0000 0000 803f
00000100: 0000 803f 0000 803f 0000 0000 0000 0000
00000110: 0000 0000 0000 0000 0000 0000 0000 0000
00000120: 0000 0000 0000 803f 0000 803f 0000 0000
00000130: 0000 0000 0000 0000 0000 0000 0000 0000
00000140: 0000 0000 0000 0000 0000 803f 0000 803f
00000150: 0000 0000 0000 0000 0000 0000 0000 0000
00000160: 0000 0000 0000 0000 0000 0000 0000 803f
00000170: 0000 803f 0000 0000 0000 0000 0000 0000
00000180: 0000 0000 0000 0000 0000 0000 0000 0000
00000190: 0000 803f 0000 803f 0000 0000 0000 0000
000001a0: 0000 0000 0000 0000 0000 0000 0000 0000
000001b0: 0000 0000 0000 803f 0000 803f 0000 0000
000001c0: 0000 0000 0000 0000 0000 0000 0000 0000
000001d0: 0000 0000 0000 0000 0000 803f 0000 803f
000001e0: 0000 0000 0000 0000 0000 0000 0000 0000
000001f0: 0000 0000 0000 0000 0000 0000 0000 803f
00000200: 0000 803f 0000 803f 0000 803f 0000 0000
00000210: 0000 0000 0000 0000 0000 0000 0000 0000
00000220: 0000 0000 0000 803f 0000 803f 0000 803f
00000230: 0000 0000 0000 0000 0000 0000 0000 0000
00000240: 0000 0000 0000 0000 0000 803f 0000 803f
00000250: 0000 803f 0000 0000 0000 0000 0000 0000
00000260: 0000 0000 0000 0000 0000 0000 0000 803f
00000270: 0000 803f 0000 803f 0000 0000 0000 0000
00000280: 0000 0000 0000 0000 0000 0000 0000 0000
00000290: 0000 803f 0000 803f 0000 803f 0000 0000
000002a0: 0000 0000 0000 0000 0000 0000 0000 0000
000002b0: 0000 0000 0000 803f 0000 803f 0000 803f
000002c0: 0000 0000 0000 0000 0000 0000 0000 0000
000002d0: 0000 0000 0000 0000 0000 803f 0000 803f
000002e0: 0000 803f 0000 0000 0000 0000 0000 0000
000002f0: 0000 0000 0000 0000 0000 0000 0000 803f
00000300: 0000 803f 0000 803f 0000 803f 0000 803f
00000310: 0000 0000 0000 0000 0000 0000 0000 0000
00000320: 0000 0000 0000 803f 0000 803f 0000 803f
00000330: 0000 803f 0000 0000 0000 0000 0000 0000
00000340: 0000 0000 0000 0000 0000 803f 0000 803f
00000350: 0000 803f 0000 803f 0000 0000 0000 0000
00000360: 0000 0000 0000 0000 0000 0000 0000 803f
00000370: 0000 803f 0000 803f 0000 803f 0000 0000
00000380: 0000 0000 0000 0000 0000 0000 0000 0000
00000390: 0000 803f 0000 803f 0000 803f 0000 803f
000003a0: 0000 0000 0000 0000 0000 0000 0000 0000
000003b0: 0000 0000 0000 803f 0000 803f 0000 803f
000003c0: 0000 803f 0000 0000 0000 0000 0000 0000
000003d0: 0000 0000 0000 0000 0000 803f 0000 803f
000003e0: 0000 803f 0000 803f 0000 0000 0000 0000
000003f0: 0000 0000 0000 0000 0000 0000 0000 803f

weight f4 [64, 64]
0.021664038 0.00061217754 6.7606336e-05 0.00017026806 -0.0003835 -3.397572e-05 0.00051227846 -7.825697e-05
-0.00032140376 0.0477404 -3.2398464e-05 8.4606174e-05 -0.00021460475 -9.905815e-06 -0.00024108244 0.0008409231
-0.0006780236 -0.0007624635 0.026675312 7.4301606e-05 0.00065768044 0.000276739 -1.6420603e-05 -0.0009462401
-0.00047224894 0.00026054776 -0.00032022537 0.02497739 0.0002521534 0.000713663 0.00012301232 0.0007489512
0.0008626017 2.47885e-05 0.0009998865 0.00033027842 0.054732606 0.0003625244 -0.0009258453 0.00040742065
0.0008397986 0.00018652345 6.0144786e-05 -0.00017083467 -0.0007854619 0.00012684989 0.00040292216 0.00038142182
0.00090829923 -0.00059830764 0.0008804591 -0.00022392835 -0.0002916719 -0.0005057508 -0.0006686924 0.00021475436
-0.00021319867 0.00018374957 -0.0009733521 -0.00032411242 0.00051372265 -0.00048614814 0.0009239138 -0.0006638433
-0.0017144011 0.03930307 0.0008612508 0.0004427692 0.00053176645 -0.0007088772 0.0001889019 -9.336985e-05
-0.00047047128 -0.09058804 -0.11407669 -0.00069177645 -0.00012265504 0.00026196256 0.00096805755 -0.0008054175
0.00088269764 -9.679831e-05 -0.052749857 -0.00086279016 -0.00087963074 -0.0005120076 -7.366491e-05 0.00019016267
0.00089432707 -0.00016546871 0.00068932836 0.055579223 -0.10402394 -0.00086437026 -0.0009491356 0.0006001407
-0.00065276306 -0.0005527058 -0.00059055106 -0.00027611328 -0.07570391 -0.11570742 -0.00075273315 8.0612306e-05
-0.00082694925 -0.00084905914 -0.00025542846 -8.5861684e-05 0.0004989336 0.00043410662 -0.044929057 0.0007629569
-0.0001145345 -8.872569e-05 0.00096640544 6.8478585e-05 0.00068095105 -0.00049833313 0.00064150256 0.00059749914
0.00078652875 -0.00059296895 -0.0009539445 0.00017725099 -0.00012710966 0.0009464331 -0.00033415857 -0.0004381733
-0.048693616 -0.084938586 -0.040342093 0.0006438886 0.00022846021 0.00019695103 -0.00015249813 0.00055802753
-0.0003771688 0.04420411 0.019292613 0.0002541844 -0.00068298675 -0.00092617207 -0.00047679225 -0.0008536518
-0.0008666332 -0.0003452728 -0.044374757 0.00014760722 -0.05396832 -0.00064342015 -0.000264228 0.00058335846
0.0005244584 0.0009308739 0.00046181813 -0.050223447 0.07170797 0.020747995 0.000307665 0.00087012607
-0.00035046818 -3.1165364e-05 -0.000889947 0.00077177765 0.051526975 0.036498614 -0.044100065 -0.00047731734
4.173875e-06 -0.00054437737 0.0009691978 -0.00058077363 0.00016125299 -0.00095582206 -0.050315518 0.04228164
-0.0006261684 -0.0001980666 -3.7996415e-05 -3.6345005e-05 0.00019401849 0.00080731965 -0.00029415073 0.00033155206
-0.015560118 -0.0005931807 -0.0007207164 0.00023088409 0.00017095805 0.0009773289 0.0003525404 -9.1480615e-05
0.0043540183 0.06084322 -0.022670677 -0.03203305 -0.0002255037 -0.000645417 5.59572e-05 0.0003860083
-0.00018420459 -0.031735614 -0.014317149 -0.00034134818 -0.022185538 0.0009932054 0.0008530976 -0.0008667573
-0.0007691678 -0.00084803504 -0.027356364 0.0002093438 0.018052978 0.009678861 0.0007511675 -9.997011e-06
-0.0009035113 0.00034694388 0.0009941793 0.01116358 0.013808908 0.0003407373 -0.015084331 0.0007377588
0.00043171813 -0.00082946493 0.00052687374 0.0006510226 -0.022883084 -0.008033136 0.019088164 -0.017539116
-0.00087369565 0.00027568795 0.0006038759 0.00020253171 0.00053340197 0.00032291925 -0.021351598 -0.02029082
-0.027415609 5.4749253e-06 -0.0002421291 -0.00018132532 0.0003855728 -0.00038734425 -5.265212e-05 0.0008519315
-0.018633993 -0.0076804883 -4.6330097e-05 -0.0003618789 0.0008795411 -0.00062850513 0.00046662 0.0008456233
00000000: c878 b13c 8a7a 203a e0c7 8d38 fc89 3239
00000010: 8010 c9b9 2781 0eb8 6d4a 063a e41d a4b8
00000020: 1582 a8b9 708b 433d 96e3 07b8 986e b138
00000030: 8607 61b9 2731 26b7 13cb 7cb9 6571 5c3a
00000040: 65bd 31ba 0fe0 47ba 2f86 da3c 5fd2 9b38
00000050: 3068 2c3a 4817 9139 fabe 89b7 190d 78ba
00000060: 2e98 f7b9 219a 8839 ece3 a7b9 629d cc3c
00000070: 7533 8439 1d15 3b3a defc 0039 4455 443a
00000080: 3820 623a e6f0 cf37 a00e 833a 3829 ad39
00000090: 4c2f 603d 3411 be39 6db4 72ba 139b d539
000000a0: ee25 5c3a 8295 4339 f943 7c38 1522 33b9
000000b0: 75e7 4dba 0203 0539 4c3f d339 92f9 c739
000000c0: ee1a 6e3a bfd7 1cba 9cce 663a 4fce 6ab9
000000d0: 8aeb 98b9 5d94 04ba 304b 2fba af2f 6139
000000e0: 158e 5fb9 e6ac 4039 8e28 7fba a2ed a9b9
000000f0: 58ab 063a b3e1 feb9 ce32 723a c505 2eba
00000100: c1b5 e0ba 42fc 203d 90c5 613a 7a23 e839
00000110: 3e66 0b3a f2d3 39ba f813 4639 8ecf c3b8
00000120: 96a9 f6b9 3986 b9bd 0aa1 e9bd 5558 35ba
00000130: f69c 00b9 0558 8939 3ec5 7d3a a722 53ba
00000140: d664 673a 3200 cbb8 3c10 58bd de2c 62ba
00000150: 0597 66ba 4038 06ba 8c7c 9ab8 6766 4739
00000160: 4671 6a3a ab81 2db9 0bb4 343a 0aa7 633d
00000170: 810a d5bd e896 62ba 69cf 78ba c352 1d3a
00000180: 301e 2bba 75e3 10ba 36cf 1aba 4cc3 90b9
00000190: a70a 9bbd 03f8 ecbd 1153 45ba 670e a938
000001a0: a0c7 58ba 6593 5eba 07eb 85b9 a410 b4b8
000001b0: deca 023a ce98 e339 8807 38bd 2c01 483a
000001c0: 3e32 f0b8 3e12 bab8 5f56 7d3a 299c 8f38
000001d0: da81 323a 92a2 02ba 822a 283a 7da1 1c3a
000001e0: 0d2f 4e3a 7971 1bba 2212 7aba 73dc 3939
000001f0: bd48 05b9 0d1a 783a 0132 afb9 a0ba e5b9
00000200: f572 47bd 48f4 adbd c03d 25bd a2ca 283a
00000210: d28e 6f39 a484 4e39 e8e7 1fb9 9848 123a
00000220: bdbe c5b9 5e0f 353d 8b0b 9e3c 0d44 8539
00000230: 770a 33ba 5bca 72ba f9f9 f9b9 9ac7 5fba
00000240: c52e 63ba bb05 b5b9 4ec2 35bd 03c7 1a39
00000250: e30d 5dbd 32ab 28ba 1588 8ab9 86ec 183a
00000260: cf7b 093a e405 743a 2e20 f239 1ab7 4dbd
00000270: a1db 923d b3f7 a93c 194e a139 2c19 643a
00000280: 0bbf b7b9 8eb7 02b8 554b 69ba 1f51 4a3a
00000290: f30d 533d 927f 153d 45a2 34bd 7340 fab9
000002a0: 500d 8c36 8cb4 0eba c311 7e3a 0f3f 18ba
000002b0: 0516 2939 2290 7aba a517 4ebd 832f 2d3d
000002c0: 7325 24ba 19b0 4fb9 575e 1fb8 2771 18b8
000002d0: 7171 4b39 4ea2 533a 3e38 9ab9 2ad4 ad39
000002e0: ddef 7ebc af7f 1bba 75ee 3cba 7a19 7239
000002f0: 3443 3339 b719 803a 2cd5 b839 48d9 bfb8
00000300: 27ac 8e3b be36 793d dbb7 b9bc 1635 03bd
00000310: 3075 6cb9 3431 29ba 96b3 6a38 2861 ca39
00000320: 0b27 41b9 34fd 01bd 7a92 6abc faf6 b2b9
00000330: 72be b5bc 712e 823a 69a2 5f3a 1937 63ba
00000340: faa1 49ba ab4e 5eba 741a e0bc 4c83 5b39
00000350: d7e3 933c 1694 1e3c ffe9 443a d6b8 27b7
00000360: 9ed9 6cba 05e6 b539 1f4f 823a 73e7 363c
00000370: c23e 623c fca4 b239 4524 77bc 2866 413a
00000380: 3a58 e239 7370 59ba e61d 0a3a 63a9 2a3a
00000390: 4e75 bbbc 6a9d 03bc c85e 9c3c 31ae 8fbc
000003a0: b908 65ba 368a 9039 6d4d 1e3a b15e 5439
000003b0: 00d4 0b3a 7d4d a939 8ce9 aebc ef38 a6bc
000003c0: b396 e0bc 40b5 b736 09e4 7db9 2522 3eb9
000003d0: b526 ca39 7714 cbb9 c9d6 5cb8 2854 5f3a
000003e0: 51a6 98bc 9bac fbbb 9052 42b8 90ba bdb9
000003f0: 0191 663a 44c2 24ba ada4 f439 d2ac 5d3a

bias f4 [64]
0.021834128 -0.008032565 -0.048759565 0.0013229095 0.045093473 0.024334358 -0.05878002 -0.03844539
0.03803018 -0.01699895 -0.040434115 -0.04681676 -0.026377063 0.043188594 0.05134167 0.04209079
0.036648087 0.056133304 -0.03467389 0.037520066 0.019568713 -0.04357115 0.03990492 0.0029462536
0.022864845 -0.049497772 0.05652855 0.046305284 -0.021547837 0.057142746 -0.026386855 0.022044383
-0.04168103 -0.05338745 -0.019189581 -0.04813188 0.015168201 -0.03902527 0.026766196 -0.045822214
0.023864541 0.05439732 0.008285753 0.029740423 -0.014084695 0.04161822 0.042578667 -0.025423344
0.046845388 0.026366906 0.051521342 0.05594821 0.04636049 -0.055918 0.04006166 0.022631787
0.015362973 0.028359555 -0.042992868 -0.031731296 -0.038085442 -0.05001257 -0.018446973 0.04711706
00000000: 7cdd b23c 059b 03bc 1cb8 47bd 7a65 ad3a
00000010: efb3 383d d958 c73c 51c3 70bd ea78 1dbd
00000020: 89c5 1b3d 6241 8bbc 3e9e 25bd eec2 3fbd
00000030: b614 d8bc 86e6 303d a54b 523d 6467 2c3d
00000040: 4e1c 163d 09ec 653d 3506 0ebd a4ae 193d
00000050: 914e a03c aa77 32bd 5773 233d ef15 413b
00000060: 0e4f bb3c 2dbe 4abd 7b8a 673d 9caa 3d3d
00000070: 1785 b0bc 830e 6a3d 3f29 d8bc 6c96 b43c
00000080: bab9 2abd ccac 5abd 7833 9dbc ef25 45bd
00000090: 0c84 783c f6d8 1fbd c844 db3c 13b0 3bbd
000000a0: 927f c33c b9cf 5e3d f8c0 073c 30a2 f33c
000000b0: 7ec3 66bc de77 2a3d f866 2e3d 9e44 d0bc
000000c0: f3e0 3f3d 69ff d73c 0b08 533d f329 653d
000000d0: 7fe4 3d3d 460a 65bd b217 243d 4c66 b93c
000000e0: fbb4 7b3c 4c52 e83c 4a19 30bd adf8 01bd
000000f0: 7bff 1bbd fbd9 4cbd 1b1e 97bc d1fd 403d

mask f4 [64, 64]
1.0 0.0 0.0 0.0 0.0 0.0 0.0 0.0
0.0 1.0 0.0 0.0 0.0 0.0 0.0 0.0
0.0 0.0 1.0 0.0 0.0 0.0 0.0 0.0
0.0 0.0 0.0 1.0 0.0 0.0 0.0 0.0
0.0 0.0 0.0 0.0 1.0 0.0 0.0 0.0
0.0 0.0 0.0 0.0 0.0 1.0 0.0 0.0
0.0 0.0 0.0 0.0 0.0 0.0 1.0 0.0
0.0 0.0 0.0 0.0 0.0 0.0 0.0 1.0
1.0 1.0 0.0 0.0 0.0 0.0 0.0 0.0
0.0 1.0 1.0 0.0 0.0 0.0 0.0 0.0
0.0 0.0 1.0 1.0 0.0 0.0 0.0 0.0
0.0 0.0 0.0 1.0 1.0 0.0 0.0 0.0
0.0 0.0 0.0 0.0 1.0 1.0 0.0 0.0
0.0 0.0 0.0 0.0 0.0 1.0 1.0 0.0
0.0 0.0 0.0 0.0 0.0 0.0 1.0 1.0
0.0 0.0 0.0 0.0 0.0 0.0 0.0 1.0
1.0 1.0 1.0 0.0 0.0 0.0 0.0 0.0
0.0 1.0 1.0 1.0 0.0 0.0 0.0 0.0
0.0 0.0 1.0 1.0 1.0 0.0 0.0 0.0
0.0 0.0 0.0 1.0 1.0 1.0 0.0 0.0
0.0 0.0 0.0 0.0 1.0 1.0 1.0 0.0
0.0 0.0 0.0 0.0 0.0 1.0 1.0 1.0
0.0 0.0 0.0 0.0 0.0 0.0 1.0 1.0
1.0 0.0 0.0 0.0 0.0 0.0 0.0 1.0
1.0 1.0 1.0 1.0 0.0 0.0 0.0 0.0
0.0 1.0 1.0 1.0 1.0 0.0 0.0 0.0
0.0 0.0 1.0 1.0 1.0 1.0 0.0 0.0
0.0 0.0 0.0 1.0 1.0 1.0 1.0 0.0
0.0 0.0 0.0 0.0 1.0 1.0 1.0 1.0
0.0 0.0 0.0 0.0 0.0 1.0 1.0 1.0
1.0 0.0 0.0 0.0 0.0 0.0 1.0 1.0
1.0 1.0 0.0 0.0 0.0 0.0 0.0 1.0
00000000: 0000 803f 0000 0000 0000 0000 0000 0000
00000010: 0000 0000 0000 0000 0000 0000 0000 0000
00000020: 0000 0000 0000 803f 0000 0000 0000 0000
00000030: 0000 0000 0000 0000 0000 0000 0000 0000
00000040: 0000 0000 0000 0000 0000 803f 0000 0000
00000050: 0000 0000 0000 0000 0000 0000 0000 0000
00000060: 0000 0000 0000 0000 0000 0000 0000 803f
00000070: 0000 0000 0000 0000 0000 0000 0000 0000
00000080: 0000 0000 0000 0000 0000 0000 0000 0000
00000090: 0000 803f 0000 0000 0000 0000 0000 0000
000000a0: 0000 0000 0000 0000 0000 0000 0000 0000
000000b0: 0000 0000 0000 803f 0000 0000 0000 0000
000000c0: 0000 0000 0000 0000 0000 0000 0000 0000
000000d0: 0000 0000 0000 0000 0000 803f 0000 0000
000000e0: 0000 0000 0000 0000 0000 0000 0000 0000
000000f0: 0000 0000 0000 0000 0000 0000 0000 803f
00000100: 0000 803f 0000 803f 0000 0000 0000 0000
00000110: 0000 0000 0000 0000 0000 0000 0000 0000
00000120: 0000 0000 0000 803f 0000 803f 0000 0000
00000130: 0000 0000 0000 0000 0000 0000 0000 0000
00000140: 0000 0000 0000 0000 0000 803f 0000 803f
00000150: 0000 0000 0000 0000 0000 0000 0000 0000
00000160: 0000 0000 0000 0000 0000 0000 0000 803f
00000170: 0000 803f 0000 0000 0000 0000 0000 0000
00000180: 0000 0000 0000 0000 0000 0000 0000 0000
00000190: 0000 803f 0000 803f 0000 0000 0000 0000
000001a0: 0000 0000 0000 0000 0000 0000 0000 0000
000001b0: 0000 0000 0000 803f 0000 803f 0000 0000
000001c0: 0000 0000 0000 0000 0000 0000 0000 0000
000001d0: 0000 0000 0000 0000 0000 803f 0000 803f
000001e0: 0000 0000 0000 0000 0000 0000 0000 0000
000001f0: 0000 0000 0000 0000 0000 0000 0000 803f
00000200: 0000 803f 0000 803f 0000 803f 0000 0000
00000210: 0000 0000 0000 0000 0000 0000 0000 0000
00000220: 0000 0000 0000 803f 0000 803f 0000 803f
00000230: 0000 0000 0000 0000 0000 0000 0000 0000
00000240: 0000 0000 0000 0000 0000 803f 0000 803f
00000250: 0000 803f 0000 0000 0000 0000 0000 0000
00000260: 0000 0000 0000 0000 0000 0000 0000 803f
00000270: 0000 803f 0000 803f 0000 0000 0000 0000
00000280: 0000 0000 0000 0000 0000 0000 0000 0000
00000290: 0000 803f 0000 803f 0000 803f 0000 0000
000002a0: 0000 0000 0000 0000 0000 0000 0000 0000
000002b0: 0000 0000 0000 803f 0000 803f 0000 803f
000002c0: 0000 0000 0000 0000 0000 0000 0000 0000
000002d0: 0000 0000 0000 0000 0000 803f 0000 803f
000002e0: 0000 803f 0000 0000 0000 0000 0000 0000
000002f0: 0000 0000 0000 0000 0000 0000 0000 803f
00000300: 0000 803f 0000 803f 0000 803f 0000 803f
00000310: 0000 0000 0000 0000 0000 0000 0000 0000
00000320: 0000 0000 0000 803f 0000 803f 0000 803f
00000330: 0000 803f 0000 0000 0000 0000 0000 0000
00000340: 0000 0000 0000 0000 0000 803f 0000 803f
00000350: 0000 803f 0000 803f 0000 0000 0000 0000
00000360: 0000 0000 0000 0000 0000 0000 0000 803f
00000370: 0000 803f 0000 803f 0000 803f 0000 0000
00000380: 0000 0000 0000 0000 0000 0000 0000 0000
00000390: 0000 803f 0000 803f 0000 803f 0000 803f
000003a0: 0000 0000 0000 0000 0000 0000 0000 0000
000003b0: 0000 0000 0000 803f 0000 803f 0000 803f
000003c0: 0000 803f 0000 0000 0000 0000 0000 0000
000003d0: 0000 0000 0000 0000 0000 803f 0000 803f
000003e0: 0000 803f 0000 803f 0000 0000 0000 0000
000003f0: 0000 0000 0000 0000 0000 0000 0000 803f

weight f4 [64, 64]
-0.118995264 0.07900472 0.010378301 -0.036907807 0.048118472 0.008376092 -0.041891918 -0.012666985
0.07271685 0.09155701 -0.033000633 0.0970138 0.12064546 0.07344763 0.061439574 -0.10550228
-0.057766333 -0.051563084 -0.022565544 0.019830883 -0.10627526 -0.11100559 -0.107471645 -0.090682596
-0.07548998 -0.0665762 0.09292579 -0.11728259 0.11496742 -0.028584749 -0.10098347 -0.045848325
-0.055418372 -0.085931405 -0.11659171 0.0043563843 -0.09704368 -0.035970584 -0.032855958 -0.072179735
-0.004735112 -0.096857294 -0.040636152 0.110641986 0.115608186 0.07206802 0.029068321 0.11104129
0.12003167 -0.058929726 0.019765884 -0.024737135 -0.085742176 0.11095081 -0.02661497 0.0053889304
0.103069246 0.033383325 0.0825232 0.05294396 0.05915478 0.044620916 0.06273201 0.17417845
0.005913394 0.04078382 0.04599181 0.12481724 0.10363494 0.07883307 -0.04738845 0.12347953
0.022813931 -0.2764466 -0.017853126 0.090813875 -0.11478825 -0.028639123 0.09317939 -0.03445497
-0.05047773 -0.033699572 0.040961683 -0.24653347 0.01581408 0.03212799 0.03300108 -0.0025326163
0.061511233 -0.007378474 0.09695433 0.15170613 -0.012137572 -0.02442713 0.09721856 -0.012532353
-0.03823459 -0.007827073 -0.02872856 -0.043618083 0.14182146 0.07975396 0.018119887 0.07028791
0.09651424 -0.08134359 -0.0889093 -0.018421635 0.03723681 -0.0002673278 0.041558716 -0.08603223
0.003650546 0.093000144 0.0053921193 0.11906971 -0.05915755 0.115424514 -0.0263073 0.16322151
0.0136475265 0.12433106 0.11895248 -0.042772368 -0.009140834 -0.033943072 0.027807653 -0.05413043
-0.20841447 -0.108257785 0.061069813 0.09876107 0.013760209 -0.003804192 -0.093754455 -0.11388557
-0.096449286 -0.10934477 -0.07802175 0.05860895 -0.09535171 0.05990173 0.08317384 -0.00050503016
0.029612899 0.07801753 -0.26631418 0.15003672 0.06631396 0.1192801 -0.048796743 0.076736465
-0.04597698 0.019444302 0.10453518 0.07846497 0.04308268 0.019649388 -0.059335172 0.10198201
-0.11281349 0.021859765 -0.012086913 -0.035208687 -0.1673659 -0.1640166 -0.037607186 0.01883915
0.048755288 -0.11362031 -0.04806879 -0.11919086 0.08548306 -0.07438522 -0.04063779 -0.025237255
-0.068538964 0.089799136 0.053478464 0.065225706 0.08811866 -0.062434047 0.03559804 0.093813665
-0.027836835 -0.010231152 0.01182583 -0.12274934 -0.013303131 -0.014953971 -0.09087904 0.12977271
-0.10998432 -0.06308513 0.06758513 0.019388646 0.050675854 0.0053830445 -0.11631736 -0.089768365
-0.04232049 -0.08416714 -0.086206965 -0.040459007 0.099540606 0.096877724 0.025121778 -0.08018765
-0.07533459 0.122403994 0.015487418 0.008213267 -0.070840195 -0.063818246 0.061450854 -0.010723487
-0.013050333 -0.06158088 -0.092627704 -0.09388422 -0.13143463 0.10199351 0.018347964 0.017500192
0.09385304 0.06280464 -0.018260017 0.07739535 -0.006214653 -0.12788886 0.0873646 -0.07364838
-0.09446074 -0.028875023 0.030511543 0.0983284 -0.12374042 -0.13025524 -0.09620216 -0.073022366
0.1091912 -0.0019380152 0.09072542 0.03524451 0.073035985 -0.06480795 0.042760413 0.036841836
0.028610386 -0.093849435 -0.043070376 0.10617636 -0.027351946 -0.0908093 -0.10584137 -0.037144568
00000000: cab3 f3bd 3acd a13d c009 2a3c a42c 17bd
00000010: e017 453d e03b 093c dc96 2bbd 3089 4fbc
00000020: 92ec 943d 3e82 bb3d ac2b 07bd 2caf c63d
00000030: f814 f73d b66b 963d 10a8 7b3d 9411 d8bd
00000040: 649c 6cbd d033 53bd 60db b8bc 6074 a23c
00000050: d8a6 d9bd e656 e3bd 181a dcbd ccb7 b9bd
00000060: 7e9a 9abd 1a59 88bd e04f be3d db31 f0bd
00000070: 0a74 eb3d 902a eabc 6cd0 cebd 74cb 3bbd
00000080: 60fe 62bd cefc afbd a2c7 eebd 00c0 8e3b
00000090: d6be c6bd e455 13bd f893 06bd f8d2 93bd
000000a0: 0029 9bbb 1e5d c6bd 1872 26bd 4498 e23d
000000b0: fcc3 ec3d 6698 933d b020 ee3c 9e69 e33d
000000c0: 2ad3 f53d 4c60 71bd 10ec a13c 88a5 cabc
000000d0: 9899 afbd 2e3a e33d a307 dabc a095 b03b
000000e0: f815 d33d f4bc 083d ec01 a93d c4db 583d
000000f0: 484c 723d 6cc4 363d a479 803d d65b 323e
00000100: 25c5 c13b ef0c 273d e861 3c3d 2ea0 ff3d
00000110: 8e3e d43d 3c73 a13d 641a 42bd d6e2 fc3d
00000120: 48e4 ba3c 698a 8dbe b840 92bc a0fc b93d
00000130: 1a16 ebbd 989c eabc d6d4 be3d a820 0dbd
00000140: bcc1 4ebd 9008 0abd 70c7 273d 4573 7cbe
00000150: 888c 813c a498 033d 242c 073d 40fa 25bb
00000160: 34f3 7b3d 20c7 f1bb fe8f c63d da58 1b3e
00000170: abdc 46bc 681b c8bc 861a c73d 8054 4dbc
00000180: e09b 1cbd 203d 00bc 2858 ebbc e0a8 32bd
00000190: a539 113e 0b56 a33d 2870 943c 1cf3 8f3d
000001a0: 42a9 c53d 7897 a6bd 1416 b6bd f8e8 96bc
000001b0: a085 183d 2128 8cb9 7939 2a3d aa31 b0bd
000001c0: 003e 6f3b dc76 be3d 60b0 b03b d2da f33d
000001d0: 304f 72bd b063 ec3d 6882 d7bc 8a23 273e
000001e0: e099 5f3c 48a1 fe3d 5c9d f33d 1432 2fbd
000001f0: 70c3 15bc e407 0bbd e0cc e33c dfb7 5dbd
00000200: 9a6a 55be 42b6 ddbd 5724 7a3d 3e43 ca3d
00000210: 8072 613c c04f 79bb 5602 c0bd d63c e9bd
00000220: 3487 c5bd 27f0 dfbd dec9 9fbd f00f 703d
00000230: c247 c3bd 845b 753d 0c57 aa3d 0064 04ba
00000240: c096 f23c a8c7 9f3d 555a 88be 3aa3 193e
00000250: 9dcf 873d 2049 f43d 18df 47bd 0228 9d3d
00000260: 5c52 3cbd a849 9f3c 8a16 d63d 3eb2 a03d
00000270: 7777 303d c1f7 a03c 7009 73bd f2db d03d
00000280: c20a e7bd 4013 b33c 3008 46bc fc36 10bd
00000290: f761 2bbe f8f3 27be fe09 1abd 9054 9a3c
000002a0: a0b3 473d c4b1 e8bd c8e3 44bd 561a f4bd
000002b0: be11 af3d 4757 98bd d073 26bd 5cbe cebc
000002c0: 285e 8cbd 9ce8 b73d 3c0c 5b3d 0e95 853d
000002d0: 8e77 b43d d8ba 7fbd 40cf 113d 6121 c03d
000002e0: 130a e4bc 90a0 27bc 20c1 413c 0264 fbbd
000002f0: 60f5 59bc 8001 75bc ca1e babd 23e3 043e
00000300: 763f e1bd c732 81bd 136a 8a3d f0d4 9e3c
00000310: 7c91 4f3d 4064 b03b cc37 eebd 7ad8 b7bd
00000320: 4058 2dbd d25f acbd 478d b0bd 58b8 25bd
00000330: f2db cb3d d467 c63d 30cc cd3c 6c39 a4bd
00000340: 0649 9abd f2ae fa3d f0be 7d3c f090 063c
00000350: aa14 91bd 24b3 82bd e4b3 7b3d 90b1 2fbc
00000360: 10d1 55bc 3c3c 7cbd 98b3 bdbd 5f46 c0bd
00000370: cd96 06be f9e1 d03d 784e 963c 905c 8f3c
00000380: 0636 c03d b89f 803d 0896 95bc 7481 9e3d
00000390: 4aa4 cbbb 4cf5 02be 36ec b23d f6d4 96bd
000003a0: a274 c1bd 508b ecbc 58f3 f93c 6660 c93d
000003b0: 9e6b fdbd a161 05be a305 c5bd c08c 95bd
000003c0: a39f df3d 0005 feba 40ce b93d 8c5c 103d
000003d0: e493 953d 08ba 84bd 8b25 2f3d 77e7 163d
000003e0: 5460 ea3c 2234 c0bd 906a 30bd fe72 d93d
000003f0: 3011 e0bc 3afa b9bd 5cc3 d8bd e724 18bd

bias f4 [64]
-0.012478271 0.034101684 0.1210608 -0.080204085 -0.071062565 -0.09153306 0.047409333 0.0915294
0.11405345 -0.05622138 0.046627622 0.037447065 0.12782702 -0.03785055 0.14481135 0.029767875
0.018046377 -0.043198135 -0.044583872 -0.087242424 -0.060472444 -0.10713822 0.07706683 0.17877774
0.0766441 -0.022543276 0.043287862 -0.03333111 -0.05106622 -0.009730214 0.0796413 -0.071536414
-0.034388267 0.07445089 0.17275602 0.051587187 0.1667541 -0.059106905 0.14830728 -0.008919186
0.14851925 0.07026526 0.08775957 -0.050078254 0.035103437 0.04187674 -0.020107046 0.1273798
-0.016429717 0.004073933 -0.025526451 0.09905398 0.15196875 0.07931021 -0.076750144 0.10035078
0.06775655 0.13837333 0.04650468 0.17030121 0.10815552 -0.079600126 0.14977223 -0.014784825
00000000: a971 4cbc 35ae 0b3d baee f73d 0a42 a4bd
00000010: 4089 91bd af75 bbbd 4a30 423d c473 bb3d
00000020: db94 e93d 6448 66bd 9bfc 3e3d 1862 193d
00000030: 16e5 023e 2e09 1bbd 6d49 143e c2db f33c
00000040: ffd5 933c 87f0 30bd 949d 36bd 28ac b2bd
00000050: f4b1 77bd 486b dbbd 37d5 9d3d 8311 373e
00000060: 95f7 9c3d adac b8bc 9d4e 313d 3486 08bd
00000070: d02a 51bd 7a6b 1fbc fa1a a33d af81 92bd
00000080: b6da 0cbd b579 983d f4e6 303e 164d 533d
00000090: 96c1 2a3e 151a 72bd dddd 173e c721 12bc
000000a0: 6e15 183e 3ce7 8f3d 4abb b33d db1e 4dbd
000000b0: 9fc8 0f3d f286 2b3d 88b7 a4bc da6f 023e
000000c0: 9d97 86bc a17e 853b d91c d1bc d0dc ca3d
000000d0: b29d 1b3e 646d a23d 2e2f 9dbd b684 cd3d
000000e0: f2c3 8a3d bdb1 0d3e b17b 3e3d 7163 2e3e
000000f0: a480 dd3d 6405 a3bd e45d 193e 0d3c 72bc

mask f4 [64, 64]
1.0 0.0 0.0 0.0 0.0 0.0 0.0 0.0
0.0 1.0 0.0 0.0 0.0 0.0 0.0 0.0
0.0 0.0 1.0 0.0 0.0 0.0 0.0 0.0
0.0 0.0 0.0 1.0 0.0 0.0 0.0 0.0
0.0 0.0 0.0 0.0 1.0 0.0 0.0 0.0
0.0 0.0 0.0 0.0 0.0 1.0 0.0 0.0
0.0 0.0 0.0 0.0 0.0 0.0 1.0 0.0
0.0 0.0 0.0 0.0 0.0 0.0 0.0 1.0
1.0 1.0 0.0 0.0 0.0 0.0 0.0 0.0
0.0 1.0 1.0 0.0 0.0 0.0 0.0 0.0
0.0 0.0 1.0 1.0 0.0 0.0 0.0 0.0
0.0 0.0 0.0 1.0 1.0 0.0 0.0 0.0
0.0 0.0 0.0 0.0 1.0 1.0 0.0 0.0
0.0 0.0 0.0 0.0 0.0 1.0 1.0 0.0
0.0 0.0 0.0 0.0 0.0 0.0 1.0 1.0
0.0 0.0 0.0 0.0 0.0 0.0 0.0 1.0
1.0 1.0 1.0 0.0 0.0 0.0 0.0 0.0
0.0 1.0 1.0 1.0 0.0 0.0 0.0 0.0
0.0 0.0 1.0 1.0 1.0 0.0 0.0 0.0
0.0 0.0 0.0 1.0 1.0 1.0 0.0 0.0
0.0 0.0 0.0 0.0 1.0 1.0 1.0 0.0
0.0 0.0 0.0 0.0 0.0 1.0 1.0 1.0
0.0 0.0 0.0 0.0 0.0 0.0 1.0 1.0
1.0 0.0 0.0 0.0 0.0 0.0 0.0 1.0
1.0 1.0 1.0 1.0 0.0 0.0 0.0 0.0
0.0 1.0 1.0 1.0 1.0 0.0 0.0 0.0
0.0 0.0 1.0 1.0 1.0 1.0 0.0 0.0
0.0 0.0 0.0 1.0 1.0 1.0 1.0 0.0
0.0 0.0 0.0 0.0 1.0 1.0 1.0 1.0
0.0 0.0 0.0 0.0 0.0 1.0 1.0 1.0
1.0 0.0 0.0 0.0 0.0 0.0 1.0 1.0
1.0 1.0 0.0 0.0 0.0 0.0 0.0 1.0
00000000: 0000 803f 0000 0000 0000 0000 0000 0000
00000010: 0000 0000 0000 0000 0000 0000 0000 0000
00000020: 0000 0000 0000 803f 0000 0000 0000 0000
00000030: 0000 0000 0000 0000 0000 0000 0000 0000
00000040: 0000 0000 0000 0000 0000 803f 0000 0000
00000050: 0000 0000 0000 0000 0000 0000 0000 0000
00000060: 0000 0000 0000 0000 0000 0000 0000 803f
00000070: 0000 0000 0000 0000 0000 0000 0000 0000
00000080: 0000 0000 0000 0000 0000 0000 0000 0000
00000090: 0000 803f 0000 0000 0000 0000 0000 0000
000000a0: 0000 0000 0000 0000 0000 0000 0000 0000
000000b0: 0000 0000 0000 803f 0000 0000 0000 0000
000000c0: 0000 0000 0000 0000 0000 0000 0000 0000
000000d0: 0000 0000 0000 0000 0000 803f 0000 0000
000000e0: 0000 0000 0000 0000 0000 0000 0000 0000
000000f0: 0000 0000 0000 0000 0000 0000 0000 803f
00000100: 0000 803f 0000 803f 0000 0000 0000 0000
00000110: 0000 0000 0000 0000 0000 0000 0000 0000
00000120: 0000 0000 0000 803f 0000 803f 0000 0000
00000130: 0000 0000 0000 0000 0000 0000 0000 0000
00000140: 0000 0000 0000 0000 0000 803f 0000 803f
00000150: 0000 0000 0000 0000 0000 0000 0000 0000
00000160: 0000 0000 0000 0000 0000 0000 0000 803f
00000170: 0000 803f 0000 0000 0000 0000 0000 0000
00000180: 0000 0000 0000 0000 0000 0000 0000 0000
00000190: 0000 803f 0000 803f 0000 0000 0000 0000
000001a0: 0000 0000 0000 0000 0000 0000 0000 0000
000001b0: 0000 0000 0000 803f 0000 803f 0000 0000
000001c0: 0000 0000 0000 0000 0000 0000 0000 0000
000001d0: 0000 0000 0000 0000 0000 803f 0000 803f
000001e0: 0000 0000 0000 0000 0000 0000 0000 0000
000001f0: 0000 0000 0000 0000 0000 0000 0000 803f
00000200: 0000 803f 0000 803f 0000 803f 0000 0000
00000210: 0000 0000 0000 0000 0000 0000 0000 0000
00000220: 0000 0000 0000 803f 0000 803f 0000 803f
00000230: 0000 0000 0000 0000 0000 0000 0000 0000
00000240: 0000 0000 0000 0000 0000 803f 0000 803f
00000250: 0000 803f 0000 0000 0000 0000 0000 0000
00000260: 0000 0000 0000 0000 0000 0000 0000 803f
00000270: 0000 803f 0000 803f 0000 0000 0000 0000
00000280: 0000 0000 0000 0000 0000 0000 0000 0000
00000290: 0000 803f 0000 803f 0000 803f 0000 0000
000002a0: 0000 0000 0000 0000 0000 0000 0000 0000
000002b0: 0000 0000 0000 803f 0000 803f 0000 803f
000002c0: 0000 0000 0000 0000 0000 0000 0000 0000
000002d0: 0000 0000 0000 0000 0000 803f 0000 803f
000002e0: 0000 803f 0000 0000 0000 0000 0000 0000
000002f0: 0000 0000 0000 0000 0000 0000 0000 803f
00000300: 0000 803f 0000 803f 0000 803f 0000 803f
00000310: 0000 0000 0000 0000 0000 0000 0000 0000
00000320: 0000 0000 0000 803f 0000 803f 0000 803f
00000330: 0000 803f 0000 0000 0000 0000 0000 0000
00000340: 0000 0000 0000 0000 0000 803f 0000 803f
00000350: 0000 803f 0000 803f 0000 0000 0000 0000
00000360: 0000 0000 0000 0000 0000 0000 0000 803f
00000370: 0000 803f 0000 803f 0000 803f 0000 0000
00000380: 0000 0000 0000 0000 0000 0000 0000 0000
00000390: 0000 803f 0000 803f 0000 803f 0000 803f
000003a0: 0000 0000 0000 0000 0000 0000 0000 0000
000003b0: 0000 0000 0000 803f 0000 803f 0000 803f
000003c0: 0000 803f 0000 0000 0000 0000 0000 0000
000003d0: 0000 0000 0000 0000 0000 803f 0000 803f
000003e0: 0000 803f 0000 803f 0000 0000 0000 0000
000003f0: 0000 0000 0000 0000 0000 0000 0000 803f
