gwak/output/NF_onlyBkg/model_JIT.pt (torch, 739543 bytes, 73 tensors)

weight f4 [64, 8]
000000 12 dd 54 3e 82 11 3a 3e 65 3e 69 3c 03 28 ae bd
       0.20787457 0.18170741 0.014236067 -0.085037254
000010 bf f1 8f be 07 2a 9f be 77 05 a3 be a7 2b 4c bd
       -0.28114125 -0.31086752 -0.31840107 -0.049846318
000020 ed 10 46 3e 97 e5 7a 3e d7 29 22 bd 6d 8d 9b 3a
       0.19342394 0.24501644 -0.039590683 0.001186771
000030 fc ae 9c bb 87 9b fb 3d f5 2d d3 bd 35 0f 8e 3c
       -0.004781602 0.12285524 -0.103115 0.017341236
000040 dd 53 18 be 69 1d 75 be ac e1 ac be 62 9f 98 3d
       -0.14875741 -0.23937 -0.33765924 0.07452275
000050 f5 64 cb 3c 14 de 32 be 4c ed f5 bd 91 e5 44 3e
       0.024828414 -0.17467529 -0.120081514 0.19228198
000060 f9 b4 6d bd 0e 8b 83 3d 5e 17 bc 3e fd 6a 5e 3e
       -0.058033917 0.06423007 0.36736578 0.217205
000070 60 05 66 3c ad 66 37 be c2 e8 ac 3e 5a 07 a1 3d
       0.014039367 -0.17910261 0.3377133 0.0786273
000080 3e ee 80 3e cd 99 49 3d 8d d3 52 3e 3f 1f 22 be
       0.25181764 0.04921894 0.20588513 -0.15832232
000090 79 75 b5 3e 2f bf 5f 3b 9f e6 9d 3e da ea 85 3e
       0.35441187 0.0034141054 0.30840012 0.2615574
0000a0 b0 05 df 3d a0 5e 53 3e ce be 77 be 3f 65 ae 3e
       0.10889757 0.20641565 -0.2419388 0.3406162
0000b0 d9 54 e7 3d da 66 35 bd 59 8d 1b be aa d2 0d bd
       0.1129548 -0.04428754 -0.15190639 -0.034624733
0000c0 86 8f 10 3e a1 80 b7 be e5 49 b4 be 1b ca 75 bc
       0.1411725 -0.35840324 -0.35212627 -0.015001799
0000d0 ac 18 e6 be 2a e6 69 be d8 9e c3 3d b7 0a 44 be
       -0.44940698 -0.22841707 0.095517814 -0.19144712
0000e0 7d cc 16 3e fb ef a6 be ed 3c 17 bc e0 25 bd 3c
       0.14726444 -0.32604966 -0.009230834 0.02308935
0000f0 22 50 6c 3e 5f 19 52 bc ca 04 4b 3d 07 75 95 3e
       0.23077443 -0.012823432 0.049565114 0.29190847
000100 d2 6f d2 bd d9 1d 72 3e 4e 99 e4 3d 33 4e f9 bd
       -0.10275234 0.23644198 0.11162053 -0.121731184
000110 ff 37 02 be 4f 7e 92 be 25 a8 2f bd 1d 57 16 3c
       -0.12716673 -0.2861199 -0.042884964 0.009176043
000120 52 fc 7f 3e 0b 85 1a be da 7b 22 bb 87 4a 8f be
       0.24998596 -0.15089814 -0.002479306 -0.27986547
000130 e4 ff cd 3d 44 7c 32 be 16 9c d4 bd 2f de 0b be
       0.10058573 -0.17430216 -0.103813335 -0.13658975
000140 ef 94 4c be 45 8e 06 3e b8 c7 8c be 39 44 59 3e
       -0.19978689 0.13140209 -0.27496123 0.21217431
000150 6f 4d 9b 3e 4d 86 27 be 74 73 a5 be 71 ef 2d bd
       0.30332515 -0.16359825 -0.32314646 -0.042464677
000160 83 f1 29 be 47 02 f0 be d7 15 17 3e 43 24 d1 3d
       -0.16596036 -0.46876737 0.14754425 0.102119945
000170 98 3c d1 3c 3e ef 9c 3e 76 9e 92 be 7c 2a 80 3d
       0.025541589 0.30651277 -0.2863652 0.06258103
000180 b2 7f c5 bd e5 0f 71 be c8 3d 96 3e 7a 7f 9f 3e
       -0.096434966 -0.2354122 0.2934401 0.31151944
000190 fa 75 51 3e b3 ae 49 be dc 7c 59 be e4 50 83 be
       0.2045516 -0.19695549 -0.21239036 -0.25647652
0001a0 1f b2 2a be d1 19 8d be 49 8f 04 be 9b a0 eb 3d
       -0.1666951 -0.2755876 -0.12945284 0.115052424
0001b0 ba b4 54 3d 5d 62 6e 3e 60 0b ad be 11 1c 15 be
       0.051930167 0.2327971 -0.3379774 -0.14561488
0001c0 4a 3a 4b be bd 2c aa 3e 7e 7d 63 3c 8d 6c 6c 3e
       -0.19846454 0.33237258 0.0138849 0.23088284
0001d0 f0 e3 a5 3e bf a3 2b 3e a8 21 41 be 77 9d 99 3e
       0.32400465 0.16761683 -0.18860495 0.3000295
0001e0 04 b5 90 be c2 37 f5 be af d2 09 bc 07 3f aa 3e
       -0.28263104 -0.47894102 -0.008412047 0.3325121
0001f0 82 a4 a8 be f6 8a 7a bd a5 5b ac 3e 06 79 51 be
       -0.3293801 -0.06116768 0.3366367 -0.20456323
000200 03 88 4f 3d 25 0b 3f 3e ec 0c fc bd b3 e8 36 3d
       0.05066682 0.18656595 -0.12307152 0.044655513
000210 c4 01 8c be e4 19 69 3d 92 00 05 3e 7c 39 ee 3d
       -0.27345097 0.056909457 0.12988499 0.11632058
000220 90 e6 bb 3e 46 b2 06 bf 67 92 87 be c0 52 da 3e
       0.36699343 -0.52615774 -0.26478884 0.42641258
000230 3a 9c 00 be bf 31 e6 bd e5 96 91 3e 28 9f 08 be
       -0.12559596 -0.11239957 0.28435436 -0.13341963
000240 40 64 a3 be e6 c5 70 be 87 46 8c 3e 88 34 c7 3d
       -0.31912422 -0.23512992 0.27397558 0.097268164
000250 c5 c4 8a bd f7 4f a7 be c1 f1 b4 be b0 98 10 3d
       -0.06775812 -0.32678196 -0.35340694 0.035301864
000260 fe 16 3b bd 2f e8 32 3e b6 c3 1f 3e df 4c 8e be
       -0.045676224 0.17471384 0.15602002 -0.27793023
000270 d7 2c 9b bc 05 34 c6 be 8f 08 cd bd 22 e6 9e be
       -0.01894228 -0.38711563 -0.10011398 -0.31034952
000280 02 7b 09 be 60 2b 8e be 03 84 fa 3c 16 92 ca 3e
       -0.1342583 -0.27767467 0.030580526 0.3956458
000290 63 61 0d 3e 95 c3 96 be 4d 76 8c be 46 54 e4 3d
       0.13806681 -0.29446092 -0.27434006 0.111488864
0002a0 e3 65 9f 3e 89 5a 36 be df 12 a8 be 19 0d a2 3e
       0.3113242 -0.17807974 -0.32826898 0.31650618
0002b0 fd 93 a1 be e3 c2 00 bd a6 77 60 bd e9 e1 a2 bd
       -0.3155822 -0.03143586 -0.054801606 -0.07953245
0002c0 95 36 83 be 9e 47 96 3c 6e 74 4e bd 69 aa 84 be
       -0.2562758 0.018344697 -0.050404005 -0.25911263
0002d0 fc 95 4a be 33 51 a0 3e f2 6c a6 be 53 e9 94 be
       -0.19783777 0.3131195 -0.32504994 -0.29084262
0002e0 56 03 00 3e 3b a2 6c be 64 44 57 3e 57 19 38 3e
       0.12501273 -0.23108761 0.21022183 0.17978416
0002f0 4e 83 88 be ed cc 6a 3e 84 99 3c 3d 4a 6c 1d be
       -0.26662678 0.22929735 0.04604484 -0.1537334
000300 9c 2a d2 bd f5 c0 fd 3d e2 79 94 3d 63 c2 58 be
       -0.10262033 0.12390319 0.0724981 -0.21167903
000310 54 87 62 be 62 e6 9c bd 49 bd 63 3e f5 5f 7a be
       -0.22121936 -0.076611295 0.22240175 -0.24450667
000320 3a 58 86 bd 3c 9d c0 3d 5a 83 9e 3e 3a ab 49 be
       -0.06559797 0.0940499 0.30959588 -0.19694224
000330 76 40 31 3e 5c 0a 90 3e 03 94 5e be 84 a6 ad 3e
       0.17309746 0.28132904 -0.2173615 0.33916104
000340 0d 2f 5e 3c 6c 90 69 3a 4a 57 97 3e 53 a9 32 3c
       0.0135610225 0.0008909765 0.29558784 0.010904628
000350 b6 0f b3 3e b4 7a 46 be 99 d0 a8 bd ff 47 a2 be
       0.34972924 -0.19382745 -0.08242912 -0.31695554
000360 b3 9b 17 3e ef 99 a1 be 72 f8 ad be c6 b3 c9 bd
       0.14805488 -0.31562755 -0.3397861 -0.09848742
000370 dd 66 d7 be 70 ed ae be c5 68 38 ba b5 8e 86 bc
       -0.42070666 -0.34165525 -0.0007034655 -0.01642547
000380 84 ab 24 3e f7 05 6c be 83 61 b2 be 3c 7f f4 3c
       0.16081053 -0.2304915 -0.3484002 0.029845826
000390 ea 38 08 be fe 92 9b 3e d1 3f 28 3d ed 1c 4c 3e
       -0.13302961 0.30385584 0.041076485 0.1993291
0003a0 59 a3 8f 3d 9f a9 05 3f ac f5 7f 3e 62 db 82 bd
       0.07013578 0.52211946 0.2499606 -0.063895
0003b0 57 f4 2c be 78 b2 04 3e 80 4f a1 3e d0 9d 8e be
       -0.16890083 0.12958705 0.31505966 -0.27854776
0003c0 d5 50 80 3e 86 07 c6 3e 55 9a d0 be e8 cc 59 3e
       0.2506167 0.38677615 -0.40742746 0.21269572
0003d0 e6 b4 1e 3e 5c b1 94 3e d4 99 61 3e 5c 2d 58 3e
       0.15498695 0.29041564 0.22031337 0.21111053
0003e0 36 28 80 be ad 8d 2d be 79 11 a9 3e 6f e9 cf be
       -0.2503068 -0.16948576 0.33021143 -0.40607783
0003f0 16 74 dd bd 11 46 d7 bd bb 2d 78 be c8 d7 69 3e
       -0.10813157 -0.10511411 -0.24236195 0.2283622

bias f4 [64]
000000 87 2c 85 bd fe dd 20 be ec f1 50 bc 1a b2 28 3e
       -0.065026335 -0.15709683 -0.012752991 0.1647419
000010 30 04 6d 3d b2 66 ac be 4e a7 94 3e 2d 41 93 bb
       0.05786532 -0.336721 0.29033893 -0.0044938535
000020 aa 92 c9 3d 31 d1 b0 3e 02 be c5 bd 85 79 42 3e
       0.09842427 0.345346 -0.09655382 0.18991669
000030 0b 24 a1 bd e9 f2 54 be d2 58 7b 3e 37 74 f9 bd
       -0.07868203 -0.20795788 0.24545601 -0.12180369
000040 34 14 4c 3e ca b3 89 bd bb 88 0d bd 76 c3 86 3d
       0.19929582 -0.06723745 -0.034554224 0.0658025
000050 66 8e 55 3e 53 ee f3 bd 6e ab cd 3e 2c 3d 62 be
       0.20855102 -0.11910691 0.40169853 -0.22093648
000060 8b 34 ca 3d cf 9d d6 3d c9 ce 5a be ea e2 ea bd
       0.09873303 0.10479318 -0.21367945 -0.11469062
000070 d6 77 88 be 83 c7 9c 3d c7 63 ed 3c 80 59 63 be
       -0.26653928 0.07655241 0.028978242 -0.2220211
000080 bf 50 e6 bc bc 63 2b be d1 8d 2b bc 14 a1 fa 3c
       -0.028114675 -0.16737264 -0.010470823 0.030594386
000090 25 4d 5b 3c 42 ae ea bd 7f bc 9b 3e 9a ab 24 3e
       0.013385092 -0.11459018 0.3041725 0.16081086
0000a0 8c f2 a8 3e 5b 6a 9b be 18 e3 be 3d 6f a1 af 3e
       0.3299755 -0.3035458 0.093206584 0.34302852
0000b0 5b b9 ba 3c dc b3 13 be d5 38 3a be 42 db 65 3d
       0.022793462 -0.1442408 -0.18185742 0.056117304
0000c0 d7 a0 00 3e 1c 4d 28 be 5c 64 c8 3e 5a 02 ad be
       0.12561356 -0.16435665 0.39139068 -0.33790857
0000d0 50 92 8f 3e 00 bf de 3c 01 ab 0e bd 06 b6 09 be
       0.28041315 0.027190685 -0.03483105 -0.13448343
0000e0 7b 6e 9f bd 27 d2 9c be ef c3 03 3d 59 0c 48 3e
       -0.07784744 -0.30629084 0.03216928 0.1953596
0000f0 5d a0 99 be 0b 78 11 be 6e da 7f 3e 72 98 cb 3d
       -0.3000516 -0.14205949 0.24985668 0.09941186

mask f4 [64, 8]
000000 00 00 80 3f 00 00 00 00 00 00 00 00 00 00 00 00
       1.0 0.0 0.0 0.0
000010 00 00 00 00 00 00 00 00 00 00 00 00 00 00 00 00
       0.0 0.0 0.0 0.0
000020 00 00 80 3f 00 00 80 3f 00 00 00 00 00 00 00 00
       1.0 1.0 0.0 0.0
000030 00 00 00 00 00 00 00 00 00 00 00 00 00 00 00 00
       0.0 0.0 0.0 0.0
000040 00 00 80 3f 00 00 80 3f 00 00 80 3f 00 00 00 00
       1.0 1.0 1.0 0.0
000050 00 00 00 00 00 00 00 00 00 00 00 00 00 00 00 00
       0.0 0.0 0.0 0.0
000060 00 00 80 3f 00 00 80 3f 00 00 80 3f 00 00 80 3f
       1.0 1.0 1.0 1.0
000070 00 00 00 00 00 00 00 00 00 00 00 00 00 00 00 00
       0.0 0.0 0.0 0.0
000080 00 00 80 3f 00 00 80 3f 00 00 80 3f 00 00 80 3f
       1.0 1.0 1.0 1.0
000090 00 00 80 3f 00 00 00 00 00 00 00 00 00 00 00 00
       1.0 0.0 0.0 0.0
0000a0 00 00 80 3f 00 00 80 3f 00 00 80 3f 00 00 80 3f
       1.0 1.0 1.0 1.0
0000b0 00 00 80 3f 00 00 80 3f 00 00 00 00 00 00 00 00
       1.0 1.0 0.0 0.0
0000c0 00 00 80 3f 00 00 80 3f 00 00 80 3f 00 00 80 3f
       1.0 1.0 1.0 1.0
0000d0 00 00 80 3f 00 00 80 3f 00 00 80 3f 00 00 00 00
       1.0 1.0 1.0 0.0
0000e0 00 00 80 3f 00 00 00 00 00 00 00 00 00 00 00 00
       1.0 0.0 0.0 0.0
0000f0 00 00 00 00 00 00 00 00 00 00 00 00 00 00 00 00
       0.0 0.0 0.0 0.0
000100 00 00 80 3f 00 00 80 3f 00 00 00 00 00 00 00 00
       1.0 1.0 0.0 0.0
000110 00 00 00 00 00 00 00 00 00 00 00 00 00 00 00 00
       0.0 0.0 0.0 0.0
000120 00 00 80 3f 00 00 80 3f 00 00 80 3f 00 00 00 00
       1.0 1.0 1.0 0.0
000130 00 00 00 00 00 00 00 00 00 00 00 00 00 00 00 00
       0.0 0.0 0.0 0.0
000140 00 00 80 3f 00 00 80 3f 00 00 80 3f 00 00 80 3f
       1.0 1.0 1.0 1.0
000150 00 00 00 00 00 00 00 00 00 00 00 00 00 00 00 00
       0.0 0.0 0.0 0.0
000160 00 00 80 3f 00 00 80 3f 00 00 80 3f 00 00 80 3f
       1.0 1.0 1.0 1.0
000170 00 00 80 3f 00 00 00 00 00 00 00 00 00 00 00 00
       1.0 0.0 0.0 0.0
000180 00 00 80 3f 00 00 80 3f 00 00 80 3f 00 00 80 3f
       1.0 1.0 1.0 1.0
000190 00 00 80 3f 00 00 80 3f 00 00 00 00 00 00 00 00
       1.0 1.0 0.0 0.0
0001a0 00 00 80 3f 00 00 80 3f 00 00 80 3f 00 00 80 3f
       1.0 1.0 1.0 1.0
0001b0 00 00 80 3f 00 00 80 3f 00 00 80 3f 00 00 00 00
       1.0 1.0 1.0 0.0
0001c0 00 00 80 3f 00 00 00 00 00 00 00 00 00 00 00 00
       1.0 0.0 0.0 0.0
0001d0 00 00 00 00 00 00 00 00 00 00 00 00 00 00 00 00
       0.0 0.0 0.0 0.0
0001e0 00 00 80 3f 00 00 80 3f 00 00 00 00 00 00 00 00
       1.0 1.0 0.0 0.0
0001f0 00 00 00 00 00 00 00 00 00 00 00 00 00 00 00 00
       0.0 0.0 0.0 0.0
000200 00 00 80 3f 00 00 80 3f 00 00 80 3f 00 00 00 00
       1.0 1.0 1.0 0.0
000210 00 00 00 00 00 00 00 00 00 00 00 00 00 00 00 00
       0.0 0.0 0.0 0.0
000220 00 00 80 3f 00 00 80 3f 00 00 80 3f 00 00 80 3f
       1.0 1.0 1.0 1.0
000230 00 00 00 00 00 00 00 00 00 00 00 00 00 00 00 00
       0.0 0.0 0.0 0.0
000240 00 00 80 3f 00 00 80 3f 00 00 80 3f 00 00 80 3f
       1.0 1.0 1.0 1.0
000250 00 00 80 3f 00 00 00 00 00 00 00 00 00 00 00 00
       1.0 0.0 0.0 0.0
000260 00 00 80 3f 00 00 80 3f 00 00 80 3f 00 00 80 3f
       1.0 1.0 1.0 1.0
000270 00 00 80 3f 00 00 80 3f 00 00 00 00 00 00 00 00
       1.0 1.0 0.0 0.0
000280 00 00 80 3f 00 00 80 3f 00 00 80 3f 00 00 80 3f
       1.0 1.0 1.0 1.0
000290 00 00 80 3f 00 00 80 3f 00 00 80 3f 00 00 00 00
       1.0 1.0 1.0 0.0
0002a0 00 00 80 3f 00 00 00 00 00 00 00 00 00 00 00 00
       1.0 0.0 0.0 0.0
0002b0 00 00 00 00 00 00 00 00 00 00 00 00 00 00 00 00
       0.0 0.0 0.0 0.0
0002c0 00 00 80 3f 00 00 80 3f 00 00 00 00 00 00 00 00
       1.0 1.0 0.0 0.0
0002d0 00 00 00 00 00 00 00 00 00 00 00 00 00 00 00 00
       0.0 0.0 0.0 0.0
0002e0 00 00 80 3f 00 00 80 3f 00 00 80 3f 00 00 00 00
       1.0 1.0 1.0 0.0
0002f0 00 00 00 00 00 00 00 00 00 00 00 00 00 00 00 00
       0.0 0.0 0.0 0.0
000300 00 00 80 3f 00 00 80 3f 00 00 80 3f 00 00 80 3f
       1.0 1.0 1.0 1.0
000310 00 00 00 00 00 00 00 00 00 00 00 00 00 00 00 00
       0.0 0.0 0.0 0.0
000320 00 00 80 3f 00 00 80 3f 00 00 80 3f 00 00 80 3f
       1.0 1.0 1.0 1.0
000330 00 00 80 3f 00 00 00 00 00 00 00 00 00 00 00 00
       1.0 0.0 0.0 0.0
000340 00 00 80 3f 00 00 80 3f 00 00 80 3f 00 00 80 3f
       1.0 1.0 1.0 1.0
000350 00 00 80 3f 00 00 80 3f 00 00 00 00 00 00 00 00
       1.0 1.0 0.0 0.0
000360 00 00 80 3f 00 00 80 3f 00 00 80 3f 00 00 80 3f
       1.0 1.0 1.0 1.0
000370 00 00 80 3f 00 00 80 3f 00 00 80 3f 00 00 00 00
       1.0 1.0 1.0 0.0
000380 00 00 80 3f 00 00 00 00 00 00 00 00 00 00 00 00
       1.0 0.0 0.0 0.0
000390 00 00 00 00 00 00 00 00 00 00 00 00 00 00 00 00
       0.0 0.0 0.0 0.0
0003a0 00 00 80 3f 00 00 80 3f 00 00 00 00 00 00 00 00
       1.0 1.0 0.0 0.0
0003b0 00 00 00 00 00 00 00 00 00 00 00 00 00 00 00 00
       0.0 0.0 0.0 0.0
0003c0 00 00 80 3f 00 00 80 3f 00 00 80 3f 00 00 00 00
       1.0 1.0 1.0 0.0
0003d0 00 00 00 00 00 00 00 00 00 00 00 00 00 00 00 00
       0.0 0.0 0.0 0.0
0003e0 00 00 80 3f 00 00 80 3f 00 00 80 3f 00 00 80 3f
       1.0 1.0 1.0 1.0
0003f0 00 00 00 00 00 00 00 00 00 00 00 00 00 00 00 00
       0.0 0.0 0.0 0.0

weight f4 [64, 64]
000000 60 98 38 3d 0c 57 41 3d 94 b7 cd 3d 1e 03 d2 3d
       0.04506719 0.047202155 0.100447804 0.10254501
000010 98 06 52 bd 80 24 68 bd 20 09 11 3c 00 16 1f bd
       -0.05127582 -0.056675434 0.008852273 -0.03883934
000020 9c 65 f1 3d 90 95 06 bd 90 a7 92 bd e8 b8 91 3c
       0.117869586 -0.032857478 -0.07160866 0.017788365
000030 90 90 fa bc 98 1d c9 bd d8 0a 11 3d 24 1c 5c bd
       -0.03058651 -0.09820098 0.035410732 -0.053737774
000040 ba 63 ee bd 10 a1 55 bc e0 ad 66 3c b0 4e 07 bd
       -0.11640115 -0.013038889 0.014079541 -0.033034027
000050 7a 4e f3 3d 3e c8 b5 3d c0 e2 43 bc 5a 50 d9 3d
       0.118802026 0.08876084 -0.011955917 0.10611029
000060 a0 6c a5 3d 38 bf d5 3d 70 bd f0 3d 22 87 c2 bd
       0.08077359 0.10436863 0.11754882 -0.09498431
000070 40 f4 75 bd f8 ed 86 bc 3a dc db bd f6 48 f8 bd
       -0.060047388 -0.016470894 -0.10735364 -0.12123291
000080 aa 1c 94 bd a0 81 c1 3d 04 d5 6b bd 70 a8 97 3d
       -0.0723203 0.09448552 -0.057576194 0.07405174
000090 40 b8 6d bc ea 8f b1 3d ce 70 f0 bd c0 a7 c9 3d
       -0.014509261 0.086700276 -0.11740266 0.09846449
0000a0 f0 d2 47 bc 1a cd db 3d a9 09 09 3d f8 0f d1 bc
       -0.0121962875 0.107324794 0.03345648 -0.02552031
0000b0 f6 95 e2 bd ec 13 5c 3d 04 06 96 3d 9a d9 f8 bd
       -0.11063759 0.053729936 0.07325366 -0.12150879
0000c0 2a bd e3 3d 5f 4a 96 3d ec 8c b5 bd be f2 80 bd
       0.111200646 0.07338404 -0.08864769 -0.062962994
0000d0 70 a7 4c bd 1e ba be 3d 00 c0 68 bd 8e cd c8 3d
       -0.04996437 0.09312843 -0.05682373 0.098048314
0000e0 4f 27 f4 3d ec 2b cb 3d 98 e0 e9 bd b2 36 c8 bd
       0.1192156 0.09920487 -0.11419791 -0.09776057
0000f0 d0 19 0a bc 00 7e 65 3a c8 60 a8 bd 5a d6 ae 3b
       -0.008429006 0.0008754432 -0.082215846 0.0053356113
000100 c0 6b ff 3c a0 d1 06 3c cc f9 a5 3d 10 f4 1d bc
       0.031179309 0.008228689 0.081042856 -0.009640709
000110 b4 48 f0 3d 78 8c 94 bd 38 22 ad bc e6 eb b2 bd
       0.11732617 -0.07253355 -0.02113448 -0.087364
000120 f2 6c ab 3d cc ee cd 3d 1c f9 f9 3d e8 c9 c2 3d
       0.08370389 0.100553125 0.12205717 0.09511167
000130 00 90 fa b8 c0 a1 94 bd e0 f8 dd 3b 40 e4 92 bb
       -0.00011947751 -0.07257414 0.006774053 -0.004482776
000140 3c 6f c3 3d 58 d1 4a bd fc 64 58 3d 6e 30 9e bd
       0.09542701 -0.049516052 0.05283068 -0.07724081
000150 7c d3 ee bd 7c 15 00 bd e0 80 76 bd 48 a2 4d bd
       -0.11661431 -0.03127049 -0.0601815 -0.05020359
000160 68 4f cb 3d 60 a6 2e bd 54 5a 63 bd c8 24 1b 3d
       0.09927255 -0.042639136 -0.055506065 0.037876874
000170 94 01 45 3d 60 e0 ea 3b 28 45 b9 3d a8 df 63 bd
       0.04809721 0.007167861 0.09046394 -0.055633217
000180 f8 79 bb bd 94 9a b0 3d f0 98 5a 3d ca 8b b4 3d
       -0.09154123 0.086232334 0.05336851 0.08815725
000190 9e 70 d0 3d 8e fa f1 bd 90 30 b9 bc 30 91 d8 bc
       0.1017773 -0.11815368 -0.022606164 -0.026436418
0001a0 f8 70 63 3d 8c c0 5c 3d 20 02 33 3c 7a 8b 83 bd
       0.055527657 0.053894565 0.0109258 -0.064230874
0001b0 bc 53 e7 3d fc 18 47 3d 00 35 f4 bc be 53 90 3d
       0.11295268 0.04860781 -0.029810429 0.070472226
0001c0 d6 29 98 3d 78 0b 43 3d aa 48 84 bd 8c 93 e3 3d
       0.074298546 0.04761836 -0.06459172 0.11112127
0001d0 20 92 8d 3b 40 f9 17 bd 9a c2 8f 3d d8 ef 82 bd
       0.004320398 -0.037102938 0.07019539 -0.06393403
0001e0 32 0b d4 bd 00 ff cf 3b 4c a5 94 bd e4 aa 15 bd
       -0.10353698 0.006347537 -0.072580904 -0.036539927
0001f0 d6 21 ab 3d e4 84 11 bd b6 77 8d 3d bc bf 52 bd
       0.08356063 -0.035527125 0.06907599 -0.051452383
000200 fc c4 29 3d d6 a6 9d 3d 70 ec a5 bd 98 43 79 3d
       0.041447625 0.07697837 -0.081017375 0.060855478
000210 70 b8 ae 3c 92 94 9b 3d 40 a6 76 3b e0 14 32 3c
       0.021328181 0.07596697 0.0037635714 0.010869235
000220 a0 20 23 bd 2a 3a 90 bd 2c 7b 45 3d de 2b ea bd
       -0.039826035 -0.07042344 0.04821317 -0.11434148
000230 9c e5 57 bd 90 74 ac 3d f8 30 24 bd c2 20 8f bd
       -0.052709207 0.0842067 -0.040085763 -0.0698867
000240 b0 99 aa 3c 80 1e f9 bd 18 60 83 3c 16 19 fa 3d
       0.020825237 -0.121640205 0.016037032 0.12211816
000250 00 86 f2 3c e4 d6 5a 3d b2 c8 ec bd 44 65 41 bd
       0.029604912 0.053427592 -0.11561717 -0.047215715
000260 de 7b cf 3d 60 65 0c 3c 70 5f 24 bd b0 21 0c bc
       0.10131048 0.008569092 -0.04013008 -0.008552954
000270 b4 4c f7 3d 6e 77 c6 3d bc ce 98 3d 6a 9d 8b 3d
       0.12075177 0.09690748 0.074613065 0.06817134
000280 b0 ed c2 3d ea d0 fd bd 02 dd a5 bd e8 0d 61 bd
       0.095179915 -0.12393363 -0.080987945 -0.054944903
000290 50 a8 1c bd 40 f7 65 3b a8 d7 72 3d 7e d9 94 bd
       -0.038246453 0.003509 0.059287697 -0.07268046
0002a0 e4 4d 99 3d ee 78 86 3d fa 2f 94 3d f6 e9 e9 3d
       0.074855596 0.06566034 0.07235713 0.11421578
0002b0 74 be 68 3d c4 b7 dd 3d 60 0a 5f bd 44 28 07 3d
       0.056822255 0.10826066 -0.054453254 0.032997385
0002c0 b6 b6 cc 3d 10 db 28 3d 10 06 4b bd 24 b1 e5 3d
       0.09995787 0.04122454 -0.04956633 0.112154275
0002d0 72 01 aa 3d 3c c6 3c bd f2 02 e1 bd 1e cc ed 3d
       0.08301057 -0.04608749 -0.1098689 0.11611198
0002e0 08 61 f7 3c 70 b4 55 bd ae a3 ec bd 80 79 33 bb
       0.030197635 -0.05217403 -0.11554657 -0.0027385652
0002f0 46 a6 f0 bd c4 a3 22 3d 80 7b 7a bc ce 67 ea 3d
       -0.11750464 0.03970696 -0.015288234 0.114455804
000300 a2 4a cd 3d 3e 2d b8 3a 0e d0 45 bd c2 d9 b8 bd
       0.10024001 0.0014051569 -0.04829412 -0.09025909
000310 1c d2 55 bd 36 ec bb 3d 4c 72 73 bd de 08 14 bd
       -0.05220233 0.09175913 -0.059435174 -0.03614127
000320 a3 47 99 3d 9c dc cb bc f0 49 2f bd d8 5b d5 bc
       0.07484367 -0.024885468 -0.04279512 -0.026044771
000330 d4 92 20 3d c0 3d 44 3d d2 31 a4 3b 82 04 ed bd
       0.039202526 0.047910452 0.005010822 -0.115731254
000340 a3 e7 2a 3e ad d8 07 3e c6 c3 9f 3d 34 3d 0f bd
       0.16689925 0.13266249 0.07801013 -0.034970477
000350 ec ab 50 bd 6e e4 90 bd ff 98 a2 3d 77 5a ec bd
       -0.050945207 -0.070748195 0.07939338 -0.11540692
000360 b3 5a 16 3e c2 17 c8 bd ee 2b dd 3d 0c 95 fe 3d
       0.14683037 -0.097701564 0.107993945 0.12430772
000370 74 5c 76 bd 70 d6 5b bd 54 9c 3e 3e 95 b0 bd bd
       -0.060146764 -0.0536713 0.18614322 -0.09262196
000380 68 82 80 bc 80 d6 bc bb c0 33 58 bc 7d 63 06 3e
       -0.015687183 -0.005762875 -0.013195932 0.1312389
000390 22 6c 79 bd 9c 25 9b bd 50 39 a0 3d 30 6b 44 bd
       -0.06089414 -0.07575533 0.078234315 -0.047953784
0003a0 c8 63 e6 bc 9c 27 b0 bd d4 c1 9b 3d 1d e8 29 3e
       -0.028123751 -0.08601305 0.07605329 0.1659245
0003b0 b9 00 5a 3d d1 02 92 3c 68 0f d3 bd 00 a4 17 bc
       0.053223345 0.017823609 -0.10305673 -0.009255409
0003c0 58 a4 81 bd 7a 5b 77 be 0b f1 d3 3d 10 01 c9 3d
       -0.06330174 -0.2415599 0.1034871 0.09814656
0003d0 bb 3e 39 3e 20 d1 86 3b 20 45 26 bc 4c 7d a8 3d
       0.18090336 0.004114285 -0.010148317 0.082270235
0003e0 9f de 55 bc 30 e1 c7 3c 4a 3f 1a 3e 2a 34 61 3e
       -0.013053565 0.02439937 0.15063205 0.21992555
0003f0 10 14 d2 bd fa 97 b5 bd 80 d4 27 bd 02 e8 8c bd
       -0.10257733 -0.08866878 -0.04097414 -0.068801895

bias f4 [64]
000000 d4 3f 42 bd 8c 84 58 bd b6 9c f7 bd 9f cf 49 3c
       -0.047424152 -0.05286078 -0.12090437 0.012317567
000010 4f 2c 1c bd 6e 0d 90 bd d9 9d 10 bd d1 22 05 3e
       -0.038128193 -0.070338115 -0.035306785 0.13001563
000020 2d 5d cb 3d 8e 45 e6 3c 75 8f 06 bc a9 04 62 bd
       0.09929881 0.028109338 -0.008212914 -0.055180226
000030 2c 36 e6 bd e5 02 0f bd 0d f4 db 3d a4 e4 1d 3e
       -0.11240801 -0.03491487 0.10739908 0.1541925
000040 3b 57 26 3d cb 7c 1b 3e 3a 01 bf 3d 26 05 f6 bc
       0.040610533 0.15184323 0.09326406 -0.030031752
000050 4d 19 b6 bd c1 f5 19 3e 6a 30 a2 3d 47 f7 53 3d
       -0.088915445 0.15035154 0.079193905 0.051749494
000060 36 ab ce 3d c7 0f fb bd f6 ff 40 3d 73 22 d9 3c
       0.1009125 -0.12258869 0.047119103 0.026505684
000070 f2 22 ff 3d dc 75 12 bd c4 0d 4a bd 6a 7a fb bd
       0.12457837 -0.03575693 -0.049329534 -0.12279208
000080 44 cb ac bd ec f7 ce bc 13 13 69 3d 20 e7 b2 bb
       -0.08437207 -0.025264703 0.056902956 -0.005459681
000090 40 52 03 3d fb b8 28 3e ac 42 96 3d 73 79 51 3d
       0.03206086 0.16476814 0.073369354 0.051141214
0000a0 fb 58 f8 bd 26 a0 f8 3d d8 ab ab bc ed e8 93 3d
       -0.12126347 0.12139921 -0.020955965 0.072221614
0000b0 18 8f 45 bd 78 41 31 bd 5c eb 8f 3c ed 8d e8 3d
       -0.048232168 -0.043275326 0.017568283 0.11355195
0000c0 7e 71 a6 bd 23 db 9f 3d 6d 2f 49 bd 4b d7 5f 3d
       -0.08127116 0.07805469 -0.049117494 0.05464868
0000d0 ff fd 43 bc 8b d4 17 bd 00 75 1c 3b 3f 9b 41 bd
       -0.011962413 -0.03706793 0.0023873448 -0.047267195
0000e0 0c 7d c0 bd ee 30 d6 3d 40 43 1f 3e 41 c2 c7 bd
       -0.09398851 0.10458551 0.15552998 -0.09753848
0000f0 1d 6c 56 bd 7d 3e 9d bd f5 16 45 3d e4 fc 78 bd
       -0.0523492 -0.07677934 0.048117597 -0.06078805

mask f4 [64, 64]
000000 00 00 80 3f 00 00 00 00 00 00 00 00 00 00 00 00
       1.0 0.0 0.0 0.0
000010 00 00 00 00 00 00 00 00 00 00 00 00 00 00 80 3f
       0.0 0.0 0.0 1.0
000020 00 00 00 00 00 00 00 00 00 00 00 00 00 00 00 00
       0.0 0.0 0.0 0.0
000030 00 00 00 00 00 00 00 00 00 00 80 3f 00 00 00 00
       0.0 0.0 1.0 0.0
000040 00 00 00 00 00 00 00 00 00 00 00 00 00 00 00 00
       0.0 0.0 0.0 0.0
000050 00 00 00 00 00 00 80 3f 00 00 00 00 00 00 00 00
       0.0 1.0 0.0 0.0
000060 00 00 00 00 00 00 00 00 00 00 00 00 00 00 00 00
       0.0 0.0 0.0 0.0
000070 00 00 80 3f 00 00 00 00 00 00 00 00 00 00 00 00
       1.0 0.0 0.0 0.0
000080 00 00 00 00 00 00 00 00 00 00 00 00 00 00 80 3f
       0.0 0.0 0.0 1.0
000090 00 00 00 00 00 00 00 00 00 00 00 00 00 00 00 00
       0.0 0.0 0.0 0.0
0000a0 00 00 00 00 00 00 00 00 00 00 80 3f 00 00 00 00
       0.0 0.0 1.0 0.0
0000b0 00 00 00 00 00 00 00 00 00 00 00 00 00 00 00 00
       0.0 0.0 0.0 0.0
0000c0 00 00 00 00 00 00 80 3f 00 00 00 00 00 00 00 00
       0.0 1.0 0.0 0.0
0000d0 00 00 00 00 00 00 00 00 00 00 00 00 00 00 00 00
       0.0 0.0 0.0 0.0
0000e0 00 00 80 3f 00 00 00 00 00 00 00 00 00 00 00 00
       1.0 0.0 0.0 0.0
0000f0 00 00 00 00 00 00 00 00 00 00 00 00 00 00 80 3f
       0.0 0.0 0.0 1.0
000100 00 00 80 3f 00 00 80 3f 00 00 00 00 00 00 00 00
       1.0 1.0 0.0 0.0
000110 00 00 00 00 00 00 00 00 00 00 00 00 00 00 80 3f
       0.0 0.0 0.0 1.0
000120 00 00 80 3f 00 00 00 00 00 00 00 00 00 00 00 00
       1.0 0.0 0.0 0.0
000130 00 00 00 00 00 00 00 00 00 00 80 3f 00 00 80 3f
       0.0 0.0 1.0 1.0
000140 00 00 00 00 00 00 00 00 00 00 00 00 00 00 00 00
       0.0 0.0 0.0 0.0
000150 00 00 00 00 00 00 80 3f 00 00 80 3f 00 00 00 00
       0.0 1.0 1.0 0.0
000160 00 00 00 00 00 00 00 00 00 00 00 00 00 00 00 00
       0.0 0.0 0.0 0.0
000170 00 00 80 3f 00 00 80 3f 00 00 00 00 00 00 00 00
       1.0 1.0 0.0 0.0
000180 00 00 00 00 00 00 00 00 00 00 00 00 00 00 80 3f
       0.0 0.0 0.0 1.0
000190 00 00 80 3f 00 00 00 00 00 00 00 00 00 00 00 00
       1.0 0.0 0.0 0.0
0001a0 00 00 00 00 00 00 00 00 00 00 80 3f 00 00 80 3f
       0.0 0.0 1.0 1.0
0001b0 00 00 00 00 00 00 00 00 00 00 00 00 00 00 00 00
       0.0 0.0 0.0 0.0
0001c0 00 00 00 00 00 00 80 3f 00 00 80 3f 00 00 00 00
       0.0 1.0 1.0 0.0
0001d0 00 00 00 00 00 00 00 00 00 00 00 00 00 00 00 00
       0.0 0.0 0.0 0.0
0001e0 00 00 80 3f 00 00 80 3f 00 00 00 00 00 00 00 00
       1.0 1.0 0.0 0.0
0001f0 00 00 00 00 00 00 00 00 00 00 00 00 00 00 80 3f
       0.0 0.0 0.0 1.0
000200 00 00 80 3f 00 00 80 3f 00 00 80 3f 00 00 00 00
       1.0 1.0 1.0 0.0
000210 00 00 00 00 00 00 00 00 00 00 00 00 00 00 80 3f
       0.0 0.0 0.0 1.0
000220 00 00 80 3f 00 00 80 3f 00 00 00 00 00 00 00 00
       1.0 1.0 0.0 0.0
000230 00 00 00 00 00 00 00 00 00 00 80 3f 00 00 80 3f
       0.0 0.0 1.0 1.0
000240 00 00 80 3f 00 00 00 00 00 00 00 00 00 00 00 00
       1.0 0.0 0.0 0.0
000250 00 00 00 00 00 00 80 3f 00 00 80 3f 00 00 80 3f
       0.0 1.0 1.0 1.0
000260 00 00 00 00 00 00 00 00 00 00 00 00 00 00 00 00
       0.0 0.0 0.0 0.0
000270 00 00 80 3f 00 00 80 3f 00 00 80 3f 00 00 00 00
       1.0 1.0 1.0 0.0
000280 00 00 00 00 00 00 00 00 00 00 00 00 00 00 80 3f
       0.0 0.0 0.0 1.0
000290 00 00 80 3f 00 00 80 3f 00 00 00 00 00 00 00 00
       1.0 1.0 0.0 0.0
0002a0 00 00 00 00 00 00 00 00 00 00 80 3f 00 00 80 3f
       0.0 0.0 1.0 1.0
0002b0 00 00 80 3f 00 00 00 00 00 00 00 00 00 00 00 00
       1.0 0.0 0.0 0.0
0002c0 00 00 00 00 00 00 80 3f 00 00 80 3f 00 00 80 3f
       0.0 1.0 1.0 1.0
0002d0 00 00 00 00 00 00 00 00 00 00 00 00 00 00 00 00
       0.0 0.0 0.0 0.0
0002e0 00 00 80 3f 00 00 80 3f 00 00 80 3f 00 00 00 00
       1.0 1.0 1.0 0.0
0002f0 00 00 00 00 00 00 00 00 00 00 00 00 00 00 80 3f
       0.0 0.0 0.0 1.0
000300 00 00 80 3f 00 00 80 3f 00 00 80 3f 00 00 80 3f
       1.0 1.0 1.0 1.0
000310 00 00 00 00 00 00 00 00 00 00 00 00 00 00 80 3f
       0.0 0.0 0.0 1.0
000320 00 00 80 3f 00 00 80 3f 00 00 80 3f 00 00 00 00
       1.0 1.0 1.0 0.0
000330 00 00 00 00 00 00 00 00 00 00 80 3f 00 00 80 3f
       0.0 0.0 1.0 1.0
000340 00 00 80 3f 00 00 80 3f 00 00 00 00 00 00 00 00
       1.0 1.0 0.0 0.0
000350 00 00 00 00 00 00 80 3f 00 00 80 3f 00 00 80 3f
       0.0 1.0 1.0 1.0
000360 00 00 80 3f 00 00 00 00 00 00 00 00 00 00 00 00
       1.0 0.0 0.0 0.0
000370 00 00 80 3f 00 00 80 3f 00 00 80 3f 00 00 80 3f
       1.0 1.0 1.0 1.0
000380 00 00 00 00 00 00 00 00 00 00 00 00 00 00 80 3f
       0.0 0.0 0.0 1.0
000390 00 00 80 3f 00 00 80 3f 00 00 80 3f 00 00 00 00
       1.0 1.0 1.0 0.0
0003a0 00 00 00 00 00 00 00 00 00 00 80 3f 00 00 80 3f
       0.0 0.0 1.0 1.0
0003b0 00 00 80 3f 00 00 80 3f 00 00 00 00 00 00 00 00
       1.0 1.0 0.0 0.0
0003c0 00 00 00 00 00 00 80 3f 00 00 80 3f 00 00 80 3f
       0.0 1.0 1.0 1.0
0003d0 00 00 80 3f 00 00 00 00 00 00 00 00 00 00 00 00
       1.0 0.0 0.0 0.0
0003e0 00 00 80 3f 00 00 80 3f 00 00 80 3f 00 00 80 3f
       1.0 1.0 1.0 1.0
0003f0 00 00 00 00 00 00 00 00 00 00 00 00 00 00 80 3f
       0.0 0.0 0.0 1.0

weight f4 [64, 64]
000000 c2 9a 18 ba 5d 47 52 3a ec d8 5c 3a d2 55 79 3a
       -0.00058214006 0.0008021498 0.0008424658 0.00095113844
000010 28 a6 52 3a 84 d8 2b 3a f0 d7 dc b9 97 e3 18 bd
       0.00080356235 0.00065553957 -0.00042122556 -0.03732642
000020 c3 ff 5d 3a 11 bd 18 ba f6 8e be 39 d2 74 d2 b9
       0.00084685924 -0.0005826513 0.00036346138 -0.0004014136
000030 c5 f4 a5 39 0f fd 86 39 bf 6a 15 bd c1 ce 6e b9
       0.0003165362 0.00025747015 -0.036478754 -0.0002277447
000040 fa aa 08 39 d6 74 2b 3a ab 2d 4a b9 c9 5a 47 ba
       0.00013033664 0.0006540542 -0.00019281234 -0.00076047756
000050 30 bb 5e 3a 3a 20 06 bd ee 20 07 b9 8e 9e 63 ba
       0.0008496521 -0.032745577 -0.0001288687 -0.0008682989
000060 c1 eb 5b 3a b9 e2 b8 b9 ae 17 83 38 cf 97 44 ba
       0.0008389317 -0.00035264136 6.2509775e-05 -0.0007499428
000070 9d e6 c4 bc a6 c1 b1 39 d6 80 f3 b8 09 68 aa 39
       -0.024035746 0.0003390435 -0.000116111405 0.0003250244
000080 f4 bb 93 b9 cd ea b4 39 bb f5 f6 39 bd 7c 73 39
       -0.0002817806 0.00034507216 0.0004710386 0.00023220755
000090 3e 3a 75 38 0b c9 15 3a 67 fa b4 b9 bb d7 31 3a
       5.8466794e-05 0.00057138567 -0.0003451884 0.00067841605
0000a0 30 a9 32 3a ee cf 50 3a 90 da c4 b8 ed 56 80 ba
       0.0006815372 0.0007965554 -9.386719e-05 -0.0009791531
0000b0 25 8a cb 39 0f f7 fc b9 cd 82 56 ba bd 8a 70 ba
       0.00038822103 -0.00048249259 -0.0008182943 -0.0009175947
0000c0 5f 30 43 3a 3d 17 2b bd 80 e7 29 3a 6d 1f aa 38
       0.00074458675 -0.04177021 0.00064813346 8.112085e-05
0000d0 34 2f cb b9 ec 3d 09 ba de 1e 9c 39 40 a5 e5 39
       -0.00038754346 -0.00052353623 0.00029777637 0.00043801405
0000e0 e2 6f 37 3a 44 ad 99 b9 c3 eb cd b9 71 b1 d2 39
       0.0006997568 -0.00029311527 -0.00039276303 0.00040186525
0000f0 56 30 1b 3a 2e b2 71 b8 7b d1 1a 3a 80 f4 79 ba
       0.00059199834 -5.762482e-05 0.0005905849 -0.00095350295
000100 d6 a6 82 3d 71 11 17 b9 24 13 e2 39 3e bf 43 3a
       0.06379478 -0.0001440698 0.0004312034 0.0007467157
000110 2a ee d9 39 cb 37 85 b9 2a a0 34 b9 05 1d 6a bd
       0.0004156691 -0.00025409306 -0.00017225803 -0.05715658
000120 f6 61 81 bd b7 51 81 b9 b7 1f b5 39 29 bc 06 3a
       -0.06317513 -0.0002466568 0.0003454664 0.00051397324
000130 b7 bb ba 38 44 7b 9c b8 51 19 9f bd 3d a9 6b bd
       8.904136e-05 -7.46162e-05 -0.077685006 -0.057534445
000140 1b 66 39 3a 42 25 20 3a 81 69 11 3a 96 6f 68 3a
       0.0007072405 0.00061090675 0.00055470323 0.0008866725
000150 da 7b 69 3a a5 16 b3 bd d7 4b 35 bd a2 39 b6 39
       0.00089067 -0.087445535 -0.04426178 0.00034756685
000160 d0 07 ed b8 11 c0 46 39 d4 61 80 3a 3a b2 ba 39
       -0.00011302496 0.00018954302 0.000979478 0.00035609474
000170 dc 91 eb bd dc 21 1c 39 ec d2 16 ba 15 26 24 3a
       -0.1150243 0.00014889933 -0.00057534757 0.0006261778
000180 3a 9c c8 39 a6 e7 b6 b9 09 f4 10 3a d4 81 dd b9
       0.0003826337 -0.00034886337 0.0005529528 -0.00042249134
000190 25 4c 48 bc ee b1 4f 3a 36 f2 b3 b9 8a 16 0e ba
       -0.0122251855 0.0007922937 -0.00034322002 -0.00054202287
0001a0 01 64 25 3a 3e 4f 0d 3a 34 6f 43 3a b3 60 4c bd
       0.0006309152 0.0005390531 0.000745523 -0.049896907
0001b0 b9 40 7e ba 38 a3 2e ba 90 aa 37 3a d0 41 dd b9
       -0.00096989755 -0.0006661895 0.0007006312 -0.0004220144
0001c0 23 fb d7 b8 0a 8c 45 bd 02 7e 30 3b 71 63 a9 39
       -0.00010298777 -0.048229255 0.0026930575 0.00032308282
0001d0 88 70 45 3a fa 36 86 39 3a 50 31 ba 8e 70 4d 3a
       0.0007531722 0.00025599432 -0.0006763969 0.00078369013
0001e0 f0 39 2b ba 72 55 59 bd 0f 8d b4 b7 11 9b 65 ba
       -0.00065317657 -0.053060003 -2.1523358e-05 -0.00087587634
0001f0 b5 80 f0 38 89 76 81 ba dc 71 1a 3a 8c 18 6e 3a
       0.00011468065 -0.0009877245 0.00058916 0.0009082637
000200 5f 36 7f bd 96 ed a4 b9 fc a9 86 39 21 2d 04 ba
       -0.06230771 -0.00031457533 0.0002568512 -0.0005042125
000210 69 9a 75 3a 63 f4 13 39 7d bf 8e 36 8d cb 36 3d
       0.0009369017 0.00014110054 4.254222e-06 0.044627715
000220 77 a4 40 3d a8 e6 ed 3c d0 42 6e ba a7 64 73 ba
       0.047031846 0.02904065 -0.00090889353 -0.0009284713
000230 4a b4 45 b9 cb 84 20 ba 72 61 75 3d 15 4b 33 3d
       -0.00018854547 -0.00061233033 0.059907384 0.043772776
000240 dd 22 5f 3d 0f c1 0d ba f0 0f ff 38 c3 dd e6 b8
       0.054476608 -0.0005407491 0.00012162316 -0.00011008561
000250 13 25 a5 b9 12 a0 85 3d 6c fd 0d 3d 1e d2 0b 3d
       -0.00031498875 0.065246716 0.03466551 0.03413593
000260 11 33 19 3a 61 11 6a b9 ab 41 38 ba f2 06 7f ba
       0.00058440963 -0.00022322453 -0.0007028828 -0.0009728513
000270 21 95 b2 3d bf 47 36 b9 65 7b aa b7 86 e3 e4 38
       0.0871985 -0.000173836 -2.032304e-05 0.00010914267
000280 3a 6c 2d 3a 38 79 39 3a 82 d2 30 3a c3 79 65 b9
       0.0006615553 0.0007075253 0.00067452353 -0.00021884502
000290 68 a1 56 3c 8f 2b 4d 3d 8e b7 94 39 96 ff 81 39
       0.013100006 0.05009037 0.0002836552 0.00024795224
0002a0 21 06 c6 b9 73 d8 d5 b9 69 db 99 b9 ad 26 20 3d
       -0.0003777007 -0.00040787793 -0.00029345907 0.039099384
0002b0 cd 59 03 ba 8c 3e b1 39 98 0a 47 3a 8a d1 4f b9
       -0.0005010635 0.00033806672 0.0007592826 -0.00019819118
0002c0 b7 9b a8 b9 70 2d 1d 3d a5 5d 70 bb 15 d8 4a 3d
       -0.00032159474 0.03837341 -0.003667691 0.049522478
0002d0 11 1d 10 3a 5d 18 6e ba ea b8 08 3a 03 d9 77 3a
       0.00054974953 -0.000908261 0.00052155426 0.00094546395
0002e0 e8 fd d1 39 9a 4e 1c 3d b2 eb 86 3d c3 a5 0c 39
       0.0004005276 0.038160898 0.06587924 0.00013413191
0002f0 b9 28 05 3a 73 da 03 ba 24 2c 79 3a e6 2a 32 3a
       0.00050796155 -0.0005029805 0.00095051737 0.00067965535
000300 f1 fe d4 3c 4a 94 e8 b8 13 b9 e6 b9 6e 45 23 bd
       0.026000472 -0.00011090243 -0.0004400691 -0.039861135
000310 c1 64 fd b9 f0 cf 59 3a 30 95 8a 39 74 81 4d bd
       -0.00048330988 0.0008308878 0.00026432564 -0.050172284
000320 e9 ee 44 bd c7 87 2e bd dc cc eb bc 6d 9c 1d ba
       -0.048079405 -0.042609956 -0.028784208 -0.0006012384
000330 ee 1b 3a ba 4f a2 dc 38 ed 9b 4f bd 23 fc 44 bd
       -0.0007099499 0.0001052065 -0.05068581 -0.04809202
000340 86 31 42 bd 3a b1 3b bd 36 d8 0a ba e0 ff 17 3a
       -0.04741051 -0.045823313 -0.00052965 0.0005798321
000350 36 ce 79 b9 cb 52 52 bd 50 64 4a bd c4 4c 42 bd
       -0.0002382331 -0.05134849 -0.04941207 -0.04743649
000360 37 61 0f bd 9a 4a 5d ba bf 91 44 ba 09 de 7c ba
       -0.03500482 -0.00084415975 -0.00074985245 -0.0009646123
000370 2d 66 41 bd 57 e5 29 ba 42 b0 fc 38 38 51 ef 38
       -0.047216583 -0.00064810127 0.00012049127 0.00011411536
000380 a6 f4 28 ba 8a dd 79 b9 bf e3 9e 39 57 5d 49 3a
       -0.0006445147 -0.0002382902 0.00030305792 0.000768145
000390 ae 4e 23 bd 9e 9d 49 bd 00 8d 35 bd 46 16 41 39
       -0.039869957 -0.04922258 -0.04432392 0.00018414212
0003a0 f8 e0 4c ba 67 65 2b ba 21 ea 60 3a 3a 20 4c bd
       -0.00078155054 -0.00065382425 0.000857981 -0.04983542
0003b0 2b b7 10 b8 38 93 14 3a 61 4f 81 39 7a 4f 5c ba
       -3.4502864e-05 0.0005667689 0.0002466394 -0.0008404177
0003c0 42 19 7a ba c6 76 4f bd 26 b2 21 3b e9 4a 14 bd
       -0.0009540507 -0.05065038 0.0024672835 -0.036204252
0003d0 b1 68 50 3d 1f 76 67 ba 94 b0 82 b8 01 16 56 ba
       0.05088109 -0.0008829552 -6.231773e-05 -0.0008166731
0003e0 3a d5 29 3a 08 f6 44 bd 43 ad 0b bd dc 98 fe 3b
       0.00064786116 -0.048086196 -0.034100782 0.007769687
0003f0 b5 12 cc 39 2d f4 0c ba 80 46 6b ba ee 96 71 3a
       0.0003892385 -0.0005376961 -0.0008975044 0.00092159107

bias f4 [64]
000000 15 9c 10 bd 72 26 94 bd 03 90 61 3d ea 1b 46 bd
       -0.0353051 -0.07233895 0.05506898 -0.048366465
000010 ff 27 53 3d 11 f6 24 bd c8 fa 14 3d 79 60 28 bd
       0.051551815 -0.04027373 0.036371976 -0.04110763
000020 78 1b dc 3b 99 a8 4c 3d f7 57 d4 bc 07 d4 5a bd
       0.0067171417 0.049965475 -0.025920851 -0.05342486
000030 7f 6f e2 3c a6 0c 17 3c 25 05 a4 bc f2 43 4e bd
       0.027641056 0.009219324 -0.020021984 -0.050357766
000040 6c 30 03 bc da b6 21 bd 92 03 59 3d 1c 76 6f 3d
       -0.00800715 -0.03948102 0.05298192 0.058462247
000050 b2 fe 41 bd 7d 69 4a bd e8 68 7a 3d 9c 1c 21 3d
       -0.047362037 -0.049417008 0.061135203 0.039333925
000060 ee ba 5a 3d 15 59 26 3d b3 b6 82 bd 5c a7 4a 3d
       0.053400926 0.0406123 -0.06382503 0.049476013
000070 e4 9c c6 3c c7 a7 80 bc c4 10 17 3d 22 72 b3 bc
       0.024244733 -0.015705002 0.036881223 -0.021905009
000080 48 21 2a 3d a8 78 11 bd ad a7 2f bd b9 30 5c 3d
       0.041535646 -0.035515457 -0.042884517 0.053757403
000090 79 d2 9a 3d 1e e6 a9 bc 5c c8 e4 bc b7 73 35 bc
       0.07559676 -0.020739611 -0.02792757 -0.011074952
0000a0 4d 55 ca 3c c0 52 18 bd 1d e0 56 3d 75 b9 2f 3d
       0.024698878 -0.03718829 0.052459825 0.042901475
0000b0 7a d2 91 bb 48 76 25 3b cd 03 5d bd 56 dc 35 bd
       -0.0044501396 0.0025247503 -0.053958703 -0.04439958
0000c0 02 3f 86 bc b1 70 36 3d af 65 43 3d f8 a9 91 3a
       -0.016387466 0.044541065 0.047704395 0.0011113277
0000d0 b8 61 be 3c 98 ef 67 3d 64 fb 1e 3d ac 96 46 3d
       0.023239955 0.05662498 0.038813964 0.048483536
0000e0 6c ee 6d 3d 90 15 2d bd 3d 46 a7 bc f1 bf 22 bd
       0.058088705 -0.04225689 -0.020419234 -0.03973383
0000f0 28 19 23 3d 04 93 ac 3c cf d5 35 3d fe 0e 40 3d
       0.039818913 0.021066196 0.044393357 0.046889298

mask f4 [64, 64]
000000 00 00 80 3f 00 00 00 00 00 00 00 00 00 00 00 00
       1.0 0.0 0.0 0.0
000010 00 00 00 00 00 00 00 00 00 00 00 00 00 00 80 3f
       0.0 0.0 0.0 1.0
000020 00 00 00 00 00 00 00 00 00 00 00 00 00 00 00 00
       0.0 0.0 0.0 0.0
000030 00 00 00 00 00 00 00 00 00 00 80 3f 00 00 00 00
       0.0 0.0 1.0 0.0
000040 00 00 00 00 00 00 00 00 00 00 00 00 00 00 00 00
       0.0 0.0 0.0 0.0
000050 00 00 00 00 00 00 80 3f 00 00 00 00 00 00 00 00
       0.0 1.0 0.0 0.0
000060 00 00 00 00 00 00 00 00 00 00 00 00 00 00 00 00
       0.0 0.0 0.0 0.0
000070 00 00 80 3f 00 00 00 00 00 00 00 00 00 00 00 00
       1.0 0.0 0.0 0.0
000080 00 00 00 00 00 00 00 00 00 00 00 00 00 00 80 3f
       0.0 0.0 0.0 1.0
000090 00 00 00 00 00 00 00 00 00 00 00 00 00 00 00 00
       0.0 0.0 0.0 0.0
0000a0 00 00 00 00 00 00 00 00 00 00 80 3f 00 00 00 00
       0.0 0.0 1.0 0.0
0000b0 00 00 00 00 00 00 00 00 00 00 00 00 00 00 00 00
       0.0 0.0 0.0 0.0
0000c0 00 00 00 00 00 00 80 3f 00 00 00 00 00 00 00 00
       0.0 1.0 0.0 0.0
0000d0 00 00 00 00 00 00 00 00 00 00 00 00 00 00 00 00
       0.0 0.0 0.0 0.0
0000e0 00 00 80 3f 00 00 00 00 00 00 00 00 00 00 00 00
       1.0 0.0 0.0 0.0
0000f0 00 00 00 00 00 00 00 00 00 00 00 00 00 00 80 3f
       0.0 0.0 0.0 1.0
000100 00 00 80 3f 00 00 80 3f 00 00 00 00 00 00 00 00
       1.0 1.0 0.0 0.0
000110 00 00 00 00 00 00 00 00 00 00 00 00 00 00 80 3f
       0.0 0.0 0.0 1.0
000120 00 00 80 3f 00 00 00 00 00 00 00 00 00 00 00 00
       1.0 0.0 0.0 0.0
000130 00 00 00 00 00 00 00 00 00 00 80 3f 00 00 80 3f
       0.0 0.0 1.0 1.0
000140 00 00 00 00 00 00 00 00 00 00 00 00 00 00 00 00
       0.0 0.0 0.0 0.0
000150 00 00 00 00 00 00 80 3f 00 00 80 3f 00 00 00 00
       0.0 1.0 1.0 0.0
000160 00 00 00 00 00 00 00 00 00 00 00 00 00 00 00 00
       0.0 0.0 0.0 0.0
000170 00 00 80 3f 00 00 80 3f 00 00 00 00 00 00 00 00
       1.0 1.0 0.0 0.0
000180 00 00 00 00 00 00 00 00 00 00 00 00 00 00 80 3f
       0.0 0.0 0.0 1.0
000190 00 00 80 3f 00 00 00 00 00 00 00 00 00 00 00 00
       1.0 0.0 0.0 0.0
0001a0 00 00 00 00 00 00 00 00 00 00 80 3f 00 00 80 3f
       0.0 0.0 1.0 1.0
0001b0 00 00 00 00 00 00 00 00 00 00 00 00 00 00 00 00
       0.0 0.0 0.0 0.0
0001c0 00 00 00 00 00 00 80 3f 00 00 80 3f 00 00 00 00
       0.0 1.0 1.0 0.0
0001d0 00 00 00 00 00 00 00 00 00 00 00 00 00 00 00 00
       0.0 0.0 0.0 0.0
0001e0 00 00 80 3f 00 00 80 3f 00 00 00 00 00 00 00 00
       1.0 1.0 0.0 0.0
0001f0 00 00 00 00 00 00 00 00 00 00 00 00 00 00 80 3f
       0.0 0.0 0.0 1.0
000200 00 00 80 3f 00 00 80 3f 00 00 80 3f 00 00 00 00
       1.0 1.0 1.0 0.0
000210 00 00 00 00 00 00 00 00 00 00 00 00 00 00 80 3f
       0.0 0.0 0.0 1.0
000220 00 00 80 3f 00 00 80 3f 00 00 00 00 00 00 00 00
       1.0 1.0 0.0 0.0
000230 00 00 00 00 00 00 00 00 00 00 80 3f 00 00 80 3f
       0.0 0.0 1.0 1.0
000240 00 00 80 3f 00 00 00 00 00 00 00 00 00 00 00 00
       1.0 0.0 0.0 0.0
000250 00 00 00 00 00 00 80 3f 00 00 80 3f 00 00 80 3f
       0.0 1.0 1.0 1.0
000260 00 00 00 00 00 00 00 00 00 00 00 00 00 00 00 00
       0.0 0.0 0.0 0.0
000270 00 00 80 3f 00 00 80 3f 00 00 80 3f 00 00 00 00
       1.0 1.0 1.0 0.0
000280 00 00 00 00 00 00 00 00 00 00 00 00 00 00 80 3f
       0.0 0.0 0.0 1.0
000290 00 00 80 3f 00 00 80 3f 00 00 00 00 00 00 00 00
       1.0 1.0 0.0 0.0
0002a0 00 00 00 00 00 00 00 00 00 00 80 3f 00 00 80 3f
       0.0 0.0 1.0 1.0
0002b0 00 00 80 3f 00 00 00 00 00 00 00 00 00 00 00 00
       1.0 0.0 0.0 0.0
0002c0 00 00 00 00 00 00 80 3f 00 00 80 3f 00 00 80 3f
       0.0 1.0 1.0 1.0
0002d0 00 00 00 00 00 00 00 00 00 00 00 00 00 00 00 00
       0.0 0.0 0.0 0.0
0002e0 00 00 80 3f 00 00 80 3f 00 00 80 3f 00 00 00 00
       1.0 1.0 1.0 0.0
0002f0 00 00 00 00 00 00 00 00 00 00 00 00 00 00 80 3f
       0.0 0.0 0.0 1.0
000300 00 00 80 3f 00 00 80 3f 00 00 80 3f 00 00 80 3f
       1.0 1.0 1.0 1.0
000310 00 00 00 00 00 00 00 00 00 00 00 00 00 00 80 3f
       0.0 0.0 0.0 1.0
000320 00 00 80 3f 00 00 80 3f 00 00 80 3f 00 00 00 00
       1.0 1.0 1.0 0.0
000330 00 00 00 00 00 00 00 00 00 00 80 3f 00 00 80 3f
       0.0 0.0 1.0 1.0
000340 00 00 80 3f 00 00 80 3f 00 00 00 00 00 00 00 00
       1.0 1.0 0.0 0.0
000350 00 00 00 00 00 00 80 3f 00 00 80 3f 00 00 80 3f
       0.0 1.0 1.0 1.0
000360 00 00 80 3f 00 00 00 00 00 00 00 00 00 00 00 00
       1.0 0.0 0.0 0.0
000370 00 00 80 3f 00 00 80 3f 00 00 80 3f 00 00 80 3f
       1.0 1.0 1.0 1.0
000380 00 00 00 00 00 00 00 00 00 00 00 00 00 00 80 3f
       0.0 0.0 0.0 1.0
000390 00 00 80 3f 00 00 80 3f 00 00 80 3f 00 00 00 00
       1.0 1.0 1.0 0.0
0003a0 00 00 00 00 00 00 00 00 00 00 80 3f 00 00 80 3f
       0.0 0.0 1.0 1.0
0003b0 00 00 80 3f 00 00 80 3f 00 00 00 00 00 00 00 00
       1.0 1.0 0.0 0.0
0003c0 00 00 00 00 00 00 80 3f 00 00 80 3f 00 00 80 3f
       0.0 1.0 1.0 1.0
0003d0 00 00 80 3f 00 00 00 00 00 00 00 00 00 00 00 00
       1.0 0.0 0.0 0.0
0003e0 00 00 80 3f 00 00 80 3f 00 00 80 3f 00 00 80 3f
       1.0 1.0 1.0 1.0
0003f0 00 00 00 00 00 00 00 00 00 00 00 00 00 00 80 3f
       0.0 0.0 0.0 1.0

weight f4 [64, 64]
000000 00 67 e2 3b cc d4 08 3d 40 14 b3 bb 04 8a b4 3d
       0.006909251 0.033406064 -0.0054650605 0.08815387
000010 1c 2e 2c 3d 08 49 a7 bc ca 68 ae 3d a2 20 e2 bd
       0.04203616 -0.020420566 0.08516081 -0.110413805
000020 f0 9b 58 bd b6 43 ff bd f2 1c dc bd 1c 6d 0b bd
       -0.05288309 -0.12464087 -0.107477084 -0.0340396
000030 48 8e eb bc 22 12 ac 3d 74 eb be 3d 98 09 b4 3c
       -0.028754368 0.08401896 0.09322253 0.02197723
000040 34 79 bc 3d 18 0e f9 bd 68 ba a3 3d c0 dd 9a bc
       0.09202805 -0.12160891 0.079945385 -0.018904567
000050 e0 59 4c 3d 36 3d 93 bd a4 a7 00 3d 00 8f 59 bd
       0.0498904 -0.071894094 0.031409875 -0.05311489
000060 28 87 a3 3c 44 4a 98 3d 00 01 97 bd 00 d9 5a 3a
       0.019961908 0.0743604 -0.073732376 0.00083483756
000070 ac 3c 5b 3d 38 0a 8f 3c 00 3c fc bb 94 4b 6f bd
       0.053524658 0.017460927 -0.0076975822 -0.058421686
000080 b8 9d 04 bd 6a d7 ee 3d b8 2a 8e 3d 60 03 77 bd
       -0.032376975 0.11662181 0.06941742 -0.060305953
000090 38 7d e6 3d 68 84 23 bd f4 49 7e bd 48 3b 7a bd
       0.11254352 -0.039921194 -0.062082246 -0.06109169
0000a0 00 42 0d 3a 3e c0 cc 3d 51 ac b0 3d ec bd 09 bd
       0.0005388558 0.09997605 0.08626617 -0.03362839
0000b0 18 f2 fb bd 70 0f cd 3d b8 92 b9 3c f8 28 f2 3c
       -0.12302035 0.1001271 0.022652969 0.029560551
0000c0 24 5f c1 3d c8 48 ed 3d 4e bf d3 bd 00 76 b4 bc
       0.09441975 0.115861475 -0.10339223 -0.022028923
0000d0 e0 14 d1 3d 88 fc 98 3c bc 5f bc 3d dc 64 57 bd
       0.1020906 0.018675104 0.091979474 -0.05258642
0000e0 fc 04 58 3c fe 31 8a bd 06 83 8b bd 28 af 8f bd
       0.013184782 -0.067478165 -0.068121 -0.0701583
0000f0 cc e2 76 bd 9a e8 f2 bd f4 9a d1 3d 70 9f 2e 3e
       -0.060274884 -0.118607715 0.10234633 0.17053008
000100 54 74 30 bd 1a 49 49 bc 74 a8 d1 3d c0 5c 52 bd
       -0.04307969 -0.012285495 0.10237208 -0.051357985
000110 e4 48 ac bd a4 ef a4 bd c8 95 1a bd ff b4 89 3d
       -0.0841234 -0.0805352 -0.0377405 0.067239754
000120 e8 c7 0f 3d 00 c4 fa 39 08 ba 15 bd a0 85 8d 3d
       0.035102755 0.00047829747 -0.036554366 0.069102526
000130 80 1e 23 3d 2c a3 ee 3d ec 51 a1 3d d3 d8 94 bd
       0.03982401 0.11652216 0.078769535 -0.072679184
000140 a4 aa 43 bd f0 c2 f2 bd 70 da 60 3d 06 f8 cc 3d
       -0.047770157 -0.118535876 0.05489582 0.10008244
000150 e4 f1 4f 3d d4 5b 0f 3d 1e 62 99 3d fc 2d 73 3d
       0.050767794 0.034999683 0.074894175 0.059370026
000160 52 05 d3 3d d6 3d c0 bd 9c 5c 01 bd 80 45 bc 3a
       0.10303749 -0.09386794 -0.03158246 0.0014363974
000170 4c 25 44 bd b1 07 32 bd de b4 e6 bd 98 3a e3 3c
       -0.04788713 -0.043464366 -0.112649664 0.0277379
000180 d0 23 41 bc 30 51 8e 3d 00 cf 4f ba 66 56 ee 3d
       -0.0117883235 0.06949079 -0.0007927269 0.11637573
000190 a0 7f 4a bd 7a bc b3 bd 70 94 37 bc b2 dd d6 3d
       -0.04943812 -0.087761834 -0.011204824 0.10491504
0001a0 de fb cd bd 98 b3 bc 3d 01 55 9f 3d 0e 30 e1 3d
       -0.100578055 0.09213942 0.07779885 0.10995494
0001b0 08 fe 4f bd 40 c4 86 3d a0 28 1f 3d e0 bf e2 3b
       -0.050779372 0.065804005 0.038857102 0.006919846
0001c0 c0 93 e0 bd 6e c9 b6 bd bd 3b d8 3d 54 17 a2 bd
       -0.10965681 -0.089251384 0.10558269 -0.07914606
0001d0 12 83 bb 3d c4 07 2a 3d 0a 1d 84 3d 28 8a 57 bd
       0.09155859 0.041511312 0.06450851 -0.05262199
0001e0 26 8a 8d bd 92 47 cb bd f8 c9 db bc a8 22 29 bd
       -0.06911115 -0.0992576 -0.026829705 -0.041292816
0001f0 74 e4 09 bd d4 49 1c 3d a4 1f 7d bd bd c5 10 bd
       -0.033665136 0.038156345 -0.061797753 -0.035344828
000200 78 95 8e bd c4 77 82 bd 00 63 5f 3b 56 f4 f0 bd
       -0.06962103 -0.063705 0.0034086108 -0.117653534
000210 ca 24 f1 3d 88 f9 97 bd 58 68 d6 3d ce 9f e6 3d
       0.11774595 -0.07420641 0.10469121 0.11260949
000220 8a c1 9e 3d a0 09 39 3d be cc ff bd 68 c5 88 3d
       0.077517584 0.045175195 -0.12490223 0.06678277
000230 ca aa 89 3d 38 cb 54 bd 0a 7e d3 bd 8a 48 d1 bd
       0.067220286 -0.051951617 -0.103267744 -0.10218914
000240 48 f2 a8 bc c6 01 b8 3d 60 f2 95 3c f4 99 6a 3d
       -0.020623341 0.08984713 0.01830405 0.057275727
000250 98 2e bb 3d 4c a9 83 bd 18 41 9a bc b8 db 00 3d
       0.091397464 -0.06428775 -0.018829867 0.03145954
000260 82 dd 80 3d c8 48 9a 3d ca 8f e9 bd d4 93 3e 3d
       0.06292249 0.07533413 -0.11404379 0.0465277
000270 80 0e 7f 3b fc b3 12 bd 06 b4 a3 bd e0 b2 d1 3b
       0.0038918555 -0.035816178 -0.07993321 0.0063994974
000280 e8 13 85 3d 00 00 be b6 d0 6e b4 bd 98 91 31 3d
       0.064979374 -5.6624413e-06 -0.08810198 0.04335174
000290 5a 95 ef bd a0 3e 0b 3c f0 d6 12 3c 7c 85 97 3d
       -0.116984084 0.008498818 0.008962378 0.07398507
0002a0 02 f6 b2 3d 80 6e f9 3d 7a cc c3 bd 94 a3 3f bd
       0.087383285 0.12179279 -0.09560485 -0.04678686
0002b0 2c 6f 5f 3d a8 a2 46 bd ec 6a b4 bd 64 4e d5 bd
       0.05454938 -0.048494965 -0.08809456 -0.104153425
0002c0 74 18 1b 3d 5c 19 51 bd 62 ed b0 bd 6c c7 1b 3d
       0.037865117 -0.051049575 -0.08639027 0.03803198
0002d0 48 54 c0 bd fa c1 86 3d 9a 25 a0 bd 40 2b 2d 3d
       -0.093910754 0.06579967 -0.07819672 0.042277575
0002e0 a8 03 b8 bc 2a 72 fb 3d 58 ef 8a 3c 50 d5 8e bd
       -0.022462681 0.122776344 0.016959831 -0.0697428
0002f0 94 09 a0 bd 9c 21 0f bd 00 23 47 3a 0c c3 63 bd
       -0.07814327 -0.03494416 0.0007596463 -0.055605933
000300 8a f9 fc 3d b0 36 52 bd f3 46 89 bc 8f e4 f8 3d
       0.12352283 -0.051321685 -0.016757464 0.12152969
000310 20 8b a7 bd fc 04 95 bd c8 74 ad bc 40 fb 93 bc
       -0.08180833 -0.07276341 -0.02117385 -0.018064141
000320 8a 44 0d 3e 73 2c af 3d 19 7e 39 bd 50 c6 2a 3c
       0.13795677 0.085534 -0.04528627 0.010423258
000330 6a d5 8c bd dc a4 b9 bd 59 21 de 3d 65 96 25 bd
       -0.06876643 -0.090646476 0.10846204 -0.04042663
000340 ed 46 b9 3d 4f 07 60 bd c0 57 8c 3b 54 82 95 bd
       0.09046731 -0.05469447 0.0042829216 -0.07300249
000350 68 ca 83 bc cc cf 5e 3d 90 a0 27 3e cd 66 78 3b
       -0.016087726 0.05439739 0.16369843 0.003790307
000360 06 92 35 3e de 7c d1 3d 4c 9d 28 bd ee e8 f6 3d
       0.17731485 0.10228895 -0.041165635 0.120561466
000370 80 86 96 bd 94 0c 0f be de 27 0e bd 00 d4 41 3b
       -0.073498726 -0.13969642 -0.03470599 0.0029575825
000380 50 22 0c bc dc 17 a1 3d ce c0 bc bd 60 3b 8c bb
       -0.008553103 0.07865879 -0.09216462 -0.004279539
000390 ac d5 74 3d eb 66 d4 3c 36 49 7d 3d e2 f4 8d 3d
       0.059774086 0.025927981 0.061837398 0.06931473
0003a0 b2 d7 97 3d c0 14 3c bb cc ae a4 3c ff d0 c5 bc
       0.074141875 -0.0028698891 0.02010288 -0.024147509
0003b0 f4 ae 8d bd c0 f4 42 3e 08 cb 99 bc e0 a2 67 bd
       -0.06918135 0.19038677 -0.01877357 -0.056551814
0003c0 92 09 93 bd 86 e1 94 bd e2 39 9f 3d c0 cf 04 3d
       -0.0717956 -0.07269578 0.07774712 0.03242469
0003d0 de 4c ba 3c f4 ac 33 3d 88 80 11 bd 50 3a ea 3c
       0.022741731 0.043866113 -0.035522968 0.028592259
0003e0 f4 bb 44 3d e4 3d 1a bd bf 34 18 3e 36 50 cf bd
       0.04803081 -0.03765668 0.14863871 -0.10122721
0003f0 c0 5c 4c 3d b8 87 eb 3d 70 63 4f 3d 7e ed 03 3e
       0.04989314 0.11500496 0.05063194 0.12883565
