gwak/output/S4_SimCLR_multiSignalAndBkg_NF_onlyBkg_HV/model_JIT.pt (torch, 716311 bytes, 73 tensors)

weight f4 [64, 4]
00000000: 712a f03b 5e54 893e 16b3 d2be 8066 bcbe
00000010: 1c6f 61be ce7f 0b3e 404f 22bc cefa ca3e
00000020: ab14 77bc 4063 1a3e b980 32be 7048 c9bd
00000030: a7be 01bf 528b a9be e80e 53be 00bb 973c
00000040: bcb3 343e 9f42 8f3e 8c8d adbe fcf4 5ebe
00000050: 40e9 653e aa8b e43e e140 24be 5c91 bf3e
00000060: 39d5 6bbd 10b5 583d 4acd e73e ce7b edbe
00000070: 0b43 93be efc8 05be dc93 47be 282f dd3e
00000080: dab3 b7be 26cd 82be dd59 a2be 76c2 efbe
00000090: 3b3d 91be 9e0e dc3e bc76 643e 0027 783e
000000a0: 9173 153d 9b0c 68be c03e ad3d 9e06 efbe
000000b0: bb97 a9be 3f71 6bbe e4fd 883e 2619 963e
000000c0: 0cb3 3fbe 20cb 93bc 40ba a33e 827f fe3e
000000d0: 0677 4e3e 6c2a cc3d fea4 ab3e c0bb 96be
000000e0: 45ba cd3d 0807 c6be 3ad9 acbe d23e 84be
000000f0: c47a 693e f8e7 4d3e 6aa4 97be c8ad 1a3e
00000100: 1634 903e 9182 b5bd 4064 9c3c 0044 ed3d
00000110: 91b1 b23e 3e35 023f 1a0b dbbe eca1 3bbe
00000120: d1e5 653e d01b d43e e8c5 de3e 22e2 e13e
00000130: 2159 c73d e981 efbe 9066 3c3d ac27 a0be
00000140: 10be dcbe 1c1f f03e 4832 b03e fe5d ffbe
00000150: 4d17 b83d c880 acbd b882 a8bd 1c5f 6abe
00000160: 1fc1 2b3e 443a a2be dcb1 3b3e 1676 813e
00000170: e4dc b13e d196 293e 6d61 f3be 0011 a6be
00000180: a144 8a3e 1853 d63d 96b3 c7be e868 93be
00000190: d35e ee3e 910c a33e b03e 5fbe d4dc 00be
000001a0: e1bc 00bf b582 d1bc 453a b8be a277 c5be
000001b0: f5ee 77bd a0bf 993d f4ad 51be 98e7 973e
000001c0: af96 8ebe f488 f63e d06f af3e 64e1 d7be
000001d0: d52a 15be 6cb1 24bb a7f1 e73d d0dd f23d
000001e0: f8f6 5a3e e059 f53c ccd1 79be d445 723e
000001f0: 298c 00bf a856 a6be 3c2b 00be ec66 79be
00000200: f975 43be 04c4 d3be 3c92 b0bd f8e2 da3d
00000210: 91ab 97be 4034 d2bc 0042 b73e f088 52bd
00000220: 7706 6fbc 3db5 75bd 103d cf3d 60c6 a23e
00000230: c6a1 ea3e e0d5 9c3e 36e9 f23e 601d 14bd
00000240: 989a febe 40ba 72be ce4f ae3e 006b 54bb
00000250: 88c0 83be 6ebd b4be 0094 efbe ec10 d8be
00000260: 787a ebbd 6d0e 893e 81e7 893e 02e5 f6be
00000270: f7f0 a93e 8a52 c8be f07b d8bd 1c9a 4fbe
00000280: 0f7a eebd f1af 00be bab8 e5be 440a ddbe
00000290: 5e72 b5bd ceb1 c73b 98f2 6bbe b8de 403e
000002a0: b986 f9be c036 0abd a221 e13e 38d7 50be
000002b0: 1939 f23e 6163 533e ae07 e7be 74f8 a13e
000002c0: ca14 0fbd 5f7d 55be 2c68 c73e 54df cebe
000002d0: 9cf3 af3d c064 d6bd 16d0 b63e 08ec 0e3e
000002e0: 81c4 783e 890d 283e 003f f6bd 505a d7bd
000002f0: 5870 d4be 0827 8f3e ae53 c53e 5c29 af3e
00000300: 5af3 a8be 60ae b63c 9076 b4be 88ec 8cbe
00000310: 75e4 a2be ba68 143e c48d 98be 00ba 32bc
00000320: eb53 4dbb 6323 9c3e f66d bbbe 44bf afbe
00000330: 4476 99be d62e b33e cc0b 38be e0ee d73e
00000340: d97a 183e 6e66 2f3d 00ed 73bb 086d cabd
00000350: e154 c83d a8c9 b4bd c9e9 1cbd c0a7 823d
00000360: 1f11 c0be 7a2d 86be d8b7 ce3e 86c1 cfbe
00000370: ef0f 7cbd 64bc f33e 10f4 383e c0f0 673c
00000380: 69f6 edbe d77d 623e 2914 a5be a856 11be
00000390: ba32 45be 38a4 97bd 8036 b33b 9626 d33e
000003a0: 0182 a63d 288e dd3e 3099 9c3e c6d8 a1be
000003b0: a5f6 3d3e 102a c3be d2ee 2fbe 4097 163e
000003c0: d761 4f3e f20e c03e 28d2 24be 00d4 513a
000003d0: f829 713e 62dd 02bf 4215 b93e 30b1 d3be
000003e0: 8863 313d 7e2e 68bd bd33 96be d857 873d
000003f0: 2e1f d93e e8aa 15be 56fc 97be 845b 3dbe
0.007329278 0.2682218 -0.41152257 -0.3679695 -0.22015041 0.13622972 -0.00990659 0.39644474
-0.015080611 0.15076923 -0.17431916 -0.098282695 -0.5068154 -0.33114105 -0.20611155 0.018521786
0.17646688 0.27980515 -0.33897054 -0.21773142 0.22452259 0.44637805 -0.16040374 0.37415588
-0.05757639 0.05290705 0.4527381 -0.46383518 -0.28762087 -0.13064931 -0.19489998 0.4320004
-0.35879403 -0.2554714 -0.31709185 -0.4682805 -0.28367028 0.42979902 0.22310919 0.24233627
0.036487166 -0.22661059 0.08459234 -0.46684736 -0.33123574 -0.22992419 0.26756203 0.29316062
-0.18720645 -0.018041193 0.31978035 0.49706656 0.20162591 0.09969029 0.33524317 -0.29440117
0.10045294 -0.3867724 -0.3375948 -0.25829178 0.22800738 0.2010802 -0.29617625 0.15105355
0.28164738 -0.08862794 0.019090772 0.115852356 0.34901097 0.5086249 -0.42781907 -0.18323487
0.22450949 0.4142747 0.43510365 0.44117838 0.09733797 -0.467788 0.04599625 -0.31280267
-0.43113756 0.46898735 0.34413362 -0.49876398 0.08988819 -0.084230006 -0.082280576 -0.22887844
0.16772889 -0.31685078 0.18329567 0.25285405 0.3473884 0.16561438 -0.47535267 -0.32434845
0.27005485 0.104650676 -0.390042 -0.28790975 0.4655672 0.31845525 -0.21801257 -0.12584239
-0.50288206 -0.025575021 -0.35981956 -0.38567835 -0.06053062 0.07507253 -0.20476514 0.2966888
-0.27849337 0.48151362 0.34264994 -0.42164147 -0.1456712 -0.0025130166 0.113253884 0.118587136
0.21383274 0.029950082 -0.24396437 0.2365945 -0.5021387 -0.32487988 -0.12516493 -0.24355668
-0.19087972 -0.41360486 -0.08621642 0.10687822 -0.29623082 -0.02565968 0.35792542 -0.051400125
-0.014588944 -0.059987295 0.101190686 0.31791973 0.45826548 0.30631924 0.4744355 -0.036160827
-0.4972732 -0.23703861 0.3404526 -0.003241241 -0.25732827 -0.35300773 -0.46792603 -0.4220041
-0.114979684 0.26768818 0.26934436 -0.48221594 0.33191654 -0.39125472 -0.10570514 -0.20273632
-0.116443746 -0.12567116 -0.44867498 -0.43171895 -0.088597044 0.006094194 -0.23041761 0.1883496
-0.48735598 -0.03374362 0.43970972 -0.203946 0.47309187 0.20643379 -0.45123047 0.31634867
-0.034931935 -0.20848607 0.38946664 -0.4040476 0.08591387 -0.10468435 0.35705632 0.13957226
0.2429371 0.16411413 -0.12023735 -0.105152726 -0.4149196 0.27959466 0.38540405 0.34211242
-0.32998163 0.022299945 -0.35246706 -0.2752421 -0.31814924 0.14493075 -0.2979566 -0.010908604
-0.0031330537 0.30495748 -0.3660733 -0.34325612 -0.29973042 0.3499667 -0.1797325 0.42174435
0.14890613 0.042822294 -0.003722012 -0.09884077 0.09781814 -0.088275254 -0.038308892 0.06379652
-0.37513062 -0.2620657 0.40374637 -0.40577334 -0.061538633 0.47604668 0.18061852 0.01415652
-0.4647706 0.22118317 -0.32241943 -0.14193213 -0.19257632 -0.07404369 0.0054691434 0.41240376
0.08130265 0.4327252 0.30585623 -0.31610698 0.18551119 -0.3811803 -0.17180946 0.14706135
0.20252167 0.37511402 -0.16095793 0.0008004308 0.23551166 -0.51119053 0.3614903 -0.4134612
0.04330781 -0.056684963 -0.29336348 0.06608552 0.424066 -0.14615977 -0.29684705 -0.18491942

bias f4 [64]
00000000: d662 eebe 6473 5d3e 227c 63be 8d52 b7be
00000010: db49 a2be a3cc a73e ab89 903e d076 c83e
00000020: 94bd 1e3e 2e54 2cbe 6972 00be 312e 3d3e
00000030: 0d1d e93e 16b3 1e3e 07e7 77be 742c 7fbe
00000040: 2b60 f4be 3be1 0f3e 0e76 8ebe 1822 eebe
00000050: f3b1 ee3e 5fb3 a7be a3d6 94bd 3487 f53d
00000060: 6cd5 343d f282 b6be e246 d6be 0605 cd3e
00000070: bf0d d63d 5cf7 c23e 9e8f 26be 284e 003e
00000080: be02 f9bd 1bac 3ebc 5cb0 a5be d681 283e
00000090: 1bdf 063e 089e 12ba c608 e8bd e8c9 96be
000000a0: dc5c a73e e182 bcbe fc56 273e d0c8 16be
000000b0: e83f 6cbe bf37 003e c7cd 82be 703d 033e
000000c0: 3000 d63d e645 cbbe 9134 903d b737 4c3e
000000d0: ce60 283e 837b 0fbd 01bf ccbe 2489 dbbd
000000e0: 2103 153e 91b5 56be dfcb 483e b94b 9a3e
000000f0: 788a 76be f346 ccbc 9f9f 6f3e 49c4 883d
-0.4655978 0.2162605 -0.22215322 -0.3580517 -0.31696972 0.32773313 0.28230032 0.39153147
0.15502006 -0.16828987 -0.12543644 0.18474652 0.45529976 0.15498003 -0.24209224 -0.24919301
-0.4772962 0.14050762 -0.27824444 -0.46510386 0.4662014 -0.32754037 -0.07267501 0.119886786
0.044148847 -0.35646778 -0.41850954 0.40042895 0.104518406 0.38079345 -0.16265723 0.12529814
-0.12158726 -0.011637713 -0.32361114 0.16455778 0.13171045 -0.00055930065 -0.113297984 -0.29450917
0.32688034 -0.36818603 0.16341776 -0.14725041 -0.23071253 0.12521265 -0.2554762 0.12816405
0.104492545 -0.39701766 0.07041276 0.19943129 0.16443178 -0.0350299 -0.39989474 -0.10719517
0.14551975 -0.209677 0.1960902 0.30135897 -0.24076259 -0.024936175 0.23400734 0.066780634

mask f4 [64, 4]
00000000: 0000 803f 0000 0000 0000 0000 0000 0000
00000010: 0000 803f 0000 803f 0000 0000 0000 0000
00000020: 0000 803f 0000 803f 0000 803f 0000 0000
00000030: 0000 803f 0000 0000 0000 0000 0000 0000
00000040: 0000 803f 0000 803f 0000 0000 0000 0000
00000050: 0000 803f 0000 803f 0000 803f 0000 0000
00000060: 0000 803f 0000 0000 0000 0000 0000 0000
00000070: 0000 803f 0000 803f 0000 0000 0000 0000
00000080: 0000 803f 0000 803f 0000 803f 0000 0000
00000090: 0000 803f 0000 0000 0000 0000 0000 0000
000000a0: 0000 803f 0000 803f 0000 0000 0000 0000
000000b0: 0000 803f 0000 803f 0000 803f 0000 0000
000000c0: 0000 803f 0000 0000 0000 0000 0000 0000
000000d0: 0000 803f 0000 803f 0000 0000 0000 0000
000000e0: 0000 803f 0000 803f 0000 803f 0000 0000
000000f0: 0000 803f 0000 0000 0000 0000 0000 0000
00000100: 0000 803f 0000 803f 0000 0000 0000 0000
00000110: 0000 803f 0000 803f 0000 803f 0000 0000
00000120: 0000 803f 0000 0000 0000 0000 0000 0000
00000130: 0000 803f 0000 803f 0000 0000 0000 0000
00000140: 0000 803f 0000 803f 0000 803f 0000 0000
00000150: 0000 803f 0000 0000 0000 0000 0000 0000
00000160: 0000 803f 0000 803f 0000 0000 0000 0000
00000170: 0000 803f 0000 803f 0000 803f 0000 0000
00000180: 0000 803f 0000 0000 0000 0000 0000 0000
00000190: 0000 803f 0000 803f 0000 0000 0000 0000
000001a0: 0000 803f 0000 803f 0000 803f 0000 0000
000001b0: 0000 803f 0000 0000 0000 0000 0000 0000
000001c0: 0000 803f 0000 803f 0000 0000 0000 0000
000001d0: 0000 803f 0000 803f 0000 803f 0000 0000
000001e0: 0000 803f 0000 0000 0000 0000 0000 0000
000001f0: 0000 803f 0000 803f 0000 0000 0000 0000
00000200: 0000 803f 0000 803f 0000 803f 0000 0000
00000210: 0000 803f 0000 0000 0000 0000 0000 0000
00000220: 0000 803f 0000 803f 0000 0000 0000 0000
00000230: 0000 803f 0000 803f 0000 803f 0000 0000
00000240: 0000 803f 0000 0000 0000 0000 0000 0000
00000250: 0000 803f 0000 803f 0000 0000 0000 0000
00000260: 0000 803f 0000 803f 0000 803f 0000 0000
00000270: 0000 803f 0000 0000 0000 0000 0000 0000
00000280: 0000 803f 0000 803f 0000 0000 0000 0000
00000290: 0000 803f 0000 803f 0000 803f 0000 0000
000002a0: 0000 803f 0000 0000 0000 0000 0000 0000
000002b0: 0000 803f 0000 803f 0000 0000 0000 0000
000002c0: 0000 803f 0000 803f 0000 803f 0000 0000
000002d0: 0000 803f 0000 0000 0000 0000 0000 0000
000002e0: 0000 803f 0000 803f 0000 0000 0000 0000
000002f0: 0000 803f 0000 803f 0000 803f 0000 0000
00000300: 0000 803f 0000 0000 0000 0000 0000 0000
00000310: 0000 803f 0000 803f 0000 0000 0000 0000
00000320: 0000 803f 0000 803f 0000 803f 0000 0000
00000330: 0000 803f 0000 0000 0000 0000 0000 0000
00000340: 0000 803f 0000 803f 0000 0000 0000 0000
00000350: 0000 803f 0000 803f 0000 803f 0000 0000
00000360: 0000 803f 0000 0000 0000 0000 0000 0000
00000370: 0000 803f 0000 803f 0000 0000 0000 0000
00000380: 0000 803f 0000 803f 0000 803f 0000 0000
00000390: 0000 803f 0000 0000 0000 0000 0000 0000
000003a0: 0000 803f 0000 803f 0000 0000 0000 0000
000003b0: 0000 803f 0000 803f 0000 803f 0000 0000
000003c0: 0000 803f 0000 0000 0000 0000 0000 0000
000003d0: 0000 803f 0000 803f 0000 0000 0000 0000
000003e0: 0000 803f 0000 803f 0000 803f 0000 0000
000003f0: 0000 803f 0000 0000 0000 0000 0000 0000
1.0 0.0 0.0 0.0 1.0 1.0 0.0 0.0
1.0 1.0 1.0 0.0 1.0 0.0 0.0 0.0
1.0 1.0 0.0 0.0 1.0 1.0 1.0 0.0
1.0 0.0 0.0 0.0 1.0 1.0 0.0 0.0
1.0 1.0 1.0 0.0 1.0 0.0 0.0 0.0
1.0 1.0 0.0 0.0 1.0 1.0 1.0 0.0
1.0 0.0 0.0 0.0 1.0 1.0 0.0 0.0
1.0 1.0 1.0 0.0 1.0 0.0 0.0 0.0
1.0 1.0 0.0 0.0 1.0 1.0 1.0 0.0
1.0 0.0 0.0 0.0 1.0 1.0 0.0 0.0
1.0 1.0 1.0 0.0 1.0 0.0 0.0 0.0
1.0 1.0 0.0 0.0 1.0 1.0 1.0 0.0
1.0 0.0 0.0 0.0 1.0 1.0 0.0 0.0
1.0 1.0 1.0 0.0 1.0 0.0 0.0 0.0
1.0 1.0 0.0 0.0 1.0 1.0 1.0 0.0
1.0 0.0 0.0 0.0 1.0 1.0 0.0 0.0
1.0 1.0 1.0 0.0 1.0 0.0 0.0 0.0
1.0 1.0 0.0 0.0 1.0 1.0 1.0 0.0
1.0 0.0 0.0 0.0 1.0 1.0 0.0 0.0
1.0 1.0 1.0 0.0 1.0 0.0 0.0 0.0
1.0 1.0 0.0 0.0 1.0 1.0 1.0 0.0
1.0 0.0 0.0 0.0 1.0 1.0 0.0 0.0
1.0 1.0 1.0 0.0 1.0 0.0 0.0 0.0
1.0 1.0 0.0 0.0 1.0 1.0 1.0 0.0
1.0 0.0 0.0 0.0 1.0 1.0 0.0 0.0
1.0 1.0 1.0 0.0 1.0 0.0 0.0 0.0
1.0 1.0 0.0 0.0 1.0 1.0 1.0 0.0
1.0 0.0 0.0 0.0 1.0 1.0 0.0 0.0
1.0 1.0 1.0 0.0 1.0 0.0 0.0 0.0
1.0 1.0 0.0 0.0 1.0 1.0 1.0 0.0
1.0 0.0 0.0 0.0 1.0 1.0 0.0 0.0
1.0 1.0 1.0 0.0 1.0 0.0 0.0 0.0

weight f4 [64, 64]
00000000: 9012 2b3c 70b9 7f3c fa40 c9bd 313a 7a3b
00000010: b445 b13d 64af e63d 2dde 963d 1838 893c
00000020: 7c1c 6f3d febe 8abd ec24 d4bd ca23 dcbd
00000030: 4082 cb3d 8e81 a23d b2f4 b0bd 30b0 9d3d
00000040: aa52 c13d c2e6 ff3d fbac 0c3e 4456 c63d
00000050: f0c2 eabc 7a80 47bd 4230 d23d 0a75 8f3d
00000060: fb96 43bd fe25 e63d 9060 773d 3d6f a83d
00000070: 6a74 a0bd 88e4 123d 923d 7ebc fc06 c83d
00000080: 5842 b8bc b1e8 293d 80e2 b53c f8d6 593d
00000090: 0f2a 5ebd f4a2 793d fece b2bd 917f 673d
000000a0: 2035 adbd ba8d fcbd 5815 e7bd b61a ca3d
000000b0: 5081 8a3d e815 133e 4816 cd3d a09e e4bd
000000c0: be10 c7bd e875 a5bc 3241 a6bd 5d77 923d
000000d0: ba89 c1bd 38ce 79bd df74 00be c657 91bd
000000e0: e28d d23d 1451 c73d 2441 b73d 22aa c53d
000000f0: 3ea9 0e3e b01a 03bd f447 613d 8d20 0e3e
00000100: 1461 293d 0f72 403e 18c7 843d 8429 bc3d
00000110: 6844 bbbc f4ab 753d 1356 763d e241 ccbc
00000120: 4a4f 90bd a37c 61bd b2fc c4bd 4edc ab3d
00000130: 9176 073e 9ead 58bb c424 94bd 459b a53d
00000140: 5ab5 873c 703c 183c 6b7a 9ebd b846 eb3d
00000150: ac60 513d cab8 f0bd 6203 f53d 5266 c23d
00000160: ff7e 48bd 4db0 ab3d d674 91bd 7977 2f3c
00000170: 8dab 173e 403e a93b d226 cebd 9420 2bbd
00000180: dcfa 0abd c63f 1abc b0fe 433c a2c1 ec3d
00000190: 5301 b63c 8c10 9ebd 00f0 d13b 2f21 3f3d
000001a0: fcf8 7d3d e0f7 e9bd f7fa c0bb 452b abbd
000001b0: 8876 5abd dc7f 483d 7107 9abd fc52 3e3d
000001c0: 8b61 f93d 7c8b 5a3d f09e aabd 8eaf c1bc
000001d0: c728 143d 4627 c3bd 6fd7 823d 2b31 a6bd
000001e0: 5217 f6bd 2d67 f3bd b213 0a3a 9024 ac3d
000001f0: 3441 0cbe aec8 d43d cccf 4cbd eeec 053d
00000200: 20ca ba3b 77a6 f7bd 9b44 013e f710 773d
00000210: 4e7f 183e 9589 b13d 4c0a a8bd 73bb c93d
00000220: 2023 dc3b 5dcc 523d ac44 cdbd c843 13bd
00000230: 03d9 18be 7594 b1bc d755 f63b 7b0d 87bd
00000240: c097 153d 11f4 bc3d 1c2c 493d 0c49 abbd
00000250: 9c25 cabd d78e 6bbd f2c2 3d3d 4852 1c3e
00000260: f73e d33d 4a10 503c 20fe 1a3d 229e dcbd
00000270: b908 babd c892 1e3d 69c0 1dbd 2c52 763d
00000280: f8b7 b4bd c707 8fbd 48dd d2bd a35b ba3d
00000290: 8f27 b6bc 9404 c53d fb47 9d3d 03c1 cf3d
000002a0: 20b6 833b f1d7 72bd 7782 18bd 0361 363d
000002b0: a4cd 7d3d 9b70 6ebd 1b01 073e 6b4b f5bc
000002c0: 2052 eabd af21 b3bd ceb8 093e f404 cf3d
000002d0: 0c67 b4bd 54d4 593d b004 683d 7a59 c13d
000002e0: 1c9d d53d 3e18 97bd 4b70 7b3d db81 e23c
000002f0: f4a4 b2bb 395b 083d 4ab3 14bc 614c de3d
00000300: 880e 0ebd 14df 3ebd 40e5 003d 689a 353d
00000310: 1026 7abd 300a 353c 745c 943d f0c4 4bbc
00000320: a8d1 1b3d b8f9 f6bc b074 333d e671 b9bd
00000330: 0e89 96bd 74f1 81bd 4c44 eb3d 64c5 09bd
00000340: 00f0 b2b9 cc0f 78bd f08f ff3d 0e07 fa3d
00000350: 6012 c1bd 1088 cfbd d40b c2bd 0008 1eba
00000360: c482 02bd 4e90 a7bd e0a3 37bd 1877 c13c
00000370: f4c1 85bd 88e6 e23c c8d1 eabc b018 78bd
00000380: c8ae 8c3c 847f d23d 8813 adbd 0032 be3b
00000390: 20cf 3cbd e436 fb3d 26e2 f2bd d26a f5bd
000003a0: 3042 fc3d f8f7 a1bd 2053 c43c 40c1 30bc
000003b0: 78b6 d7bc 48b5 e4bc 3cac a23d c0c6 c33b
000003c0: ce3e f9bd d821 97bd 7c8a 2ebd cad2 803d
000003d0: 8eaa a5bd 2e63 f13d 2813 e4bc 18df b7bc
000003e0: 4297 c83d e6aa 803d 6a1e d93d ee14 943d
000003f0: 3451 1bbd 54d9 a9bd a060 18bc 0ee0 d33d
0.010441437 0.015608177 -0.098268464 0.0038181657 0.08655873 0.11263922 0.073665954 0.01675038
0.058376774 -0.0677471 -0.10358605 -0.10749014 0.099369526 0.07934867 -0.08640422 0.07699621
0.09439595 0.124951854 0.13737862 0.096844226 -0.028657407 -0.04870651 0.10263111 0.07004745
-0.047751408 0.11237715 0.060394824 0.08224342 -0.07834704 0.035862476 -0.015517609 0.09766957
-0.022492573 0.041481677 0.02220273 0.053183526 -0.05423933 0.06094642 -0.08730887 0.05651814
-0.084573984 -0.1233172 -0.11283368 0.09868376 0.06762946 0.14363825 0.100140154 -0.11163068
-0.0971999 -0.020197824 -0.08117904 0.07151673 -0.094500974 -0.06098768 -0.12544583 -0.070968196
0.10280968 0.09732261 0.089479715 0.09651591 0.13931748 -0.032007873 0.05500026 0.13879605
0.041352347 0.1879351 0.064832866 0.09187606 -0.022859767 0.05997844 0.06014068 -0.02493376
-0.07046373 -0.055050503 -0.0961851 0.08391629 0.13228823 -0.0033062468 -0.07233575 0.08086256
0.016565967 0.009291753 -0.07738193 0.11488098 0.051117584 -0.11753996 0.11963536 0.09492172
-0.048949238 0.08383236 -0.07102363 0.010709637 0.14811535 0.0051648915 -0.10065998 -0.041779116
-0.033930644 -0.009414619 0.011962578 0.1156037 0.022217428 -0.07718 0.006406784 0.046662506
0.062005028 -0.114242315 -0.0058892923 -0.083578624 -0.053335696 0.04895006 -0.075209506 0.04646586
0.12176808 0.05335568 -0.08331096 -0.023643281 0.0361717 -0.09528975 0.06388747 -0.08114847
-0.12016167 -0.118849136 0.0005267217 0.08405411 -0.13696748 0.10389839 -0.050002858 0.032696657
0.0057003647 -0.120922975 0.12623827 0.060318913 0.14892313 0.0866882 -0.08205089 0.09850206
0.0067180544 0.051464427 -0.10022864 -0.035953313 -0.14926533 -0.021677235 0.007517557 -0.06594368
0.036521673 0.092262395 0.04911433 -0.08363542 -0.09870455 -0.05750927 0.046328492 0.15265763
0.10314744 0.012699196 0.03784001 -0.10772349 -0.09083695 0.0387142 -0.038513575 0.06013696
-0.08824152 -0.06983905 -0.10296112 0.090995096 -0.02223566 0.09620014 0.07679745 0.10144236
0.0040195137 -0.05928797 -0.037233796 0.04452611 0.061963692 -0.058212858 0.13184015 -0.029943189
-0.11441445 -0.08746659 0.13449404 0.101083666 -0.08808717 0.053181008 0.056645095 0.094408944
0.10430357 -0.07377671 0.061386388 0.02764981 -0.005451793 0.03329012 -0.009075949 0.10854412
-0.034681827 -0.046599463 0.03146863 0.044336706 -0.061071455 0.011049792 0.072441965 -0.01243709
0.03804174 -0.030148372 0.043812454 -0.090549275 -0.0735036 -0.06344882 0.11487636 -0.033635512
-0.0003412962 -0.06056194 0.12478626 0.12208377 -0.09427333 -0.10133374 -0.09474912 -0.0006028414
-0.03186299 -0.08181821 -0.044834018 0.023616359 -0.06531134 0.027697816 -0.028664485 -0.06057042
0.017173186 0.10278228 -0.08450991 0.0058043003 -0.046095967 0.12266329 -0.11859541 -0.11983265
0.12317312 -0.079086244 0.023965418 -0.010788262 -0.026332125 -0.027918473 0.07943007 0.0059746206
-0.12170182 -0.07379502 -0.042612538 0.06290205 -0.08089171 0.11786495 -0.027841166 -0.022445247
0.09794475 0.06282596 0.10601504 0.072305545 -0.03791924 -0.08293405 -0.009300381 0.103454694

bias f4 [64]
00000000: 3bc7 ed3d 9548 f03d 2ec6 4abc fab2 94bd
00000010: 61e9 11bd cb16 80bd abc2 4cbc 3694 bbbd
00000020: d4d4 883d 6539 b5bd f83e 9fbd b6d5 d63d
00000030: 887d bfbd 0a28 603d 4475 eb3d 3cf0 173e
00000040: 8a88 813d 9c78 11bc e205 d33d de8c 883c
00000050: 8b70 62bc 277e 553d b6aa 643d 22fa d33d
00000060: 7306 993d de03 a93d 83dd 223d 635f a43b
00000070: b8fc 563d 804b f63c 92a9 bbbd 3d98 253d
00000080: f7ad 10bd 9ac1 87bd 3ad0 8f3d 1b98 3c3d
00000090: 3257 353d 64e2 72bd b60b a23d ef64 113e
000000a0: 871a 123d 2527 a23d dd2e a9bd f8e5 c63d
000000b0: a2dd 6d3d d310 d23d a482 553d 28ab 06bd
000000c0: aa87 423c b3b2 ec3d 65a2 e73d 727f b7bd
000000d0: 5707 f93d 5928 143e d50b 733d 610d 9abd
000000e0: c37d 6e3d 7c23 8a3c 2c86 ed3d cf8a c9bd
000000f0: c805 033d b8d3 bc3b 7b54 173d 3d05 e13d
0.11610266 0.11732594 -0.012376351 -0.072606996 -0.035622958 -0.062543474 -0.012497584 -0.09159128
0.06681219 -0.08848838 -0.07775682 0.10489981 -0.09350115 0.054725684 0.11496976 0.14837736
0.06324871 -0.008878853 0.103038564 0.016668733 -0.013820778 0.05212226 0.055826865 0.103504434
0.07471933 0.08252691 0.03976203 0.005016254 0.052487105 0.030065298 -0.09163202 0.04042839
-0.035322156 -0.066287234 0.07022138 0.046043497 0.04427261 -0.059297934 0.0791239 0.1419866
0.03566983 0.079176225 -0.082608916 0.09711832 0.058072694 0.10257115 0.05212654 -0.03287807
0.011873165 0.11557522 0.11310271 -0.08959855 0.12159603 0.14468516 0.059337456 -0.07522083
0.058225404 0.016862623 0.11597857 -0.09840929 0.031987935 0.0057625435 0.0369458 0.10987327

mask f4 [64, 64]
00000000: 0000 803f 0000 0000 0000 0000 0000 803f
00000010: 0000 0000 0000 0000 0000 803f 0000 0000
00000020: 0000 0000 0000 803f 0000 0000 0000 0000
00000030: 0000 803f 0000 0000 0000 0000 0000 803f
00000040: 0000 0000 0000 0000 0000 803f 0000 0000
00000050: 0000 0000 0000 803f 0000 0000 0000 0000
00000060: 0000 803f 0000 0000 0000 0000 0000 803f
00000070: 0000 0000 0000 0000 0000 803f 0000 0000
00000080: 0000 0000 0000 803f 0000 0000 0000 0000
00000090: 0000 803f 0000 0000 0000 0000 0000 803f
000000a0: 0000 0000 0000 0000 0000 803f 0000 0000
000000b0: 0000 0000 0000 803f 0000 0000 0000 0000
000000c0: 0000 803f 0000 0000 0000 0000 0000 803f
000000d0: 0000 0000 0000 0000 0000 803f 0000 0000
000000e0: 0000 0000 0000 803f 0000 0000 0000 0000
000000f0: 0000 803f 0000 0000 0000 0000 0000 803f
00000100: 0000 803f 0000 803f 0000 0000 0000 803f
00000110: 0000 803f 0000 0000 0000 803f 0000 803f
00000120: 0000 0000 0000 803f 0000 803f 0000 0000
00000130: 0000 803f 0000 803f 0000 0000 0000 803f
00000140: 0000 803f 0000 0000 0000 803f 0000 803f
00000150: 0000 0000 0000 803f 0000 803f 0000 0000
00000160: 0000 803f 0000 803f 0000 0000 0000 803f
00000170: 0000 803f 0000 0000 0000 803f 0000 803f
00000180: 0000 0000 0000 803f 0000 803f 0000 0000
00000190: 0000 803f 0000 803f 0000 0000 0000 803f
000001a0: 0000 803f 0000 0000 0000 803f 0000 803f
000001b0: 0000 0000 0000 803f 0000 803f 0000 0000
000001c0: 0000 803f 0000 803f 0000 0000 0000 803f
000001d0: 0000 803f 0000 0000 0000 803f 0000 803f
000001e0: 0000 0000 0000 803f 0000 803f 0000 0000
000001f0: 0000 803f 0000 803f 0000 0000 0000 803f
00000200: 0000 803f 0000 803f 0000 803f 0000 803f
00000210: 0000 803f 0000 803f 0000 803f 0000 803f
00000220: 0000 803f 0000 803f 0000 803f 0000 803f
00000230: 0000 803f 0000 803f 0000 803f 0000 803f
00000240: 0000 803f 0000 803f 0000 803f 0000 803f
00000250: 0000 803f 0000 803f 0000 803f 0000 803f
00000260: 0000 803f 0000 803f 0000 803f 0000 803f
00000270: 0000 803f 0000 803f 0000 803f 0000 803f
00000280: 0000 803f 0000 803f 0000 803f 0000 803f
00000290: 0000 803f 0000 803f 0000 803f 0000 803f
000002a0: 0000 803f 0000 803f 0000 803f 0000 803f
000002b0: 0000 803f 0000 803f 0000 803f 0000 803f
000002c0: 0000 803f 0000 803f 0000 803f 0000 803f
000002d0: 0000 803f 0000 803f 0000 803f 0000 803f
000002e0: 0000 803f 0000 803f 0000 803f 0000 803f
000002f0: 0000 803f 0000 803f 0000 803f 0000 803f
00000300: 0000 803f 0000 0000 0000 0000 0000 803f
00000310: 0000 0000 0000 0000 0000 803f 0000 0000
00000320: 0000 0000 0000 803f 0000 0000 0000 0000
00000330: 0000 803f 0000 0000 0000 0000 0000 803f
00000340: 0000 0000 0000 0000 0000 803f 0000 0000
00000350: 0000 0000 0000 803f 0000 0000 0000 0000
00000360: 0000 803f 0000 0000 0000 0000 0000 803f
00000370: 0000 0000 0000 0000 0000 803f 0000 0000
00000380: 0000 0000 0000 803f 0000 0000 0000 0000
00000390: 0000 803f 0000 0000 0000 0000 0000 803f
000003a0: 0000 0000 0000 0000 0000 803f 0000 0000
000003b0: 0000 0000 0000 803f 0000 0000 0000 0000
000003c0: 0000 803f 0000 0000 0000 0000 0000 803f
000003d0: 0000 0000 0000 0000 0000 803f 0000 0000
000003e0: 0000 0000 0000 803f 0000 0000 0000 0000
000003f0: 0000 803f 0000 0000 0000 0000 0000 803f
1.0 0.0 0.0 1.0 0.0 0.0 1.0 0.0
0.0 1.0 0.0 0.0 1.0 0.0 0.0 1.0
0.0 0.0 1.0 0.0 0.0 1.0 0.0 0.0
1.0 0.0 0.0 1.0 0.0 0.0 1.0 0.0
0.0 1.0 0.0 0.0 1.0 0.0 0.0 1.0
0.0 0.0 1.0 0.0 0.0 1.0 0.0 0.0
1.0 0.0 0.0 1.0 0.0 0.0 1.0 0.0
0.0 1.0 0.0 0.0 1.0 0.0 0.0 1.0
1.0 1.0 0.0 1.0 1.0 0.0 1.0 1.0
0.0 1.0 1.0 0.0 1.0 1.0 0.0 1.0
1.0 0.0 1.0 1.0 0.0 1.0 1.0 0.0
1.0 1.0 0.0 1.0 1.0 0.0 1.0 1.0
0.0 1.0 1.0 0.0 1.0 1.0 0.0 1.0
1.0 0.0 1.0 1.0 0.0 1.0 1.0 0.0
1.0 1.0 0.0 1.0 1.0 0.0 1.0 1.0
0.0 1.0 1.0 0.0 1.0 1.0 0.0 1.0
1.0 1.0 1.0 1.0 1.0 1.0 1.0 1.0
1.0 1.0 1.0 1.0 1.0 1.0 1.0 1.0
1.0 1.0 1.0 1.0 1.0 1.0 1.0 1.0
1.0 1.0 1.0 1.0 1.0 1.0 1.0 1.0
1.0 1.0 1.0 1.0 1.0 1.0 1.0 1.0
1.0 1.0 1.0 1.0 1.0 1.0 1.0 1.0
1.0 1.0 1.0 1.0 1.0 1.0 1.0 1.0
1.0 1.0 1.0 1.0 1.0 1.0 1.0 1.0
1.0 0.0 0.0 1.0 0.0 0.0 1.0 0.0
0.0 1.0 0.0 0.0 1.0 0.0 0.0 1.0
0.0 0.0 1.0 0.0 0.0 1.0 0.0 0.0
1.0 0.0 0.0 1.0 0.0 0.0 1.0 0.0
0.0 1.0 0.0 0.0 1.0 0.0 0.0 1.0
0.0 0.0 1.0 0.0 0.0 1.0 0.0 0.0
1.0 0.0 0.0 1.0 0.0 0.0 1.0 0.0
0.0 1.0 0.0 0.0 1.0 0.0 0.0 1.0

weight f4 [64, 64]
00000000: 0647 933c c9d5 253a eed3 553a 6390 c8b8
00000010: c1f2 59b9 a9c8 ceb9 0fc2 4f3c 7cd4 deb9
00000020: 7376 81b9 ba73 933b 1d5e 9d39 675a f7b9
00000030: 5d44 143a 8a11 bc38 2100 2638 c4c2 713c
00000040: 75d7 12ba 7ee7 ddb8 8529 063d 8cd6 293a
00000050: 52c5 133a 3b83 2d3d 5593 d338 652a 2a3a
00000060: 95fb 893c 775b 103a 15d3 043a 326e 403b
00000070: c9a4 f639 449f 2fba 1b19 ad3b e5e0 81ba
00000080: c56e 4d3a fed0 11ba 361d 4eba 1b0f 0639
00000090: 4b3e 8b3c e674 a639 79eb 88b9 10ad c43c
000000a0: 638b 78ba e22a 81ba 9176 c53b 4a82 e3b9
000000b0: 817b 8039 aeed 183d e292 2439 5095 25ba
000000c0: 9714 233c 73a1 2bba 9c21 5d3a 1de2 2139
000000d0: d159 3d3a c72e 393a 74ae 403d 3a2e b939
000000e0: c5d5 133a 8edb 493d 28ce 453a ff68 61b9
000000f0: d498 4a3a f067 8cb8 3cf5 f239 71c1 d63c
00000100: 5442 a9bc 1df9 4b3d 57d8 d539 4c9c 82ba
00000110: 25e2 80bc 137b 55b9 8cb1 d2bc 8b84 a4bc
00000120: b3dd 7339 3379 febc 51b5 563a bd77 143a
00000130: 0b51 813a b8f6 5b3d 5bcd 39ba 6fc0 c7bc
00000140: 4467 763a a2ca 18ba 16f2 5b3c 7d5b 5cbb
00000150: 69e7 5e3a 0696 1a3d 955a e1bc ade8 d8b9
00000160: 593e b6bc 8b38 29bc 6dbd 3fba f2b3 973a
00000170: a9de c339 d43d bbb8 59f4 eebc ce20 50bc
00000180: 696f 14ba 1188 cab9 b373 043c f0b9 cab9
00000190: 80d0 b8bc 44ea 543a 6798 4dba 04b5 86bc
000001a0: 16bd 6fbc a269 07ba 4282 ecbc afea b5bc
000001b0: 2769 89b8 b0fd 073d ec47 233a 9876 adb9
000001c0: bf96 d9bc 4d32 993b 3256 57ba 9806 2f3a
000001d0: 12e9 21bc d2c8 4bba 5c90 2b3d b35b 69bc
000001e0: bf08 0c3a 83f4 043d e3c4 073c d0f3 efb9
000001f0: 2a70 5f39 6914 ab3c bb21 57ba 190d 4dbc
00000200: b988 bc3c 7f11 d3bc 7e2b c03c b5c4 d9b9
00000210: c95c b43c 0321 9b3c 68a0 da3c 07c7 ca3c
00000220: 1370 6a3a 2fb6 e23c 4244 163a e9df 8c3c
00000230: 385f 663a e2eb b0bc 51a0 a73c 53d5 d73c
00000240: 98c1 52ba a61a e93c ca07 5d3b acd4 8f3c
00000250: 9bee 5d3c 7740 eebc 29b5 dd3c 440b 943c
00000260: 79c7 c53c 874f aa3c 3a60 7d3c 3e06 9eba
00000270: 77db 39ba 8eac 4cba cb9b da3c e66f c13c
00000280: 3af3 df3c 2e3e 27ba 3821 673c 58c5 e23c
00000290: d6c4 d63c 5dc0 0f3a aecb c93c ef75 ad3c
000002a0: c144 a73c a7ce 3e3c df17 e83c fc54 c53c
000002b0: 0534 a7bb ea5c e8bc f6e5 81ba f8bd a6b9
000002c0: 53e5 d43c 8238 b53b 7581 c43c 7a70 57ba
000002d0: dd49 a43c 96b7 aa3c 4ba8 0cbd d051 bd3c
000002e0: cb71 213c b839 35bc 5159 653c 9af1 c13c
000002f0: 302d 4b38 5111 e3bc 8efb 0d3c b83d 883c
00000300: 810e d7bc 4295 573a 5028 283a 24fb feb9
00000310: 3039 e4b9 96f7 7739 1d1c e5bc 2393 c8b8
00000320: dab2 9739 8132 e2bc b9d8 bb39 904a 15b9
00000330: 6f3b 713a d461 57ba da44 5d3a 87a8 e3bc
00000340: 73c0 6aba 846c 7639 8b00 8bbc a34b f639
00000350: 9e7d 3d3a e404 913c 7518 15ba a492 3eba
00000360: 9cfc d3bc 8291 5bba 7f34 23ba 481c 833a
00000370: 4617 073a cbef 333a acdd d7bc 13b7 64ba
00000380: 8870 82b9 2ccf b0b8 c17a 723a a227 94b9
00000390: 466a e7bc 00af 143a e28d 083a e8e3 debc
000003a0: d8b4 63ba b3ff c5b9 f64d debc 7e75 793a
000003b0: e266 ec39 405c 943c 985c a139 5843 85b9
000003c0: f6f9 e2bc 2a7f 5c3a ec59 5f39 0984 5139
000003d0: 1768 193a daf6 3c3a 3701 a53c 75a3 d3b8
000003e0: c5e4 e7b9 b0eb 60bc f40b 03ba 7958 553a
000003f0: c5b4 503a 4c99 0aba 6524 5d3a 148c cebc
0.017978203 0.0006326107 0.0008156885 -9.563637e-05 -0.00020785166 -0.00039440885 0.0126805445 -0.00042501453
-0.0002469305 0.0044998797 0.00030015493 -0.00047178866 0.0005655939 8.9678055e-05 3.9577604e-05 0.014755908
-0.00056015636 -0.0001058122 0.03275444 0.00064788084 0.0005637008 0.04236148 0.00010088707 0.00064913026
0.016843596 0.00055067934 0.0005066854 0.0029362557 0.0004704355 -0.00066994526 0.005282534 -0.0009908943
0.00078366353 -0.00055624533 -0.0007862629 0.00012784863 0.016997477 0.00031749083 -0.00026115382 0.024008304
-0.00094812195 -0.0009854699 0.006026097 -0.00043393887 0.0002450608 0.037336044 0.00015694977 -0.00063165
0.0099536395 -0.000654719 0.0008435489 0.0001543839 0.00072231615 0.00070641603 0.04704137 0.0003532039
0.0005639459 0.04928165 0.0007545673 -0.00021496786 0.00077284616 -6.69508e-05 0.0004634055 0.026215287
-0.02066151 0.04979812 0.00040787712 -0.0009964793 -0.015732834 -0.00020359112 -0.025719427 -0.020082733
0.00023256875 -0.031063652 0.00081904704 0.00056635943 0.0009866072 0.053702086 -0.000708779 -0.024383752
0.0009399543 -0.00058285345 0.013424417 -0.0033623867 0.0008503111 0.03774073 -0.027509013 -0.00041372087
-0.022246527 -0.010328422 -0.00073142984 0.0011574014 0.00037359193 -8.928371e-05 -0.029169248 -0.012703134
-0.00056623534 -0.0003862982 0.0080842255 -0.00038666977 -0.022560358 0.00081220665 -0.0007842839 -0.016443737
-0.014632484 -0.0005165582 -0.028870706 -0.022206632 -6.552255e-05 0.03320092 0.0006228674 -0.0003308549
-0.02656114 0.004675186 -0.0008214443 0.0006676703 -0.009882228 -0.000777376 0.04188572 -0.014243054
0.00053418794 0.032459747 0.008286688 -0.00045767287 0.00021308722 0.020883756 -0.00082066254 -0.01251533
0.023014413 -0.025765179 0.023458239 -0.00041536023 0.0220169 0.01893664 0.026687816 0.024753107
0.0008943092 0.027674763 0.0005732217 0.017196612 0.00087879924 -0.021596853 0.020462187 0.026346838
-0.0008039712 0.02845509 0.0033726566 0.017557465 0.0135456575 -0.029083474 0.027063923 0.018071778
0.024142968 0.020789875 0.015464837 -0.0012056304 -0.0007089893 -0.0007807695 0.026685616 0.023612928
0.02733766 -0.000637981 0.014107041 0.027681991 0.026216906 0.00054836815 0.024633255 0.0211744
0.020418527 0.011645949 0.028331695 0.024088375 -0.0051026368 -0.028364617 -0.0009910453 -0.00031803525
0.025988257 0.005530418 0.023987511 -0.00082183594 0.020054752 0.020839494 -0.034340184 0.0231103
0.0098537905 -0.0110611245 0.0139983455 0.023674775 4.8441056e-05 -0.027718218 0.008665932 0.016630992
-0.026252033 0.000822384 0.00064146984 -0.0004863377 -0.00043530157 0.00023647989 -0.027967507 -9.5641495e-05
0.0002893422 -0.027611973 0.0003582889 -0.00014237524 0.00092022767 -0.00082161766 0.00084407406 -0.027790321
-0.0008955069 0.00023500813 -0.016968032 0.0004697713 0.0007228496 0.017702527 -0.00056875433 -0.0007269776
-0.02587729 -0.00083758694 -0.0006225779 0.0010002935 0.00051533093 0.000686404 -0.026350819 -0.000872479
-0.00024879375 -8.430923e-05 0.0009249859 -0.00028258289 -0.028248917 0.0005671829 0.00052091305 -0.027208284
-0.00086863106 -0.0003776528 -0.027136784 0.0009516104 0.0004509008 0.018110394 0.000307773 -0.00025417912
-0.027707081 0.0008411283 0.00021300436 0.0001998098 0.00058519974 0.00072084146 0.02014218 -0.0001009171
-0.000442302 -0.013728067 -0.00049990346 0.00081384886 0.0007961507 -0.0005287125 0.0008435904 -0.025213279

bias f4 [64]
00000000: a101 ef3c 4296 1cbc ccb0 893c c150 cbbc
00000010: 7f63 fbbc e8cc 2d3d 904a 7f3c 6344 073c
00000020: 17c1 d8bc b709 33bb 4ed0 713c ce93 1b3d
00000030: a5b7 183d 8142 913c 96ad d6bb bb60 8abc
00000040: 7ff4 36bb 08b3 0d3d 9b6e 30bb e1c1 a2bc
00000050: 10a3 ee3c 0cb9 a5bb 0b82 89bc 6429 e2bc
00000060: 87bc b83c f6b2 c6bc 06ca 63bc c9f9 5bbb
00000070: ca96 c33c 939a fcbc 43c2 883a 8903 aebc
00000080: 0060 dbbb 2641 1e3c 03d2 94bc 4924 a6bb
00000090: 2a31 d3bc 0d71 2d3c 37bc 0fbb bf3c 463c
000000a0: b15d 98bc 9ecd 1a3b 24b5 2cbd 8ce0 a73c
000000b0: 9902 303c de37 0c3d a08a 533b 2752 2e3c
000000c0: 56a9 e13b f856 dcbc 105f 5abc dc9a 72bc
000000d0: 6361 0fbd 5cb3 cf3c 718d 193c 6ab1 f7bc
000000e0: 686e f6bc 6e3a e1bc c035 943b 92c9 00bd
000000f0: a28d bb3c 443c f8bc 999a b63c 6010 be3c
0.029175581 -0.009557309 0.016807936 -0.02481878 -0.030687092 0.042431742 0.015581742 0.008256051
-0.02645926 -0.0027319023 0.014759136 0.037982754 0.037284512 0.017731907 -0.006551455 -0.016891828
-0.0027916727 0.034594566 -0.0026921395 -0.01986784 0.029130489 -0.0050574597 -0.016785642 -0.027607627
0.022550834 -0.024255257 -0.013903147 -0.0033565632 0.023875613 -0.030835425 0.0010433871 -0.02124192
-0.0066947937 0.009659087 -0.018166548 -0.0050702435 -0.02578028 0.010586035 -0.0021932253 0.012099444
-0.018599363 0.0023621093 -0.042164937 0.020492814 0.010742807 0.034232967 0.0032278672 0.010639704
0.0068866415 -0.026896939 -0.013328329 -0.014807429 -0.035004985 0.02535408 0.009372101 -0.030235965
-0.030081943 -0.027493682 0.004523009 -0.031442232 0.022894684 -0.030302174 0.022290515 0.023201168

mask f4 [64, 64]
00000000: 0000 803f 0000 0000 0000 0000 0000 803f
00000010: 0000 0000 0000 0000 0000 803f 0000 0000
00000020: 0000 0000 0000 803f 0000 0000 0000 0000
00000030: 0000 803f 0000 0000 0000 0000 0000 803f
00000040: 0000 0000 0000 0000 0000 803f 0000 0000
00000050: 0000 0000 0000 803f 0000 0000 0000 0000
00000060: 0000 803f 0000 0000 0000 0000 0000 803f
00000070: 0000 0000 0000 0000 0000 803f 0000 0000
00000080: 0000 0000 0000 803f 0000 0000 0000 0000
00000090: 0000 803f 0000 0000 0000 0000 0000 803f
000000a0: 0000 0000 0000 0000 0000 803f 0000 0000
000000b0: 0000 0000 0000 803f 0000 0000 0000 0000
000000c0: 0000 803f 0000 0000 0000 0000 0000 803f
000000d0: 0000 0000 0000 0000 0000 803f 0000 0000
000000e0: 0000 0000 0000 803f 0000 0000 0000 0000
000000f0: 0000 803f 0000 0000 0000 0000 0000 803f
00000100: 0000 803f 0000 803f 0000 0000 0000 803f
00000110: 0000 803f 0000 0000 0000 803f 0000 803f
00000120: 0000 0000 0000 803f 0000 803f 0000 0000
00000130: 0000 803f 0000 803f 0000 0000 0000 803f
00000140: 0000 803f 0000 0000 0000 803f 0000 803f
00000150: 0000 0000 0000 803f 0000 803f 0000 0000
00000160: 0000 803f 0000 803f 0000 0000 0000 803f
00000170: 0000 803f 0000 0000 0000 803f 0000 803f
00000180: 0000 0000 0000 803f 0000 803f 0000 0000
00000190: 0000 803f 0000 803f 0000 0000 0000 803f
000001a0: 0000 803f 0000 0000 0000 803f 0000 803f
000001b0: 0000 0000 0000 803f 0000 803f 0000 0000
000001c0: 0000 803f 0000 803f 0000 0000 0000 803f
000001d0: 0000 803f 0000 0000 0000 803f 0000 803f
000001e0: 0000 0000 0000 803f 0000 803f 0000 0000
000001f0: 0000 803f 0000 803f 0000 0000 0000 803f
00000200: 0000 803f 0000 803f 0000 803f 0000 803f
00000210: 0000 803f 0000 803f 0000 803f 0000 803f
00000220: 0000 803f 0000 803f 0000 803f 0000 803f
00000230: 0000 803f 0000 803f 0000 803f 0000 803f
00000240: 0000 803f 0000 803f 0000 803f 0000 803f
00000250: 0000 803f 0000 803f 0000 803f 0000 803f
00000260: 0000 803f 0000 803f 0000 803f 0000 803f
00000270: 0000 803f 0000 803f 0000 803f 0000 803f
00000280: 0000 803f 0000 803f 0000 803f 0000 803f
00000290: 0000 803f 0000 803f 0000 803f 0000 803f
000002a0: 0000 803f 0000 803f 0000 803f 0000 803f
000002b0: 0000 803f 0000 803f 0000 803f 0000 803f
000002c0: 0000 803f 0000 803f 0000 803f 0000 803f
000002d0: 0000 803f 0000 803f 0000 803f 0000 803f
000002e0: 0000 803f 0000 803f 0000 803f 0000 803f
000002f0: 0000 803f 0000 803f 0000 803f 0000 803f
00000300: 0000 803f 0000 0000 0000 0000 0000 803f
00000310: 0000 0000 0000 0000 0000 803f 0000 0000
00000320: 0000 0000 0000 803f 0000 0000 0000 0000
00000330: 0000 803f 0000 0000 0000 0000 0000 803f
00000340: 0000 0000 0000 0000 0000 803f 0000 0000
00000350: 0000 0000 0000 803f 0000 0000 0000 0000
00000360: 0000 803f 0000 0000 0000 0000 0000 803f
00000370: 0000 0000 0000 0000 0000 803f 0000 0000
00000380: 0000 0000 0000 803f 0000 0000 0000 0000
00000390: 0000 803f 0000 0000 0000 0000 0000 803f
000003a0: 0000 0000 0000 0000 0000 803f 0000 0000
000003b0: 0000 0000 0000 803f 0000 0000 0000 0000
000003c0: 0000 803f 0000 0000 0000 0000 0000 803f
000003d0: 0000 0000 0000 0000 0000 803f 0000 0000
000003e0: 0000 0000 0000 803f 0000 0000 0000 0000
000003f0: 0000 803f 0000 0000 0000 0000 0000 803f
1.0 0.0 0.0 1.0 0.0 0.0 1.0 0.0
0.0 1.0 0.0 0.0 1.0 0.0 0.0 1.0
0.0 0.0 1.0 0.0 0.0 1.0 0.0 0.0
1.0 0.0 0.0 1.0 0.0 0.0 1.0 0.0
0.0 1.0 0.0 0.0 1.0 0.0 0.0 1.0
0.0 0.0 1.0 0.0 0.0 1.0 0.0 0.0
1.0 0.0 0.0 1.0 0.0 0.0 1.0 0.0
0.0 1.0 0.0 0.0 1.0 0.0 0.0 1.0
1.0 1.0 0.0 1.0 1.0 0.0 1.0 1.0
0.0 1.0 1.0 0.0 1.0 1.0 0.0 1.0
1.0 0.0 1.0 1.0 0.0 1.0 1.0 0.0
1.0 1.0 0.0 1.0 1.0 0.0 1.0 1.0
0.0 1.0 1.0 0.0 1.0 1.0 0.0 1.0
1.0 0.0 1.0 1.0 0.0 1.0 1.0 0.0
1.0 1.0 0.0 1.0 1.0 0.0 1.0 1.0
0.0 1.0 1.0 0.0 1.0 1.0 0.0 1.0
1.0 1.0 1.0 1.0 1.0 1.0 1.0 1.0
1.0 1.0 1.0 1.0 1.0 1.0 1.0 1.0
1.0 1.0 1.0 1.0 1.0 1.0 1.0 1.0
1.0 1.0 1.0 1.0 1.0 1.0 1.0 1.0
1.0 1.0 1.0 1.0 1.0 1.0 1.0 1.0
1.0 1.0 1.0 1.0 1.0 1.0 1.0 1.0
1.0 1.0 1.0 1.0 1.0 1.0 1.0 1.0
1.0 1.0 1.0 1.0 1.0 1.0 1.0 1.0
1.0 0.0 0.0 1.0 0.0 0.0 1.0 0.0
0.0 1.0 0.0 0.0 1.0 0.0 0.0 1.0
0.0 0.0 1.0 0.0 0.0 1.0 0.0 0.0
1.0 0.0 0.0 1.0 0.0 0.0 1.0 0.0
0.0 1.0 0.0 0.0 1.0 0.0 0.0 1.0
0.0 0.0 1.0 0.0 0.0 1.0 0.0 0.0
1.0 0.0 0.0 1.0 0.0 0.0 1.0 0.0
0.0 1.0 0.0 0.0 1.0 0.0 0.0 1.0

weight f4 [64, 64]
00000000: d0eb 4bbc b63b dabd 70d6 ee3d 6815 cabd
00000010: 0440 d33d c07c 633c c841 c3bd 1ad1 c4bd
00000020: c4fc 43bd 10b9 f43d 3c01 e73d 6859 7f3d
00000030: fa69 ee3d 3c50 9a3d c0f4 133d ca10 e53d
00000040: 5080 973d 00c0 a93c accd 383d 0039 0f3c
00000050: c0a3 5cbd 5485 6c3d 14b7 733d d494 9b3d
00000060: 1ca1 b53d 96d9 e73d b0b9 113d 1c46 22bd
00000070: 1ca0 283d 3a9c 883d b216 b6bd 70fe 98bd
00000080: a098 c4bd b256 8bbd 1eab ef3d c450 853d
00000090: c0dc 0fbc 5ed4 b8bd 2877 123d 304a b73c
000000a0: 8033 d13a aeca a6bd 1425 fb3d 781a 893c
000000b0: 622b c4bd e482 923d 98b8 b2bc 1450 b0bd
000000c0: da96 b8bd 601d 22bc a688 87bd 48d9 abbd
000000d0: 0c85 683d e052 c0bb a409 a2bd c09a bb3b
000000e0: a614 fabd 36fc ca3d a654 e9bd 6efb 93bd
000000f0: 38f7 cebc de7e f3bd 8c21 ddbd b61d c5bd
00000100: 781f a2bd a92d 143d 728d 8e3d eac8 b8bd
00000110: c589 ad3d 3caa 64bd 7384 e13d 6ab9 17bd
00000120: 44ad 623d 93d1 d13c 4099 2dbd f011 5b3c
00000130: 640e 293d dd41 d13d f8fc e13c 202c 9a3d
00000140: d5ca 653c 38d7 cb3d dd22 8fbd 84d2 5cbd
00000150: 0002 8bb9 a44a a93d 7461 fbbd d071 633d
00000160: 1183 0e3e b04c d63d 4434 e23d 6c1f d4bc
00000170: 0d87 253d b2ec dc3d 66bc 6dbd 4892 cebc
00000180: a417 63bd b056 b23d b00a d93c 826b e5bd
00000190: d631 aa3d 4014 d33d 2031 d9bb bf35 083e
000001a0: 563f e7bd b017 253c 5b2d c53b f901 5a3d
000001b0: 60cb 763d 2165 803d 4455 103e 2eac 8fbd
000001c0: 3184 523c fb46 263d 28ab cabd b48f 74bd
000001d0: 38d3 9ebd 404b 3dbd 6d54 94bd 1076 fc3d
000001e0: 5828 7abd e7e4 e73c 53a6 f4bc e820 a53d
000001f0: 90ca 723c c2d4 adbd 088a 29bd bf3c 72bd
00000200: 00fd 273d e56a ba3d c437 783d 4d8d d63c
00000210: 4c03 9cbd 0dd1 083d 3434 823d 8be5 45ba
00000220: 0aa1 fabd b58c b3bd c0e9 f5bd 300d aa3c
00000230: 16c4 823b 8c92 b33d c879 6a3d fbc7 5dbd
00000240: 2297 ed3c 1448 133e 131c c5bc be89 ffbd
00000250: bf73 e4bc e0dc 88bd 8815 bf3d 51f9 fd3d
00000260: 08ba 143e 69c5 e03d 2c83 a73a a585 7abd
00000270: 2e0f 153d 3277 eabc 81c2 d1bc 12e8 d7bd
00000280: fe21 da3d d8ce febd 6cf4 0bbd 9f8e 6c3d
00000290: ba40 afbd 347b 04bd 1cbe eabd 7b00 6e3d
000002a0: ca93 e93d e1a0 3f3d a793 eebc 5b22 ea3d
000002b0: 0626 cf3d 8373 063e 30e3 abbc e2ae d63c
000002c0: c1ef 8c3c b751 5f3c c87f e73d e503 87bd
000002d0: 6541 75bd c397 8a3d 0fef a93c c930 38bd
000002e0: 505f 853d c7fc 99bc b521 073e 66f8 bcbd
000002f0: c22a c8bc e0bf 6a3d 3b39 2abd 5eba cf3c
00000300: e824 e1bc 9eb2 b03d 5400 e8bd 2414 b4bd
00000310: 6cba d1bd 9065 8e3c 80eb babb b89d 64bd
00000320: 24bb bcbd 6acd 853d 00fd aabd 765d a5bd
00000330: 1824 94bc 7893 fdbd 60dd 23bd c04a 773c
00000340: 1828 8d3d 4001 0a3b 12bc f23d 2007 bcbc
00000350: 04bc 453d 0ae7 a3bd 1031 81bc 2eba cd3d
00000360: a0c9 ab3d 101f 4cbc b40f 80bd f8f8 29bd
00000370: 4295 cebd 6c6f 7b3d c42c ef3d 504a 80bc
00000380: 8497 95bd c049 fe3d b839 43bd a045 cabc
00000390: ca64 acbd 5efc cf3d a80e ab3c 4e9b febd
000003a0: 54bf f03d b6e9 9b3d c470 3b3d fe28 fd3d
000003b0: 40c5 d83c 4080 77bd 14f3 46bd 0cac 833d
000003c0: ae15 8ebd 0c66 a73d 360e 8fbd 0669 d13d
000003d0: 6809 cabc acee c13d fe26 8fbd d0ec 153d
000003e0: ac3c b63d 1077 ee3c 189e 84bc 946e 9bbd
000003f0: 0cf9 6ebd 88ea 453d a4a7 d33d 7a7a 8fbd
-0.012446359 -0.1065592 0.116619945 -0.09867364 0.103149444 0.013884723 -0.09534031 -0.096101955
-0.047848478 0.1194936 0.11279532 0.062341124 0.11641307 0.07534835 0.036122084 0.11184843
0.073975205 0.020721436 0.04511802 0.008741617 -0.0538671 0.05774434 0.05950077 0.07596746
0.0886862 0.11320798 0.035577476 -0.039617643 0.041168317 0.06670423 -0.088910475 -0.07470405
-0.095994234 -0.06803645 0.1170256 0.065095454 -0.008780658 -0.09024881 0.035758168 0.022374243
0.0015960783 -0.08144127 0.122629315 0.016736254 -0.09578587 0.07153872 -0.021816537 -0.08609024
-0.09013148 -0.009894699 -0.066178605 -0.083910525 0.05676751 -0.0058692545 -0.07911995 0.0057252347
-0.122109696 0.09911387 -0.113930985 -0.07225691 -0.025264367 -0.11889432 -0.10797414 -0.096248075
-0.079161584 0.036176357 0.06960572 -0.09022696 0.08473543 -0.05582641 0.11011591 -0.03704206
0.05534102 0.025612628 -0.04238248 0.013370976 0.04127349 0.102176405 0.027586445 0.075279474
0.01402541 0.09953159 -0.069890715 -0.0539117 -0.00026513636 0.0826619 -0.12274447 0.055528462
0.13917185 0.10463846 0.11045125 -0.02589389 0.040411998 0.107873335 -0.058041 -0.025216237
-0.055442467 0.087079406 0.026494354 -0.11202146 0.08310287 0.10306597 -0.0066281706 0.13301753
-0.11291377 0.010076448 0.0060173697 0.053224538 0.060252547 0.06269289 0.14095026 -0.070152625
0.0128489 0.040595036 -0.09895927 -0.05970736 -0.077551305 -0.046214342 -0.072426654 0.12327206
-0.06107363 0.028307391 -0.029864466 0.08062917 0.0148188025 -0.08487846 -0.041391402 -0.059139963
0.041012764 0.0910242 0.060600057 0.026190424 -0.07617816 0.03340249 0.06357613 -0.0007549158
-0.12237747 -0.08767072 -0.12007475 0.020758241 0.0039906604 0.08768186 0.057245046 -0.054145794
0.02900273 0.14382964 -0.024061238 -0.12477444 -0.027887223 -0.066827536 0.09330279 0.12401069
0.1452409 0.10975153 0.0012780181 -0.06116261 0.03639143 -0.02862129 -0.025605442 -0.10542311
0.10651015 -0.12441796 -0.034168646 0.0577532 -0.085572675 -0.03234406 -0.11462042 0.058105927
0.11405142 0.046784285 -0.02912314 0.11432334 0.10114674 0.13130002 -0.020982355 0.026206437
0.017204167 0.013630322 0.11303669 -0.0659254 -0.05987682 0.067672275 0.020743875 -0.0449684
0.0651232 -0.018797291 0.13196452 -0.09227066 -0.024434451 0.057311893 -0.041558485 0.025357421
-0.027483419 0.086278185 -0.113281876 -0.08792904 -0.10240635 0.017382413 -0.0057043433 -0.055814475
-0.09215382 0.0653332 -0.08349037 -0.08074467 -0.018083617 -0.12381643 -0.04000604 0.015093505
0.06892413 0.0021057874 0.11852278 -0.022952616 0.04827501 -0.080030516 -0.015770465 0.100452766
0.08388066 -0.012458578 -0.06252995 -0.0414972 -0.100870624 0.061385557 0.1167846 -0.015660435
-0.0730429 0.124164104 -0.047662467 -0.024691403 -0.084176615 0.10155557 0.020881012 -0.12431966
0.11755243 0.07612936 0.04576184 0.12361334 0.026461244 -0.060425043 -0.04857166 0.064293
-0.06937729 0.08173761 -0.069851324 0.1022511 -0.024662688 0.09469351 -0.06989859 0.036602795
0.08898291 0.029109508 -0.016188666 -0.075894505 -0.05834298 0.04831937 0.10334709 -0.070057824

bias f4 [64]
00000000: 94b8 66bd d52d a0bd e085 aabd 80d1 c2bb
00000010: 64c9 97bd 5eb7 c0bd 7da3 143e 6492 c6bd
00000020: b540 9cbc c50f 033e 8a35 23bd 70a7 a23d
00000030: fe3c 76bd 80a5 9bba 757b 853d 9769 dabc
00000040: 815d 81bd be6c 5f3d f01e abbc 130f 073e
00000050: 8ccb c83b 2e57 143e bc4e 18bd 4e6b d5bc
00000060: 001c bc39 d51e ba3d c82f ec3d 7bd4 ad3d
00000070: 0dd9 08bd afa5 e93c 5d0e e63d 5af0 f43d
00000080: 5dc0 e63d 49dc 813d c04f 7cbc 4b76 e23d
00000090: 3664 853d 6047 ddbd c48e 123e 1a42 473c
000000a0: c6e8 f43d 2413 c63d 801b 01bc f0fc abbd
000000b0: 8e6b c3bd 316d cebc 2449 553d dabe e13c
000000c0: ff9d 0d3d b6ae d0bd 56e9 ba3d 10a0 fdbc
000000d0: 10b7 b43d 64f1 a0bd c815 e13c 7056 a93d
000000e0: fd3b 763d 14a5 febd 566e d73d 99cc 97bd
000000f0: 30e1 ebbd ff6a 87bd 268c f2bd 8de1 863d
-0.05632837 -0.07821242 -0.08326316 -0.0059453845 -0.07411459 -0.094099745 0.14515491 -0.096958905
-0.019073823 0.12798984 -0.03984598 0.079420924 -0.06011676 -0.0011874884 0.06517688 -0.026661677
-0.063166626 0.054547064 -0.020888776 0.13189344 0.0061277803 0.14486381 -0.037184462 -0.026052143
0.00035879016 0.09087912 0.11532551 0.08487793 -0.03341012 0.028521387 0.11233208 0.11959906
0.11267159 0.06340844 -0.015399873 0.11057719 0.06513254 -0.10804629 0.14312273 0.012161756
0.119584605 0.096716195 -0.007880092 -0.083978534 -0.09541999 -0.02519855 0.052071705 0.027556825
0.034574505 -0.101895735 0.091265365 -0.030960113 0.08823979 -0.078585416 0.027476206 0.0826844
0.060115803 -0.1243383 0.10519092 -0.07412071 -0.115175605 -0.06612205 -0.118431374 0.06585989

mask f4 [64, 64]
00000000: 0000 803f 0000 0000 0000 0000 0000 803f
00000010: 0000 0000 0000 0000 0000 803f 0000 0000
00000020: 0000 0000 0000 803f 0000 0000 0000 0000
00000030: 0000 803f 0000 0000 0000 0000 0000 803f
00000040: 0000 0000 0000 0000 0000 803f 0000 0000
00000050: 0000 0000 0000 803f 0000 0000 0000 0000
00000060: 0000 803f 0000 0000 0000 0000 0000 803f
00000070: 0000 0000 0000 0000 0000 803f 0000 0000
00000080: 0000 0000 0000 803f 0000 0000 0000 0000
00000090: 0000 803f 0000 0000 0000 0000 0000 803f
000000a0: 0000 0000 0000 0000 0000 803f 0000 0000
000000b0: 0000 0000 0000 803f 0000 0000 0000 0000
000000c0: 0000 803f 0000 0000 0000 0000 0000 803f
000000d0: 0000 0000 0000 0000 0000 803f 0000 0000
000000e0: 0000 0000 0000 803f 0000 0000 0000 0000
000000f0: 0000 803f 0000 0000 0000 0000 0000 803f
00000100: 0000 803f 0000 803f 0000 0000 0000 803f
00000110: 0000 803f 0000 0000 0000 803f 0000 803f
00000120: 0000 0000 0000 803f 0000 803f 0000 0000
00000130: 0000 803f 0000 803f 0000 0000 0000 803f
00000140: 0000 803f 0000 0000 0000 803f 0000 803f
00000150: 0000 0000 0000 803f 0000 803f 0000 0000
00000160: 0000 803f 0000 803f 0000 0000 0000 803f
00000170: 0000 803f 0000 0000 0000 803f 0000 803f
00000180: 0000 0000 0000 803f 0000 803f 0000 0000
00000190: 0000 803f 0000 803f 0000 0000 0000 803f
000001a0: 0000 803f 0000 0000 0000 803f 0000 803f
000001b0: 0000 0000 0000 803f 0000 803f 0000 0000
000001c0: 0000 803f 0000 803f 0000 0000 0000 803f
000001d0: 0000 803f 0000 0000 0000 803f 0000 803f
000001e0: 0000 0000 0000 803f 0000 803f 0000 0000
000001f0: 0000 803f 0000 803f 0000 0000 0000 803f
00000200: 0000 803f 0000 803f 0000 803f 0000 803f
00000210: 0000 803f 0000 803f 0000 803f 0000 803f
00000220: 0000 803f 0000 803f 0000 803f 0000 803f
00000230: 0000 803f 0000 803f 0000 803f 0000 803f
00000240: 0000 803f 0000 803f 0000 803f 0000 803f
00000250: 0000 803f 0000 803f 0000 803f 0000 803f
00000260: 0000 803f 0000 803f 0000 803f 0000 803f
00000270: 0000 803f 0000 803f 0000 803f 0000 803f
00000280: 0000 803f 0000 803f 0000 803f 0000 803f
00000290: 0000 803f 0000 803f 0000 803f 0000 803f
000002a0: 0000 803f 0000 803f 0000 803f 0000 803f
000002b0: 0000 803f 0000 803f 0000 803f 0000 803f
000002c0: 0000 803f 0000 803f 0000 803f 0000 803f
000002d0: 0000 803f 0000 803f 0000 803f 0000 803f
000002e0: 0000 803f 0000 803f 0000 803f 0000 803f
000002f0: 0000 803f 0000 803f 0000 803f 0000 803f
00000300: 0000 803f 0000 0000 0000 0000 0000 803f
00000310: 0000 0000 0000 0000 0000 803f 0000 0000
00000320: 0000 0000 0000 803f 0000 0000 0000 0000
00000330: 0000 803f 0000 0000 0000 0000 0000 803f
00000340: 0000 0000 0000 0000 0000 803f 0000 0000
00000350: 0000 0000 0000 803f 0000 0000 0000 0000
00000360: 0000 803f 0000 0000 0000 0000 0000 803f
00000370: 0000 0000 0000 0000 0000 803f 0000 0000
00000380: 0000 0000 0000 803f 0000 0000 0000 0000
00000390: 0000 803f 0000 0000 0000 0000 0000 803f
000003a0: 0000 0000 0000 0000 0000 803f 0000 0000
000003b0: 0000 0000 0000 803f 0000 0000 0000 0000
000003c0: 0000 803f 0000 0000 0000 0000 0000 803f
000003d0: 0000 0000 0000 0000 0000 803f 0000 0000
000003e0: 0000 0000 0000 803f 0000 0000 0000 0000
000003f0: 0000 803f 0000 0000 0000 0000 0000 803f
1.0 0.0 0.0 1.0 0.0 0.0 1.0 0.0
0.0 1.0 0.0 0.0 1.0 0.0 0.0 1.0
0.0 0.0 1.0 0.0 0.0 1.0 0.0 0.0
1.0 0.0 0.0 1.0 0.0 0.0 1.0 0.0
0.0 1.0 0.0 0.0 1.0 0.0 0.0 1.0
0.0 0.0 1.0 0.0 0.0 1.0 0.0 0.0
1.0 0.0 0.0 1.0 0.0 0.0 1.0 0.0
0.0 1.0 0.0 0.0 1.0 0.0 0.0 1.0
1.0 1.0 0.0 1.0 1.0 0.0 1.0 1.0
0.0 1.0 1.0 0.0 1.0 1.0 0.0 1.0
1.0 0.0 1.0 1.0 0.0 1.0 1.0 0.0
1.0 1.0 0.0 1.0 1.0 0.0 1.0 1.0
0.0 1.0 1.0 0.0 1.0 1.0 0.0 1.0
1.0 0.0 1.0 1.0 0.0 1.0 1.0 0.0
1.0 1.0 0.0 1.0 1.0 0.0 1.0 1.0
0.0 1.0 1.0 0.0 1.0 1.0 0.0 1.0
1.0 1.0 1.0 1.0 1.0 1.0 1.0 1.0
1.0 1.0 1.0 1.0 1.0 1.0 1.0 1.0
1.0 1.0 1.0 1.0 1.0 1.0 1.0 1.0
1.0 1.0 1.0 1.0 1.0 1.0 1.0 1.0
1.0 1.0 1.0 1.0 1.0 1.0 1.0 1.0
1.0 1.0 1.0 1.0 1.0 1.0 1.0 1.0
1.0 1.0 1.0 1.0 1.0 1.0 1.0 1.0
1.0 1.0 1.0 1.0 1.0 1.0 1.0 1.0
1.0 0.0 0.0 1.0 0.0 0.0 1.0 0.0
0.0 1.0 0.0 0.0 1.0 0.0 0.0 1.0
0.0 0.0 1.0 0.0 0.0 1.0 0.0 0.0
1.0 0.0 0.0 1.0 0.0 0.0 1.0 0.0
0.0 1.0 0.0 0.0 1.0 0.0 0.0 1.0
0.0 0.0 1.0 0.0 0.0 1.0 0.0 0.0
1.0 0.0 0.0 1.0 0.0 0.0 1.0 0.0
0.0 1.0 0.0 0.0 1.0 0.0 0.0 1.0
